logs/epoch=0-step=385-v1.ckpt (torch, 250167 bytes, 39 tensors)

model.node_embeddings.emb f4 [207, 16]
0	0x3e66d3b2	0.22541693
1	0x3e233a49	0.15940203
2	0x3d63810f	0.055543
3	0xbe158801	-0.14602663
4	0x3dc8e5ab	0.09809431
5	0x3da20749	0.07911546
6	0xbdc94a13	-0.09828582
7	0x3bb007eb	0.0053720376
8	0xbe46e0fd	-0.19421764
9	0x3e098bc9	0.1343223
10	0xbddb4bfd	-0.10707853
11	0xbd95fcfc	-0.073236436
12	0x3e83899f	0.25690934
13	0xbe1e17f7	-0.1543883
14	0x3b763562	0.003756844
15	0xbde29bec	-0.11064896
16	0x3dc71454	0.09720674
17	0xbdeb16be	-0.11478947
18	0x3e3449a6	0.1760622
19	0x3e5547a7	0.20828114
20	0x3de98f56	0.11404292
21	0xbda45a9a	-0.080250934
22	0x3dd2ee59	0.102993675
23	0x3c342784	0.010995749
24	0x3ddcd0c4	0.107820064
25	0xbdf69ca9	-0.12041599
26	0xbd94bb18	-0.07262248
27	0xbe1951c0	-0.14972591
28	0xbbd004aa	-0.0063482122
29	0x3e58090a	0.21097198
30	0x3e05944d	0.13044854
31	0x3cab75f8	0.020930275
32	0x3e924eda	0.28575784
33	0x3e5fb675	0.21846946
34	0xbea0cc4b	-0.31405863
35	0x3e30817d	0.17236896
36	0xbc13160f	-0.008977427
37	0xbe6c7b88	-0.23093998
38	0xbd8bd625	-0.06827954
39	0xbd91db2e	-0.07121883
40	0x3e5a44ed	0.21315356
41	0x3e885544	0.26627553
42	0x3d12f79d	0.035880674
43	0x3c6b81b0	0.014374182
44	0xbd7dce2d	-0.061964203
45	0x3e854820	0.2603159
46	0xbd9097f9	-0.070602365
47	0x3d93e690	0.07221711
48	0xbe88471f	-0.2661676
49	0x3e175417	0.14778171
50	0x3e2b52da	0.16730824
51	0x3e20d865	0.15707548
52	0xbe4c8bce	-0.19975206
53	0xbdfb92e5	-0.12283877
54	0xbea11c0b	-0.31466708
55	0x3d8fd313	0.07022681
56	0xbd895866	-0.06706314
57	0x3e2cdc04	0.16880804
58	0xbc4ac0a3	-0.01237503
59	0x3e420e97	0.18950878
60	0xbe4a0a06	-0.19730386
61	0xbe879678	-0.26481986
62	0xbe4461a4	-0.19177872
63	0x3bcca7d2	0.0062455917
64	0x3e7ff2e7	0.24995004
65	0xbdb124a3	-0.08649566
66	0x3d453caf	0.048153576
67	0x3ddbd0cd	0.10733185
68	0xbdb1fa9c	-0.08690378
69	0x3e3a0652	0.18166474
70	0x3be199ee	0.006884805
71	0xbe0a1697	-0.1348518
72	0xbddf1c3c	-0.10894057
73	0x3e83c533	0.2573639
74	0xbd02964e	-0.031881623
75	0xbe7bf5e5	-0.2460552
76	0xbc772010	-0.015083328
77	0xbd6b6758	-0.057471603
78	0x3e9fd8e0	0.3122015
79	0x3e1f5444	0.15559489
80	0x3d739d92	0.059476443
81	0x3c2cbf82	0.010543706
82	0x3e606500	0.21913528
83	0x3e582ebb	0.21111576
84	0xbe3a7ffc	-0.18212885
85	0xbd297b54	-0.04137738
86	0xbe11d640	-0.14241886
87	0x3d2adcda	0.041714527
88	0x3e070ac2	0.13187698
89	0x3e6806ab	0.22658794
90	0x3e84b770	0.25921202
91	0xbd4b3824	-0.049614087
92	0xbbbbe978	-0.0057346188
93	0xbcf1744e	-0.029474404
94	0xbe864415	-0.26223817
95	0x3e3deecf	0.1854813
96	0xbc4cd7d6	-0.012502631
97	0x3da9dcd8	0.08294076
98	0xbd2f3464	-0.042774573
99	0x3dd48b79	0.10378165
100	0xbdc30274	-0.09521952
101	0xbe39a80c	-0.18130511
102	0x3dbfb0bd	0.09359882
103	0xbe0718fe	-0.13193128
104	0xbdd15deb	-0.102229916
105	0xbd990199	-0.07471008
106	0x3e882dbf	0.26597401
107	0xbe23164a	-0.15926471
108	0x3dbbb12e	0.09164654
109	0xbdca27b2	-0.098708525
110	0xbc3cf84e	-0.01153381
111	0x3db21cad	0.08696876
112	0x3d04e302	0.032443054
113	0x3e30f922	0.17282537
114	0x3d691343	0.056903135
115	0xbd9f5d54	-0.07781473
116	0x3c775021	0.015094788
117	0xbd27f2f7	-0.041003194
118	0x3e56dd33	0.20982818
119	0xbd795873	-0.060875367
120	0xbd8153dd	-0.06314824
121	0xbd4500d4	-0.048096493
122	0xbd185287	-0.03718808
123	0x3e3d431a	0.18482628
124	0x3d01fa05	0.031732578
125	0xbe3b5acb	-0.18296354
126	0x3cbba358	0.022905037
127	0x3d05fed2	0.03271372
128	0x3e972954	0.29523718
129	0xbd9e3c9c	-0.07726404
130	0x3e6fa334	0.23402101
131	0x3d4b837f	0.04968595
132	0x3d30a77d	0.04312848
133	0xbe6a0729	-0.22854294
134	0x3cf73d27	0.030180527
135	0x3e26f073	0.16302662
136	0xbe4b3bbb	-0.19847004
137	0xbe94e4aa	-0.29080707
138	0xbd92127f	-0.07132434
139	0xbce3e7ff	-0.027820585
140	0xbe8bba97	-0.27290794
141	0xbd7024f7	-0.058629002
142	0xbd32499e	-0.043527238
143	0xbe1fefb5	-0.15618785
144	0xbdbd6987	-0.09248643
145	0xbe0023a4	-0.12513596
146	0xbe791169	-0.24323048
147	0xbe67507a	-0.22589293
148	0x3ce1fe74	0.027587153
149	0xbd947a74	-0.072499186
150	0x3d6e643a	0.058201052
151	0xbe7ac5a1	-0.24489452
152	0xbe14e80e	-0.14541647
153	0x3e0ab5ce	0.13545915
154	0x3c23980d	0.009984982
155	0x3dadb480	0.08481693
156	0x3ed30fa1	0.4122286
157	0x3e925547	0.28580686
158	0x3df7c280	0.12097645
159	0xbe5aea95	-0.21378548
160	0xbdf93d58	-0.121699035
161	0x3d9953fa	0.074867204
162	0x3dbd1b10	0.092336774
163	0xbe11af89	-0.14227118
164	0x3dd04b02	0.101705566
165	0x3e0d14b7	0.13777433
166	0xbe559963	-0.20859294
167	0xbd31fd9b	-0.043454748
168	0xbe343fde	-0.17602488
169	0xbdee1e92	-0.116269246
170	0xbd21e711	-0.039527003
171	0xbe6bb98d	-0.23020001
172	0xb8bb5114	-8.931957e-05
173	0x3df90bb8	0.12160438
174	0x3d8d79bf	0.06907987
175	0xbb1d22b7	-0.002397699
176	0x3e45c09f	0.1931176
177	0xbe58ddff	-0.21178435
178	0xbe128824	-0.14309746
179	0x3e21da37	0.15805899
180	0x3b422386	0.0029623224
181	0x3c6ed43c	0.014576968
182	0xbdb38c9e	-0.08767055
183	0xbe037876	-0.12838921
184	0x3e312eb1	0.17302968
185	0xbddba74f	-0.10725271
186	0x3e3a28d4	0.18179637
187	0xbdc32983	-0.09529402
188	0x3d9a049a	0.07520409
189	0xbdae5964	-0.08513144
190	0x3e27ca04	0.16385657
191	0x3e5e356d	0.21700068
192	0xbebb5dcd	-0.36595002
193	0xbcb0bb8b	-0.021573802
194	0xbe0077fa	-0.12545767
195	0x3e6a6c66	0.22892913
196	0x3e4003cf	0.18751453
197	0x3df7a5da	0.120921806
198	0x3d78a9a4	0.060708657
199	0xbd1ad87a	-0.037804104
200	0x3d71d4ad	0.059040714
201	0x3ef4206c	0.47680986
202	0xbdbfe0ec	-0.09369072
203	0x3c085991	0.008322136
204	0x3e1045c6	0.14089116
205	0xbe1ae03f	-0.15124606
206	0x3ebd90c9	0.37024525
207	0xbe7011c9	-0.23444284
208	0xbda2dc39	-0.079521604
209	0x3e857d47	0.26072142
210	0x3d5da839	0.054115508
211	0xbe1d7eda	-0.15380421
212	0xbda769ad	-0.08174453
213	0xbe10ed54	-0.14153033
214	0x3c098b0c	0.008394968
215	0x3e8b802b	0.27246222
216	0xbdb73054	-0.08944765
217	0xbd82a035	-0.06378213
218	0xbda94b43	-0.08266308
219	0xbb8e3573	-0.0043398677
220	0xbe3883ad	-0.1801898
221	0x3e835ec6	0.25658244
222	0xbe21cb59	-0.15800227
223	0xbe10ca52	-0.14139679
224	0xbe2ac789	-0.16677679
225	0xbd74374a	-0.05962304
226	0x3b714555	0.0036815007
227	0x3d97fa6f	0.07420813
228	0x3a4b5861	0.0007757005
229	0x3db0defc	0.08636281
230	0x3e61f182	0.22064784
231	0x3da89ba6	0.082328126
232	0x3db3bb78	0.08775991
233	0xbe688152	-0.22705582
234	0x3e0ed752	0.13949326
235	0x3e6c9780	0.23104668
236	0xbbe6c290	-0.0070422366
237	0x3e344f3d	0.17608352
238	0x3d8ce3c6	0.06879382
239	0x3e20cd8f	0.15703414
240	0xbd7f6fc2	-0.06236244
241	0x3e1b269c	0.15151447
242	0x3d118019	0.035522554
243	0x3d0f469c	0.034979448
244	0xbd71f68b	-0.059073012
245	0xbd09d145	-0.03364684
246	0x3dc9d52f	0.09855115
247	0x3ca9bff6	0.020721417
248	0xbe9d3e93	-0.30711803
249	0x3e2e3cea	0.17015424
250	0xbe558bf3	-0.20854168
251	0xbc592e89	-0.013255724
252	0xbdad7fec	-0.08471665
253	0xbe2ddb2b	-0.16978137
254	0x3e10bc7b	0.141344
255	0xbe2f52f2	-0.17121485

model.encoder.weight f4 [32, 17]
0	0xbdcfe390	-0.10150826
1	0x3d15338f	0.036426123
2	0x3e783744	0.24239832
3	0x3e076d88	0.13225377
4	0x3dec00fe	0.11523627
5	0x3da33000	0.0796814
6	0x3bd41775	0.006472523
7	0x3d86b898	0.06578177
8	0x3df6582a	0.12028535
9	0xbe214842	-0.1575022
10	0x3e2a6574	0.16640264
11	0xbe284729	-0.16433395
12	0x3d60b8d9	0.054863784
13	0x3e21794e	0.1576893
14	0xbda1871b	-0.078870974
15	0x3e0e9422	0.13923696
16	0xbe641bc3	-0.22276215
17	0x3e82d08c	0.25549734
18	0xba21b73e	-0.0006168968
19	0xbe0c19ad	-0.1368167
20	0x3d4865f4	0.048925355
21	0x3e43ac94	0.19108802
22	0xbc181dd3	-0.009284454
23	0xbe3df313	-0.18549757
24	0x3e145c2a	0.14488283
25	0xbe46eb10	-0.19425607
26	0x3d01c7f2	0.031684823
27	0x3d0ec9ce	0.034860425
28	0x3ab5eac4	0.001387917
29	0x3dd5f015	0.10446183
30	0xbb68ec86	-0.003554137
31	0x3c2cafc9	0.010539957
32	0x3d835aee	0.06413828
33	0x3def1590	0.116740346
34	0xbe2a58dc	-0.1663546
35	0xbe8f2afd	-0.27962485
36	0xbe392e64	-0.18084103
37	0xbce5ddd6	-0.028059881
38	0xbe7f2cb7	-0.24919401
39	0x3c2dddb9	0.010611945
40	0xbb8a8383	-0.004227103
41	0x3df9607c	0.12176606
42	0xbb570d77	-0.0032814422
43	0x3cc376c1	0.023860337
44	0x3e3c5d5f	0.18394993
45	0xbe3b2aba	-0.18278018
46	0xbe1f6b7b	-0.15568344
47	0xbd62b2f2	-0.055346437
48	0xbd21612f	-0.039399322
49	0x3e36c562	0.17848733
50	0xbd382787	-0.04495957
51	0xbcc8fc32	-0.024534319
52	0xbe97ec5e	-0.2967252
53	0xbe191841	-0.14950658
54	0x3d1c9115	0.0382243
55	0xbd620b90	-0.055186808
56	0x3e704594	0.23464042
57	0x3e1e9e9f	0.15490197
58	0xbcb3f7c3	-0.021968728
59	0x3e5c6a5f	0.21524952
60	0x3e2411d2	0.16022423
61	0x3ddbb090	0.10727036
62	0x3d50dd70	0.05099243
63	0x3e0b817a	0.1362361
64	0xbd2cabf2	-0.042156167
65	0xbe3b272b	-0.1827666
66	0x3e6eaf85	0.23309143
67	0x3d5d13b3	0.053973865
68	0xbe605ca4	-0.2191034
69	0xbe9187db	-0.28423962
70	0x3d8a10f9	0.067415185
71	0x3db2a1ea	0.08722289
72	0x3e163c01	0.14671327
73	0x3e66c42d	0.22535773
74	0xbd95fd3b	-0.073236905
75	0x3bd5c95b	0.0065242476
76	0xbdc6bd98	-0.09704131
77	0xbe4ac03a	-0.19799891
78	0x3e5fa0cd	0.21838684
79	0x3d6fa8e4	0.058510676
80	0xbe5a3cea	-0.213123
81	0xbdcc17c0	-0.099654675
82	0xbd8137bc	-0.063094586
83	0xbd3c5887	-0.045982864
84	0xbdfb8e88	-0.12283045
85	0xbe23defd	-0.16003032
86	0x3cbc6bfd	0.023000712
87	0x3e0f70ed	0.14007922
88	0x3d467af6	0.04845711
89	0x3e1496e0	0.14510679
90	0x3e678bc0	0.22611904
91	0x3dbe648c	0.092965215
92	0xbe062fb9	-0.13104142
93	0x3cf28392	0.029603753
94	0x3e20fc86	0.1572133
95	0x3d158400	0.036502838
96	0x3e60bf91	0.21948077
97	0xbdffc092	-0.12487902
98	0xbdd819f0	-0.10551822
99	0xbda0b3e9	-0.07846815
100	0xbe201af6	-0.15635285
101	0x3e2a80a8	0.16650641
102	0x3dfb643c	0.122749776
103	0x3c2fd116	0.010731002
104	0xbd56999e	-0.052392595
105	0xbb10dc4a	-0.0022103959
106	0xbdaa2646	-0.08308081
107	0x3d331ca9	0.043728504
108	0xbe697900	-0.22800064
109	0xbcf8ed43	-0.030386573
110	0x3e5566aa	0.20839944
111	0xbe522c51	-0.20524718
112	0x3d41c0ec	0.047303125
113	0x3e7f07f9	0.24905385
114	0xbe87ec2d	-0.26547375
115	0xbe7778ac	-0.24167126
116	0xbe277630	-0.16353679
117	0x3e1904a8	0.14943182
118	0xbe4a0386	-0.19727907
119	0xbcbe60e1	-0.023239555
120	0xbd32f309	-0.043688808
121	0x3dda1f93	0.106505536
122	0x3e2f1bb1	0.17100407
123	0x3be5f51b	0.0070177442
124	0x3e81bd61	0.25339797
125	0x3cfe41a0	0.031037152
126	0xbc1644a9	-0.009171643
127	0xbe269ac6	-0.16269979
128	0x3d6155a1	0.055013303
129	0x3e188bf3	0.14897136
130	0x3e3e5c17	0.18589817
131	0xbdc29d9b	-0.09502717
132	0x3e0ca342	0.13734153
133	0x3e7d2225	0.24720056
134	0x3e1eada0	0.1549592
135	0x3e2ab30e	0.16669866
136	0x3e8e51f4	0.277969
137	0xbe00873d	-0.1255159
138	0x3e01120d	0.12604542
139	0x3e02c90b	0.12772004
140	0xbddbb806	-0.10728459
141	0x3d099d0b	0.033597033
142	0x3e0583cf	0.13038562
143	0xbd660b13	-0.056162905
144	0x3e42eb30	0.1903503
145	0x3e4d36b5	0.200404
146	0x3e02f4c8	0.12788689
147	0xbe1729fe	-0.14762112
148	0xbe995f19	-0.29955366
149	0x3df384ea	0.11890586
150	0x3d869aac	0.0657247
151	0xbe64c396	-0.22340235
152	0xbe365aae	-0.17808029
153	0x3e0c808a	0.13720909
154	0xbcdfd141	-0.02732146
155	0xbe90db4f	-0.2829232
156	0x3eab1bfb	0.33419785
157	0xbcd95ca2	-0.026533429
158	0xbd554eba	-0.052077033
159	0x3e7305f6	0.23732743
160	0xbe1c044a	-0.15236011
161	0x3e6e06be	0.2324476
162	0xbe68c683	-0.22731976
163	0xbe7b6bcf	-0.24552844
164	0x3c5fb495	0.013653894
165	0x3df22c2e	0.11824833
166	0xbdfcec91	-0.12349809
167	0xbe0ee9c4	-0.13956362
168	0xbd5596d7	-0.052145805
169	0x3e856f72	0.2606159
170	0x3d46db81	0.04854918
171	0xbe5ce3c8	-0.21571267
172	0xbe6b70f0	-0.22992301
173	0x3c111406	0.008854872
174	0xbe4ba733	-0.19888
175	0x3e0640d5	0.13110669
176	0xbc6f1824	-0.014593158
177	0x3c514930	0.012773797
178	0x3e247fd2	0.16064385
179	0xbb9eeb73	-0.004849845
180	0x3e21f26d	0.15815134
181	0xbdef197d	-0.116747834
182	0xbd290e6c	-0.04127352
183	0xbe73ce5a	-0.23809186
184	0xbe888760	-0.26665783
185	0xbe525552	-0.2054036
186	0x3cff50bc	0.031166427
187	0x3c651940	0.013983071
188	0xbdf1dd73	-0.11809816
189	0xbe1dd241	-0.15412237
190	0x3e13ce26	0.14434108
191	0xbe2322be	-0.15931222
192	0x3d05711b	0.03257857
193	0x3bed06d8	0.007233482
194	0x3e34571b	0.17611353
195	0x3e0c5ee7	0.13708077
196	0x3dd8fe87	0.10595422
197	0x3b19dab4	0.0023476304
198	0xbd8dd114	-0.06924644
199	0xbca23c31	-0.019804092
200	0xbe540892	-0.20706394
201	0xbd88afc2	-0.06674148
202	0x3e4a54cc	0.1975891
203	0xbd105dfd	-0.035245884
204	0xbe6f2435	-0.23353656
205	0x3db376b0	0.08762872
206	0xbdc68e40	-0.09695101
207	0xbd125a36	-0.035730563
208	0xbe7ec2f9	-0.24879064
209	0xbe267394	-0.16255027
210	0x3e08eb94	0.13371116
211	0x3db82b97	0.08992689
212	0xbcec3ed2	-0.028838549
213	0x3d0cdb8a	0.034389056
214	0x3e49583b	0.19662564
215	0xbe30009b	-0.17187731
216	0xbe160750	-0.14651227
217	0xbd48b049	-0.048996244
218	0x3cbf81b3	0.023377275
219	0xbe5bf13e	-0.21478745
220	0x3e60948e	0.21931669
221	0xbddf5746	-0.10905318
222	0xbe3c8248	-0.18409073
223	0x3d33d29f	0.043902036
224	0xbc2e58ee	-0.01064132
225	0xbe09a4c0	-0.13441753
226	0xbc9d397d	-0.019192452
227	0x3e28fae1	0.16501953
228	0x3e822f6c	0.25426805
229	0xbde7aa23	-0.11311748
230	0x3df4dae8	0.119558156
231	0x3e8148f3	0.25250968
232	0x3d9b0526	0.07569341
233	0x3e0a7383	0.13520627
234	0xbdb54ed3	-0.08852925
235	0x3e777ad9	0.24167956
236	0x3cde10fb	0.027107706
237	0x3e2fdc57	0.17173897
238	0x3da3fc4f	0.080071084
239	0x3da2fb25	0.07958058
240	0x3e11a253	0.14222078
241	0x3dd7712f	0.10519635
242	0xbe1cec92	-0.1532462
243	0xbce96cb2	-0.028494213
244	0x3e063f2e	0.13110039
245	0x3e1e745e	0.15474078
246	0x3e3c707e	0.18402287
247	0xbe9822c7	-0.29714033
248	0x3da36450	0.079781175
249	0xbe970c7e	-0.29501718
250	0xbd956926	-0.07295446
251	0x3d0d401f	0.03448498
252	0xbe057eb1	-0.1303661
253	0xbd9c657f	-0.07636546
254	0xbe0ecc5f	-0.13945149
255	0x3e1cd1b9	0.15314378

model.encoder.bias f4 [32]
0	0x3e329ee4	0.17443424
1	0xbe4976f7	-0.19674288
2	0x3e35389a	0.17697373
3	0x3e281c96	0.16417155
4	0x3e101036	0.14068684
5	0x3df20925	0.118181504
6	0x3e077d7c	0.13231462
7	0xbe7e1c85	-0.24815567
8	0x3e3a85d0	0.18215108
9	0x3c35713c	0.01107436
10	0xbe438c3d	-0.19096465
11	0x3e5ad967	0.21371995
12	0x3e525c1f	0.20542954
13	0x3c2ac565	0.010423039
14	0xbe266614	-0.16249877
15	0x3e4e4ea8	0.20147192
16	0x3dd1d9c0	0.10246611
17	0xbdb8492e	-0.08998333
18	0x3d05d65e	0.03267514
19	0x3d297748	0.04137352
20	0xbd77b9f8	-0.060480088
21	0x3e517380	0.20454216
22	0xbdecccba	-0.11562486
23	0x3de7bf0b	0.113157354
24	0xbe222ff9	-0.15838613
25	0x3ddfc24a	0.109257296
26	0x3e38ef85	0.1806012
27	0x3cd9cc64	0.026586719
28	0xbe69feea	-0.22851148
29	0xbe3cc33b	-0.1843385
30	0xbda03a99	-0.078236766
31	0xbdb76455	-0.08954684

model.time_nn.rnn.weight_ih_l0 f4 [96, 32]
0	0x3dc89faa	0.097960785
1	0xbe73b4f3	-0.23799495
2	0x3d581cc9	0.052761827
3	0xbd35f44a	-0.044422425
4	0x3e6e165b	0.23250715
5	0x3d5b9544	0.053609148
6	0xbcc9d7a8	-0.024638966
7	0xbc8ddf01	-0.01731825
8	0xbbb9df00	-0.0056723356
9	0x3c4c9b51	0.012488202
10	0x3d8af292	0.06784548
11	0x3e0dcf41	0.13848592
12	0xbd802ed8	-0.06258935
13	0x3c6e3dcc	0.014541101
14	0xbe0790c7	-0.13238822
15	0x3bc76c1a	0.0060858848
16	0x3c213a77	0.009840599
17	0x3d4d67ce	0.050147824
18	0xbcebdcc5	-0.028791795
19	0xbe4ce714	-0.20010024
20	0x3d470d3f	0.048596617
21	0x3d896939	0.06709523
22	0x3e80d2db	0.2516087
23	0x3e674360	0.22584295
24	0xbda6624b	-0.08124217
25	0xbe3bae9b	-0.18328325
26	0x3d7599ec	0.059961244
27	0x3d4e8e76	0.05042883
28	0x3e860215	0.26173463
29	0x3de1aa9b	0.110188685
30	0xbe251aea	-0.16123548
31	0xbe18edc3	-0.14934449
32	0xbda16735	-0.07881013
33	0xbdd65def	-0.10467135
34	0xbd0ec258	-0.03485331
35	0xbc366503	-0.0111324815
36	0x3cfa8384	0.03058029
37	0xbdfef2eb	-0.12448677
38	0xbe0097fb	-0.12557976
39	0xbdcc2456	-0.09967868
40	0x3da41400	0.08011627
41	0x3cd2657d	0.025683159
42	0x3ac4ac6c	0.0015004999
43	0x3d07c195	0.0331436
44	0xbcae3a64	-0.021268077
45	0xbdc3a123	-0.09552219
46	0x3e0ca034	0.13732988
47	0xbd6876f7	-0.05675408
48	0xbdcbce53	-0.099514626
49	0x3dd64d6e	0.10463987
50	0x3e0b309d	0.13592763
51	0x3df9c00e	0.12194835
52	0x3d1dfdd2	0.03857214
53	0xbda8dd89	-0.082453795
54	0x3ca608d7	0.020267887
55	0xbdc10a80	-0.09425831
56	0xbdbe3814	-0.0928804
57	0xbe3ee0f9	-0.18640508
58	0xbdaa1102	-0.08304025
59	0x3cb2e344	0.021836884
60	0x3d26260e	0.040563636
61	0x3dbf514a	0.093416765
62	0xbe5bc337	-0.21461187
63	0xbd8706c8	-0.0659309
64	0xbe130cfd	-0.14360423
65	0x3de292f0	0.11063182
66	0xbe283ec1	-0.16430189
67	0x3d0c874e	0.034308724
68	0xbdb9a36f	-0.090643756
69	0xbd5790bf	-0.052628275
70	0xbd8e82ad	-0.06958518
71	0xbd642c57	-0.05570635
72	0x3e2c5a6c	0.16831368
73	0x3c83cee1	0.016089858
74	0xbdbe0ab3	-0.092793845
75	0xbe3e2929	-0.18570389
76	0xbd467065	-0.04844703
77	0xbe562525	-0.20912607
78	0x3c230d15	0.0099518495
79	0xbdd45e50	-0.10369551
80	0xbdd4fa72	-0.10399331
81	0x3e05fe96	0.13085398
82	0x3decff14	0.1157209
83	0xbde6d70a	-0.11271484
84	0xbdefe9f8	-0.11714548
85	0x3e09c9f8	0.13455951
86	0xbd02a8aa	-0.03189913
87	0x3d9fb2fd	0.07797811
88	0x3e3932a2	0.18085721
89	0xbc7bd6a3	-0.015370998
90	0x3daac287	0.083378844
91	0x3e48d964	0.19614178
92	0x3d6a80d3	0.057251763
93	0xbe2eb3f0	-0.17060828
94	0x3e0140d5	0.12622388
95	0xbd8b0b30	-0.06789243
96	0x3d467777	0.048453774
97	0xbd67ea10	-0.056619704
98	0x3e0d9a0b	0.13828294
99	0x3d593bee	0.05303567
100	0xbdca1f28	-0.09869224
101	0x3defedda	0.117152885
102	0x3dd4a3e5	0.10382823
103	0x3cf62d10	0.030050784
104	0x3de19cef	0.11016261
105	0xbd97c00f	-0.07409679
106	0xbd528628	-0.051397473
107	0xbd98fe8a	-0.074704245
108	0xbd845e57	-0.064633064
109	0x3e11d941	0.14243032
110	0x3d2045d8	0.03912911
111	0xbd0108a0	-0.031502366
112	0x3db46ee7	0.088102154
113	0x3e118861	0.1421218
114	0x3dc4c6df	0.09608244
115	0xbe11715a	-0.14203396
116	0x3d6e7907	0.05822089
117	0x3da7c570	0.08191955
118	0x3d565b9e	0.052333467
119	0x3d6b7c24	0.057491437
120	0xbe5977a2	-0.21237043
121	0x3def0220	0.11670327
122	0x3e0d3efb	0.13793556
123	0xbe428bca	-0.18998638
124	0x3d83e25a	0.064396575
125	0x3e0ea325	0.13929422
126	0xbd5c23fa	-0.053745247
127	0x3c73ae30	0.0148730725
128	0xbba8f802	-0.005156518
129	0x3d03eee8	0.03221026
130	0x3d8e41cd	0.06946144
131	0xbd7675ad	-0.060170818
132	0xbd73d282	-0.059526928
133	0xbd91a5ad	-0.07111678
134	0x3c8ce552	0.017199192
135	0xbd4e60f8	-0.050385445
136	0x3e004175	0.1252497
137	0xbe535455	-0.20637639
138	0x3de5ca51	0.112202294
139	0xbd7c1b4e	-0.061549477
140	0xbdd79ca5	-0.105279244
141	0x3c876678	0.016528353
142	0x3b3517c7	0.002763258
143	0xbe40e2cb	-0.18836515
144	0xbe393c91	-0.1808951
145	0xbd034ea2	-0.032057412
146	0x3e143c5d	0.14476152
147	0x3dd436ac	0.1036199
148	0x3bf4d9cb	0.007472252
149	0xbb4524f2	-0.0030081836
150	0x3e334277	0.17505823
151	0x3e3d33e1	0.18476821
152	0xbd2c4929	-0.04206196
153	0xbdfc2e5b	-0.12313529
154	0xbc5e1428	-0.01355461
155	0xbda50e71	-0.08059395
156	0xbdf76395	-0.12079541
157	0xbd6990d4	-0.057022884
158	0xbd9d2bfc	-0.07674405
159	0x3dbef513	0.09324088
160	0x3b9929fe	0.0046741953
161	0x3d3fef9a	0.04685936
162	0xbdc3b4af	-0.09555947
163	0x3d92a3e8	0.07160169
164	0x3da5cc0a	0.08095558
165	0x3e59d39b	0.21272127
166	0xbe341dea	-0.17589536
167	0xbd0f5ffb	-0.035003643
168	0x3cf4d39c	0.02988606
169	0xbe87cc7b	-0.26523194
170	0x3d84a744	0.06477216
171	0xbe263dbf	-0.16234492
172	0x3c51d1ea	0.012806395
173	0xbdf4a21d	-0.11944983
174	0x3d86f9df	0.06590628
175	0x3e023c70	0.12718368
176	0xbe0be4e6	-0.13661537
177	0x3969584c	0.00022253505
178	0x3d30de73	0.043180894
179	0x3b8b23ab	0.0042461953
180	0xbdd022a7	-0.101628594
181	0x3e4061f3	0.18787365
182	0x3e542aba	0.20719424
183	0x3e4ca4a9	0.19984688
184	0xbcc97c21	-0.024595322
185	0xbe37a9aa	-0.17935815
186	0xbde9588d	-0.11393843
187	0x3d6137e8	0.054984957
188	0x3d4fe74d	0.050757695
189	0x3e050a6b	0.12992255
190	0xbe028b6c	-0.12748498
191	0x3d3da3d0	0.046298802
192	0xbdeca75d	-0.115553595
193	0xbdbff29c	-0.09372446
194	0xbe36af1f	-0.17840241
195	0x3d651a5c	0.05593334
196	0x3d875386	0.06607728
197	0xbe593aac	-0.21213788
198	0xbe2cbfd2	-0.16870049
199	0x3cf4639d	0.029832656
200	0xbdd40997	-0.103533916
201	0x3d52b42a	0.05144135
202	0x3d71a344	0.058993593
203	0x3dc90eb5	0.09817258
204	0x3c28a085	0.010292177
205	0x3e0f4d4c	0.1399433
206	0xbdaa5198	-0.08316344
207	0x3d92200e	0.0713502
208	0x3d981521	0.07425905
209	0xbe1f9d3b	-0.15587322
210	0xbdb25272	-0.087071314
211	0x3d823e14	0.06359497
212	0x3d62e4ae	0.055393867
213	0x3e1e6286	0.15467271
214	0xbd40db05	-0.047083873
215	0xbde58068	-0.11206132
216	0x3ddf57c1	0.109054096
217	0xbe00790e	-0.12546179
218	0x3da6ce2b	0.08144792
219	0xbe25c3ed	-0.16188021
220	0x3d5079b0	0.0508973
221	0xbe31421a	-0.17310372
222	0x3cd3ac35	0.02583895
223	0x3e189131	0.14899136
224	0x3de5bacc	0.11217269
225	0xbd191042	-0.03736902
226	0x3c0662b4	0.008202244
227	0x3db0313a	0.08603139
228	0x3e37cf10	0.17950082
229	0x3e0e2c18	0.13884008
230	0xbe0dd921	-0.1385236
231	0xbdd78ba5	-0.10524682
232	0x3dc2fc1f	0.095207445
233	0xbd9015c8	-0.070354044
234	0x3c06f4f4	0.008237112
235	0xbcc41f60	-0.023940742
236	0x3e346c06	0.17619333
237	0x3e5de822	0.21670583
238	0x3d88cefd	0.06680105
239	0xbd3aee40	-0.04563737
240	0xbd35b82b	-0.04436509
241	0xbe0e681d	-0.13906904
242	0x3e266bf5	0.1625212
243	0x3d9dc38b	0.077033125
244	0xbe2f8e48	-0.1714412
245	0x3dbc0805	0.09181217
246	0x3bf41e77	0.0074499208
247	0x3d92fd35	0.07177202
248	0xbe33ee36	-0.17571339
249	0x3c9502b5	0.018189767
250	0xbda6e5df	-0.08149313
251	0xbe585652	-0.21126679
252	0x3e4368ed	0.19082995
253	0x3dff4570	0.12464416
254	0xbe3e1027	-0.18560849
255	0x3d153f37	0.03643724

model.time_nn.rnn.weight_hh_l0 f4 [96, 32]
0	0xbd56cac5	-0.05243947
1	0xbdbc6cf5	-0.092004694
2	0x3d9eda9f	0.077565424
3	0x3c92ddb7	0.017927988
4	0xbcd7f58a	-0.0263622
5	0xbdaf1400	-0.085487366
6	0xbe0e1748	-0.13876069
7	0x3d026fb2	0.031844802
8	0x3c53d997	0.012930295
9	0xbd8ef17f	-0.069796555
10	0xbdb0083b	-0.0859532
11	0x3e003b51	0.12522627
12	0x3db36a64	0.08760527
13	0x3dbcc546	0.092173144
14	0xbdd4b9fa	-0.10387035
15	0xbdb00de9	-0.08596403
16	0xbd5c706b	-0.053818148
17	0x3e1bdc0f	0.15220664
18	0x3dacbed9	0.08434839
19	0xbe579b06	-0.2105523
20	0x3df88b08	0.12135893
21	0xbd921083	-0.071320556
22	0x3bf45b9c	0.0074572098
23	0x3d7c3a38	0.06157896
24	0x3d66a754	0.05631192
25	0x3cb02950	0.021504074
26	0x3dd70693	0.10499301
27	0x3d1d3bed	0.038387228
28	0x3d0b660e	0.034032874
29	0xbd4c4a9a	-0.049875833
30	0x3d51c695	0.051214773
31	0x3e47abf0	0.19499183
32	0xbdf66c8d	-0.12032423
33	0x3cb6f9c6	0.022335898
34	0x3cec5f19	0.02885394
35	0xbe201cf5	-0.15636046
36	0x3df26049	0.11834771
37	0x3ddfe1f4	0.10931769
38	0xbd3bbcf5	-0.0458345
39	0xbc2c4ddf	-0.010516613
40	0x3d401f7b	0.046905022
41	0xbe584389	-0.21119513
42	0xbd48a556	-0.0489858
43	0x3e06d25b	0.13166182
44	0xbe21a204	-0.1578446
45	0x3c39b6f2	0.0113351215
46	0xbd585901	-0.052819256
47	0x3ddf3010	0.10897839
48	0x3e6092e2	0.21931031
49	0x3d9ea2ac	0.07745871
50	0x3c12e8c3	0.0089666275
51	0x3e0cde09	0.13756575
52	0x3ca34c40	0.01993382
53	0x3e0e78ec	0.13913316
54	0xbe0a0782	-0.13479427
55	0xbd935c34	-0.07195321
56	0x3d8894d0	0.06669009
57	0x3d5af311	0.053454462
58	0x3d6732a1	0.056444768
59	0x3dc916a8	0.098187745
60	0x3e0a6795	0.13516076
61	0xbe373a08	-0.17893231
62	0x3d8218fe	0.06352423
63	0x3dbaefdd	0.091277815
64	0x3d961ff3	0.073303126
65	0xbd13ed4d	-0.03611498
66	0x3e4a3cda	0.19749776
67	0x3dc7a874	0.09748927
68	0x3e6ace60	0.22930288
69	0x3dbfef24	0.09371784
70	0x3e1e72a9	0.15473427
71	0x3dfdb4aa	0.123879746
72	0xbd1b754b	-0.037953656
73	0x3df48782	0.119399086
74	0x3dc0028d	0.093754865
75	0xbe234c69	-0.15947117
76	0x3da5679c	0.080764025
77	0xbe314e34	-0.17314988
78	0x3e68ce12	0.2273486
79	0x3e662efc	0.2247886
80	0x3d2546f6	0.040350877
81	0xbde4fef3	-0.1118144
82	0x3da3a36e	0.07990156
83	0x3db11818	0.08647174
84	0xbd5fb211	-0.054613177
85	0xbd09b86e	-0.03362315
86	0xbde88c36	-0.11354868
87	0xbd86d6de	-0.065839514
88	0xbd9a1318	-0.07523173
89	0x3e129b58	0.14317071
90	0x3e37328d	0.17890377
91	0xbdf803ec	-0.12110123
92	0xbbf47bab	-0.0074610314
93	0x3df23c44	0.11827901
94	0xbe02b54f	-0.12764476
95	0xbd61cc02	-0.055126198
96	0xbd2ae3f7	-0.04172131
97	0x3d041876	0.03224989
98	0xbc7577a3	-0.014982137
99	0x3e253841	0.1613474
100	0x3d9ecdc0	0.077540874
101	0xbd47a960	-0.048745513
102	0xbc5e597b	-0.0135711385
103	0x3c67bc1e	0.014143972
104	0x3e0b15d9	0.13582553
105	0x3e2fc9a4	0.17166764
106	0xbc6496f5	-0.013952007
107	0x3d5edac4	0.05440785
108	0xbe2fbcf7	-0.17161928
109	0x3e176ce2	0.14787629
110	0xbd12142e	-0.035663776
111	0x3da3c598	0.079966724
112	0x3d64c796	0.055854402
113	0x3c1619ec	0.009161454
114	0xbddb2c8a	-0.107018545
115	0x3dff8041	0.12475634
116	0x3daa1cd3	0.08306279
117	0x3dc2340b	0.09482583
118	0x3e016194	0.1263488
119	0x3d29613c	0.041352496
120	0x3e235542	0.15950492
121	0xbe1d2463	-0.15345912
122	0xbe1a9ffc	-0.15100092
123	0x3dcc56e2	0.09977509
124	0x3d552130	0.052033603
125	0xbd2abe0d	-0.041685153
126	0xbd423437	-0.047413077
127	0x3ddd5c9c	0.108086795
128	0x3b697e50	0.0035628267
129	0xbde2bf3a	-0.1107163
130	0x3cb591d3	0.022164261
131	0xbdc8bce9	-0.09801657
132	0x3de404cf	0.1113373
133	0x3dcdf2ff	0.100561135
134	0xbe06b5c7	-0.1315528
135	0x3d57e316	0.0527068
136	0x3db80a39	0.08986325
137	0xbe525c88	-0.2054311
138	0x3ce5d505	0.028055677
139	0xbd34f727	-0.044181015
140	0xbe3b586a	-0.18295446
141	0xbda10a51	-0.07863296
142	0xbe02994f	-0.12753795
143	0xbe397dd1	-0.18114401
144	0x3d375883	0.044762146
145	0xbd90aa41	-0.07063723
146	0xbe1859b5	-0.1487797
147	0x3da1387a	0.078721
148	0x3d981dff	0.07427596
149	0xbe213fd2	-0.15747002
150	0x3c9f0b19	0.019414471
151	0xbd62d67d	-0.055380333
152	0xbdfde898	-0.12397879
153	0xbdb14653	-0.086559914
154	0xbde3bef5	-0.111204065
155	0x3d8efe4e	0.069820985
156	0x3de26c51	0.11055816
157	0x3e140e31	0.14458539
158	0xbe3fa911	-0.18716837
159	0xbde54ed6	-0.111966774
160	0xbc7019f2	-0.014654623
161	0x3dd2303d	0.10263107
162	0xbce89924	-0.028393336
163	0x3e058aa4	0.13041168
164	0x3dba82ea	0.09107001
165	0xbd32bb05	-0.043635387
166	0xbe1e1ea3	-0.15441374
167	0xbe27c13d	-0.16382308
168	0x3d5ad05c	0.053421363
169	0xbe0d2a83	-0.13785748
170	0xbdaf8597	-0.08570402
171	0x3d964b94	0.07338634
172	0x3e056996	0.13028559
173	0x3d55e9e7	0.05222502
174	0xbdd25c88	-0.10271555
175	0xbe59cd77	-0.21269785
176	0xbdca71e4	-0.09885004
177	0xbcfc1109	-0.030769842
178	0xbdcb47dc	-0.099258155
179	0xbd4ebf92	-0.050475664
180	0x3cb41edf	0.021987377
181	0x3e1d88fe	0.1538429
182	0x3cecdd98	0.028914258
183	0x3de0c86c	0.109757274
184	0x3cd72cce	0.026266482
185	0xbe0d1c33	-0.13780288
186	0xbe361294	-0.17780524
187	0xbe055736	-0.1302155
188	0xbd6074d2	-0.05479891
189	0xbde7becd	-0.11315689
190	0x3e1fb962	0.15598062
191	0xbd8d58f5	-0.06901733
192	0x3d9ce251	0.07660354
193	0xbcfdb9ae	-0.030972328
194	0xbe52c7b4	-0.20583993
195	0xbdd0f154	-0.1020228
196	0xbc2000d8	-0.009765826
197	0x3d07410a	0.03302101
198	0x3de584f0	0.112069964
199	0x3b9daee3	0.004812108
200	0xbd252985	-0.0403228
201	0xba4bba20	-0.000777157
202	0x3caa953e	0.020823117
203	0x3ce1a043	0.027542239
204	0xbe1e6282	-0.15467265
205	0xbdfa4d97	-0.1222183
206	0x3d079460	0.033100486
207	0xbde9ae0a	-0.114101484
208	0x3dff0d8f	0.12453758
209	0xbd5c50e4	-0.05378808
210	0x3e024263	0.12720637
211	0x3e80d2ec	0.2516092
212	0x3c9d4abd	0.019200677
213	0x3dc82c60	0.09774089
214	0x3d954ca4	0.07290009
215	0xbd9caf67	-0.07650643
216	0x3d29afba	0.04142735
217	0xbe31d659	-0.17366923
218	0x3de6d308	0.1127072
219	0x3d5722a2	0.052523263
220	0x3de9747a	0.11399169
221	0xbe36b677	-0.17843042
222	0xbe1f1076	-0.15533623
223	0xbdd19874	-0.10234156
224	0xbdd4e7a7	-0.10395747
225	0x3d9f2de9	0.077724285
226	0xbdcef915	-0.101061024
227	0x3dcf5435	0.10123483
228	0x3d14672d	0.03623121
229	0x3d39c646	0.045355104
230	0x3e0193ef	0.12654088
231	0x3dac5886	0.08415322
232	0xbd7416f0	-0.059592187
233	0xbdb842d1	-0.08997119
234	0xbd9a8448	-0.07544762
235	0x3d991c6f	0.074761264
236	0x3c9f0f3c	0.019416444
237	0x3d36d3f0	0.044635713
238	0x3c363c0f	0.0111227175
239	0x3da01318	0.07816142
240	0xbd3935a6	-0.04521718
241	0xbe0d1cff	-0.13780592
242	0xbcc22edb	-0.023703983
243	0xbe00abbc	-0.12565511
244	0xbe23d5c7	-0.15999518
245	0xbdd5bb80	-0.104361534
246	0x3d3248b1	0.043526355
247	0xbdcb1acd	-0.09917221
248	0xbd939e15	-0.07207886
249	0xbdd3409d	-0.103150584
250	0xbe10b6b9	-0.14132203
251	0x3e1573cd	0.14594956
252	0xba5b020a	-0.0008354491
253	0x3be042af	0.006843887
254	0x3e319f9e	0.17346045
255	0x3e034eb8	0.12822998

model.time_nn.rnn.bias_ih_l0 f4 [96]
0	0x3d08ec31	0.033428375
1	0xbd6752e1	-0.056475524
2	0xbd794ea2	-0.060866006
3	0x3ddbcbf1	0.10732258
4	0xbd49b692	-0.04924638
5	0xbdd62916	-0.10457055
6	0x3d9ce69b	0.07661172
7	0xbccaca22	-0.024754588
8	0xbdd36e9c	-0.103238314
9	0x3dcdcd0a	0.10048874
10	0xbe409988	-0.18808568
11	0xbdcf9b3c	-0.101370305
12	0x3cd587ad	0.026065672
13	0xbe3f125c	-0.18659347
14	0xbd8a5563	-0.067545675
15	0x3d2f38e7	0.042778876
16	0xbe2b4d7f	-0.16728781
17	0x3e23b5cf	0.15987323
18	0xbe0e2533	-0.13881378
19	0xbdc08930	-0.094011664
20	0x3d5e88b9	0.054329608
21	0xbcaeccc7	-0.02133788
22	0x3d254d33	0.040356826
23	0x3dc0ad53	0.09408059
24	0xbdcdcc20	-0.100486994
25	0xbc3db48e	-0.011578692
26	0x3de4d295	0.11172978
27	0x3e0a6d1b	0.13518183
28	0xbcf75272	-0.03019068
29	0x3d95cb1f	0.07314133
30	0x3e01ff0c	0.12694949
31	0xbe03c194	-0.12866813
32	0xbd9264a2	-0.071481004
33	0x3c380d2e	0.011233611
34	0xbe8ac5e3	-0.271041
35	0x3df4ba5b	0.11949607
36	0x3d99bcfe	0.075067505
37	0x3da6286e	0.0811318
38	0xbd8695a5	-0.06571511
39	0x3d80397b	0.062609635
40	0x3b644b7f	0.0034835038
41	0x3db9e33a	0.09076543
42	0xbe1a0414	-0.15040618
43	0xbd490e85	-0.049086113
44	0xbe0b7ef0	-0.13622642
45	0xbd781d7a	-0.060574986
46	0xbcd6e11d	-0.02623039
47	0xbe7a91a3	-0.24469618
48	0xbd2d1943	-0.04226042
49	0x3d05fc32	0.032711215
50	0xbe6fa565	-0.23402937
51	0x3b448e79	0.0029992147
52	0xbe715337	-0.235669
53	0x3e1867d2	0.14883354
54	0xbe39d385	-0.18147095
55	0xbd699df9	-0.05703542
56	0xbe252a21	-0.16129352
57	0x3cc20112	0.023682151
58	0xbe45b5b6	-0.19307598
59	0xbd587339	-0.05284426
60	0x3d1d7e3c	0.038450465
61	0x3dfb1f78	0.122618616
62	0xbe38736c	-0.1801278
63	0xbc931189	-0.017952697
64	0x3e234a74	0.1594637
65	0xbdb4a74d	-0.088209726
66	0xbd686cfb	-0.056744557
67	0xbd9e5871	-0.077317126
68	0xbe28588c	-0.16440028
69	0xbcf32e82	-0.029685263
70	0xbdb9c030	-0.0906986
71	0xbe19aee4	-0.15008122
72	0x3e21550b	0.15755098
73	0xbe0a4415	-0.13502534
74	0xbe0ce317	-0.13758503
75	0x3dcf0906	0.10109143
76	0x3c96e031	0.01841745
77	0x3d81a180	0.06329632
78	0xbe2e03c2	-0.16993621
79	0xbdda0736	-0.106459066
80	0x3e201f31	0.15636899
81	0x3e3bdb98	0.18345487
82	0xbe25c529	-0.16188492
83	0xbe10f455	-0.14155705
84	0x3e0f6e95	0.14007027
85	0xbcd48e29	-0.025946693
86	0x3e01665c	0.12636703
87	0x3de6dfce	0.11273156
88	0xbe16882c	-0.14700383
89	0xbd926dd8	-0.07149857
90	0x3cc4edf7	0.024039252
91	0x3d7258be	0.059166662
92	0x3cff2f7a	0.031150568
93	0xbdd6e858	-0.10493535
94	0xbe0c4728	-0.13699019
95	0xbe26031a	-0.1621212

model.time_nn.rnn.bias_hh_l0 f4 [96]
0	0x3cdd2234	0.026993848
1	0xbd7b7d02	-0.061398514
2	0xbc7ad7c9	-0.015310236
3	0x3db2a5af	0.08723008
4	0x3d0d5545	0.034505147
5	0x3d8a0742	0.067396656
6	0xbda912f8	-0.08255571
7	0xbde2ef41	-0.1108079
8	0xbdad0720	-0.084486246
9	0x3dd8f8db	0.105943404
10	0xbd9e7100	-0.07736397
11	0x3b84ea2a	0.004056235
12	0x3e1c28d5	0.15249951
13	0xbd32679b	-0.043555837
14	0x3db7b5c9	0.0897022
15	0xbe08966b	-0.1333863
16	0x3de682e3	0.112554334
17	0x3e1d168b	0.1534063
18	0xbd8c6efc	-0.06857106
19	0x3ce75763	0.028239911
20	0xbd232d89	-0.039838348
21	0x3d3955e2	0.04524792
22	0x3d7385e3	0.059453856
23	0xbce62acd	-0.02809658
24	0xbe0b619d	-0.13611455
25	0x3dde773c	0.10862586
26	0xbdbef2b6	-0.09323637
27	0x3cce7edb	0.025206974
28	0x3e094c9a	0.13408127
29	0x3c3cfaab	0.011534373
30	0x3e3efda2	0.1865144
31	0xbe05abe2	-0.1305385
32	0x3d7f7998	0.06237182
33	0x3dcbec7e	0.09957217
34	0xbc8fa981	-0.01753688
35	0x3e301c42	0.1719828
36	0x3dd8e93b	0.1059136
37	0x3e07d01e	0.13262984
38	0xbdcd976d	-0.10038648
39	0x3df7ba64	0.12096098
40	0x3e1307d3	0.14358453
41	0x3dfd143c	0.12357375
42	0x3e21cea0	0.15801477
43	0xbd20273d	-0.03909992
44	0x3e1cf8b2	0.15329245
45	0xbe5d877a	-0.21633711
46	0x3d14e855	0.03635438
47	0x3c20a30c	0.009804498
48	0xbdc217a3	-0.094771646
49	0xbc8e6252	-0.017380867
50	0xbe2373c4	-0.1596213
51	0x3da9aac4	0.08284524
52	0xbe03588c	-0.12826747
53	0x3c7436a8	0.014905609
54	0xbe86209f	-0.26196763
55	0xbe40e5fe	-0.18837735
56	0x3caee279	0.021348225
57	0x3e769105	0.24078758
58	0x3d0a4d82	0.033765323
59	0xbda9c6bc	-0.08289859
60	0x3c9885b7	0.018618448
61	0x3ba64dc9	0.0050751907
62	0xbce99e49	-0.028517859
63	0xbded81f3	-0.115970515
64	0xbda46464	-0.080269605
65	0xb94536f1	-0.00018807851
66	0xbc2b6bed	-0.010462743
67	0xbde877c6	-0.1135097
68	0x3e26f893	0.16305761
69	0xbda7a073	-0.081849
70	0xbe11df7f	-0.14245413
71	0xbdfada1b	-0.122486316
72	0xbd4844fa	-0.048893906
73	0xbda5a60f	-0.08088314
74	0x3d815e8d	0.06316862
75	0x3e03d7e6	0.12875327
76	0xbd14c274	-0.036318257
77	0x3dde1c38	0.10845226
78	0x3d5257fb	0.051353436
79	0xbe0229dd	-0.12711282
80	0xbcc2abdc	-0.02376359
81	0x3cfec161	0.03109807
82	0x3d796041	0.06088281
83	0x3d2396a1	0.039938573
84	0xbd1b46b3	-0.03790922
85	0xbdb0eb89	-0.08638675
86	0xbcfa7149	-0.030571597
87	0x3e0aabfb	0.13542168
88	0xbc63a204	-0.013893608
89	0x3dd60f47	0.10452133
90	0xbe04dbc2	-0.12974456
91	0x3d329fe8	0.04360953
92	0xbdb66d19	-0.089075275
93	0x3db6ebcc	0.089316934
94	0x3d82d78c	0.063887686
95	0xbd2b1e96	-0.041777216

model.space_nn.filters.weight f4 [32, 160]
0	0xbcb6f12c	-0.022331797
1	0x3c9a4284	0.018830545
2	0x3d993f76	0.07482807
3	0xbdb6a941	-0.08919001
4	0x3d96cfa5	0.07363824
5	0x3d8e254f	0.0694071
6	0xbd57bc39	-0.052669737
7	0xbda1dc22	-0.07903315
8	0xbcbcb031	-0.023033233
9	0xbc647220	-0.013943225
10	0x3ce52aa6	0.027974438
11	0x3d46f4ae	0.04857319
12	0x3c6c7cb6	0.01443403
13	0xbd114305	-0.035464305
14	0x3d1ea4ac	0.038731262
15	0xbd1d9bb2	-0.03847856
16	0x3c33c7cb	0.010972927
17	0x3d585c87	0.052822616
18	0xbdbbe72a	-0.091749504
19	0xbd39eec6	-0.045393728
20	0xbd14bcc7	-0.036312845
21	0xbbb48c19	-0.005509865
22	0x3d2671df	0.04063594
23	0x3d758da6	0.05994954
24	0xbd525ef0	-0.05136007
25	0xba5c2d8e	-0.0008399122
26	0x3d9023f7	0.0703811
27	0x3e00c7d1	0.12576224
28	0xbd58427e	-0.052797787
29	0x3d3cf14f	0.046128567
30	0x3d80a341	0.06281138
31	0xbd7f3fec	-0.06231682
32	0x3c9ddd64	0.019270606
33	0xbd520fdc	-0.051284656
34	0xbb02a437	-0.0019934305
35	0x3cbd1d3e	0.023085233
36	0x3c907a7d	0.017636532
37	0x3d288800	0.041145325
38	0xbba815bd	-0.0051295445
39	0xbcd29c3b	-0.025709262
40	0x3afe68c8	0.0019409889
41	0xbd660f11	-0.056166712
42	0xbc729bdd	-0.0148076685
43	0x3ccd45cd	0.025057698
44	0xbbbe107e	-0.005800306
45	0x3d76fc4d	0.060299207
46	0xbd099cf4	-0.033596948
47	0xbdbebcd8	-0.09313363
48	0x3d808f7e	0.06277369
49	0xbc867869	-0.016414838
50	0xbda83d5a	-0.08214827
51	0xbde68820	-0.112564325
52	0xbbf0b2e3	-0.0073455437
53	0xbb065501	-0.0020497444
54	0xbd0cbaf9	-0.034358
55	0x3dd49674	0.10380259
56	0x3c8abb8f	0.016935138
57	0x3d1a83e1	0.037723426
58	0xbdd94399	-0.10608596
59	0xbcbd19bb	-0.023083558
60	0x3c6176e7	0.013761259
61	0x3d62d9f8	0.055383652
62	0xbc31439b	-0.010819341
63	0xbd70e448	-0.058811456
64	0x3d8ac226	0.06775312
65	0x3c4d2335	0.012520601
66	0x3b8de7c8	0.004330609
67	0x3c5acdb7	0.01335471
68	0x3d51a052	0.051178284
69	0x3d7ccd05	0.06171896
70	0xbc3c9e66	-0.0115123745
71	0x3d4c9809	0.04994968
72	0xbd413452	-0.047169037
73	0xbd98075e	-0.0742328
74	0x3bbcebd7	0.005765419
75	0x3d800a5b	0.06251975
76	0x3d919a2f	0.07109486
77	0x3d799006	0.060928367
78	0xbdc20b24	-0.09474781
79	0xbcc96f7b	-0.02458929
80	0x3c8ff17b	0.017571202
81	0x3b9c9023	0.0047779246
82	0xbcc847a3	-0.024448222
83	0xbd2e724a	-0.042589463
84	0x3d551325	0.05202021
85	0xbd8f1e66	-0.0698822
86	0xbd72f7a2	-0.059318192
87	0xbd425f3b	-0.0474541
88	0xbc02da83	-0.007986668
89	0xbd431944	-0.047631517
90	0xbd90cef9	-0.07070727
91	0x3db6789a	0.08909722
92	0xbd6ade35	-0.05734082
93	0x3d553535	0.052052695
94	0xbd88eba0	-0.06685567
95	0xbda93ba9	-0.082633324
96	0xbc599952	-0.013281183
97	0xbd76cd62	-0.060254462
98	0xbd906467	-0.070504
99	0xbd0716cd	-0.03298073
100	0xbd8125e8	-0.06306058
101	0xbd349d53	-0.04409535
102	0xbcebd8bc	-0.02878987
103	0xbda37586	-0.079814
104	0x3c96b648	0.018397465
105	0xbcb9223d	-0.022599334
106	0xbdc8358f	-0.097758405
107	0x3cc7fdf8	0.024413094
108	0xbdabc20e	-0.08386622
109	0xbcad2528	-0.021135882
110	0xbd57dcf4	-0.05270095
111	0x3c5aac55	0.013346751
112	0x3c813789	0.015773552
113	0x3c1a13da	0.009404147
114	0xbc928951	-0.017887743
115	0xbdbcd502	-0.092203155
116	0xbbb4889a	-0.0055094482
117	0xbd928002	-0.07153322
118	0x3cffbbc2	0.03121746
119	0x3da49715	0.08036629
120	0xbb294304	-0.0025827298
121	0xbcdafe03	-0.02673245
122	0x3d17705e	0.036972396
123	0x3d9833c9	0.07431752
124	0x3d44448b	0.04791693
125	0xbd1d5181	-0.038407806
126	0x3d8dc0cd	0.069215395
127	0xbd35ec40	-0.04441476
128	0x3d79e7dc	0.061012134
129	0xbc1a7cdc	-0.009429183
130	0xbbc4d219	-0.006006491
131	0xbd08d4eb	-0.03340618
132	0x3be30fb2	0.0069293613
133	0x3def4a8d	0.11684141
134	0xbdbac76d	-0.09120069
135	0xbb591fb5	-0.003313047
136	0xbd2b580a	-0.041832007
137	0xbbd51c4b	-0.006503617
138	0xbda9c398	-0.0828926
139	0x3d5e9c54	0.054348305
140	0x3d7ae3a6	0.06125226
141	0x3cd94c40	0.026525617
142	0x3d04be2b	0.03240792
143	0x3cd4f648	0.025996342
144	0x3dc75411	0.09732831
145	0x3dab364e	0.08359967
146	0xbc454de7	-0.012042499
147	0xbdfdbca8	-0.12389499
148	0xbd9a8e7a	-0.075467065
149	0x3c8d534b	0.017251631
150	0x3c20d611	0.009816662
151	0xbb8976ea	-0.004195084
152	0xbd4081a5	-0.04699864
153	0x3d2d649b	0.042332273
154	0xbd5ca90a	-0.053872146
155	0x3d8967de	0.06709264
156	0x3dc13658	0.094341934
157	0x3d7b26e4	0.061316386
158	0x3cb18676	0.021670561
159	0xbdbd94fa	-0.09256931
160	0x3dcea3cf	0.10089838
161	0xbddc5737	-0.107588224
162	0xbc4ffefd	-0.012695071
163	0x3ddb6943	0.107134365
164	0xbd56693e	-0.05234646
165	0xbd11d8d6	-0.03560718
166	0xbdc8430c	-0.09778413
167	0x3d881e45	0.066463985
168	0x3e22244b	0.15834157
169	0xbd1c18d3	-0.03810961
170	0xbd4cb229	-0.049974594
171	0xbc88fe0b	-0.0167227
172	0x3dbfe787	0.09370332
173	0xbe1551e0	-0.14582014
174	0xbd85314e	-0.06503545
175	0xbdca014e	-0.0986353
176	0x3e05be00	0.1306076
177	0x3d8ab74a	0.06773241
178	0x3e11c3db	0.14234869
179	0x3da1ca87	0.07899957
180	0x3df6554a	0.12027986
181	0xbd9551a1	-0.0729096
182	0x3dcfe14e	0.10150395
183	0xbdae73da	-0.08518191
184	0x3af04db1	0.0018333701
185	0xbba1f5e3	-0.004942642
186	0xbc822fd8	-0.015891954
187	0xbd73b559	-0.05949912
188	0xbd1f2ac8	-0.03885916
189	0xbdc3890f	-0.09547626
190	0xbe107367	-0.14106523
191	0xbd79521b	-0.060869318
192	0x3d225087	0.039627578
193	0xbcb0bb88	-0.021573797
194	0xbdb1a319	-0.086736865
195	0x3d6464b4	0.0557601
196	0xbd9e7c0f	-0.07738506
197	0xbd910160	-0.070803404
198	0x3b8e6793	0.004345843
199	0xbd637b62	-0.05553759
200	0x3d63b40f	0.05559164
201	0x3d54a0ae	0.05191105
202	0x3b4a76d3	0.0030893579
203	0xbd738c58	-0.059460014
204	0x3e3cb9db	0.18430273
205	0x3d724fb9	0.05915806
206	0xbc512991	-0.012766258
207	0x3c30d4c9	0.010792919
208	0xbd98a5d3	-0.074535035
209	0xbd0b3b88	-0.03399232
210	0xba6ee242	-0.00091126945
211	0xbd582da8	-0.052777916
212	0x3d9c02f6	0.07617752
213	0x3d44ca47	0.04804447
214	0x3ccb4f8e	0.024818208
215	0xbd2ce670	-0.04221195
216	0xbcdd3bd5	-0.02700607
217	0xbd65dd7f	-0.05611944
218	0xbd8e8727	-0.06959372
219	0x3ce099b7	0.027417047
220	0xbda931e0	-0.08261466
221	0xbd4748af	-0.0486533
222	0xbd8548a8	-0.06507999
223	0x3cb136b2	0.021632526
224	0xbd8e1dd9	-0.06939287
225	0x3d47e632	0.048803516
226	0x3d1b8f6c	0.037978575
227	0xbcca3bf5	-0.024686793
228	0xbc9e3fe1	-0.01931757
229	0xbcbcfa68	-0.023068622
230	0x3d86591c	0.06559965
231	0x3c920049	0.017822402
232	0x3d906edb	0.07052394
233	0xbd98f98b	-0.074694715
234	0x3d54b1f7	0.051927533
235	0x3d236b4e	0.039897256
236	0x3de9d8f7	0.11418336
237	0xbcd558c7	-0.026043309
238	0x3d94b685	0.07261375
239	0xbd8d29df	-0.06892752
240	0x3cc90879	0.024540173
241	0x3d852da4	0.06502846
242	0xbcc3addb	-0.023886612
243	0xbce4c7eb	-0.02792736
244	0xbccba98f	-0.024861125
245	0x3befb594	0.007315347
246	0x3d8e4e36	0.06948511
247	0xbd967b63	-0.07347753
248	0x3c859592	0.016306672
249	0xbd86c381	-0.06580258
250	0xbd9e6048	-0.07733208
251	0xbd166856	-0.036720596
252	0xbca22b80	-0.019796133
253	0xbd447671	-0.047964517
254	0xbd15ed04	-0.03660299
255	0x3d2a08f1	0.041512433

model.space_nn.filters.bias f4 [32]
0	0xbc52db36	-0.012869647
1	0xbcb51fd2	-0.0221099
2	0x3bb1983a	0.005419758
3	0xbd3f03c0	-0.046634436
4	0xbcdd0be8	-0.026983216
5	0x3d4db91e	0.05022537
6	0xbd1ba4be	-0.037998907
7	0x3c5df820	0.013547927
8	0x3d19329b	0.037401777
9	0xbcbf3125	-0.023338864
10	0xbd92c434	-0.07166329
11	0x3d786047	0.060638692
12	0xbcd2fc27	-0.025755001
13	0x3d3d7b9d	0.046260465
14	0x3d8d34f1	0.068948634
15	0xbdaadaaa	-0.08342488
16	0xbd359b5a	-0.044337608
17	0xbdaa9278	-0.08328718
18	0xba646038	-0.00087118475
19	0x3dad297d	0.08455179
20	0xbd1edbed	-0.038783956
21	0x3ba777f7	0.0051107365
22	0x3d958bf3	0.07302084
23	0x3c09b3bf	0.008404671
24	0x3d5454a3	0.05183853
25	0x3c9f2045	0.019424567
26	0xbcf19c1d	-0.029493386
27	0x3c033d09	0.008010157
28	0xbd8684b9	-0.065682836
29	0x3cdf12df	0.027230678
30	0xbd76e5e4	-0.060277835
31	0xbc5f93cc	-0.013646077

model.decoder.readout.mlp.0.affinity.weight f4 [64, 48]
0	0xbdec7f79	-0.11547751
1	0xbe4d34c2	-0.20039657
2	0x3ce92d46	0.02846397
3	0x3c1ff021	0.009761841
4	0x3e30f18f	0.17279647
5	0xbd9d1c15	-0.07671372
6	0x3e144f35	0.1448334
7	0x3cc6035e	0.024171527
8	0x3bca1c5c	0.0061679315
9	0xbc4a9004	-0.012363438
10	0xbd20a483	-0.03921939
11	0xbdc7c9cd	-0.09755287
12	0x3e11bcdd	0.14232202
13	0xbd38787d	-0.04503678
14	0x3d1f990d	0.03896432
15	0x3e48935c	0.19587463
16	0x3dde85e9	0.10865385
17	0x3db40cd7	0.087915115
18	0xbe3c9c4e	-0.18419
19	0xbcd15c27	-0.025556637
20	0xbdaa850f	-0.0832616
21	0x3ad6a3dd	0.0016375739
22	0x3cfc904a	0.030830521
23	0x3e6151b2	0.2200382
24	0xbd8a0589	-0.06739337
25	0xbcbe841f	-0.02325636
26	0xbdd6c63c	-0.10487029
27	0x3da009ea	0.07814391
28	0xbd99dea5	-0.07513169
29	0xbd4f7741	-0.05065084
30	0x3e1eeea0	0.15520716
31	0x3e2e143b	0.16999905
32	0xbde02046	-0.10943656
33	0xbc390e1f	-0.011294871
34	0xbe6b78b2	-0.2299526
35	0x3db053aa	0.08609708
36	0x3e429055	0.19000371
37	0xbe0a3f31	-0.13500668
38	0x3e72892c	0.2368514
39	0x3cf8f64e	0.030390885
40	0x3e3dee16	0.18547854
41	0x3e39c588	0.18141758
42	0x3d984e73	0.07436838
43	0xbe14e234	-0.14539415
44	0x3de26eb9	0.11056275
45	0x3db57577	0.08860295
46	0x3d567604	0.052358642
47	0x3cac5f07	0.021041406
48	0x3bef4a7e	0.0073025813
49	0x3dad39c0	0.084582806
50	0xbc6eb934	-0.014570523
51	0x3d5fa129	0.054597054
52	0x3d94e175	0.07269565
53	0xbe132287	-0.1436864
54	0x3c49f7a1	0.012327106
55	0xbc5456c1	-0.012960137
56	0xbe023820	-0.12716722
57	0x3dbe5404	0.092933685
58	0xbd271b17	-0.04079732
59	0x3d0758a5	0.033043522
60	0xbe0a05ba	-0.13478747
61	0x3d0aaa9c	0.033854112
62	0xbe2b3bbb	-0.16722004
63	0x3d1e84d1	0.038700882
64	0x3e2ae3c4	0.16688448
65	0xbd92a963	-0.07161214
66	0xbd4bf992	-0.049798556
67	0xbd5cd974	-0.053918317
68	0xbc5578f1	-0.013029323
69	0xbb3d6c58	-0.002890369
70	0xbdd111d9	-0.10208482
71	0x3da59402	0.08084871
72	0x3ddf61ee	0.109073505
73	0x3e2508a5	0.16116579
74	0xbe28a2ba	-0.16468325
75	0x3d86f4c0	0.06589651
76	0x3cb99e0d	0.022658372
77	0x3e046137	0.1292771
78	0xbd5ecc6f	-0.05439418
79	0xbd0f987a	-0.035057522
80	0xbdb749db	-0.08949634
81	0xbd5dbd6a	-0.054135717
82	0x3b471333	0.0030376434
83	0xbe4dd1bb	-0.20099537
84	0x3d9b170f	0.075727575
85	0x3db21b57	0.08696621
86	0x3e12feea	0.14355054
87	0xbc674f9e	-0.014118103
88	0xbd0475ef	-0.032339033
89	0x3e74be2a	0.23900667
90	0xbd99df36	-0.07513277
91	0xbe03cbd0	-0.12870717
92	0x3daff524	0.08591679
93	0x3dc80f69	0.09768564
94	0x3cadf525	0.021235058
95	0xbd07fbfd	-0.0331993
96	0xbd54ac87	-0.051922347
97	0x3d41d883	0.047325622
98	0xbdb5ae9a	-0.08871193
99	0x3c3e9d6a	0.01163421
100	0xbe026b5e	-0.1273627
101	0x3d8fabf5	0.0701522
102	0x3d0113e8	0.031513125
103	0x3db3febd	0.08788822
104	0xbdb515ed	-0.08842073
105	0x3d75015e	0.059815757
106	0xbe1e3b0c	-0.15452212
107	0x3e13ce36	0.14434132
108	0x3dd6fc92	0.10497393
109	0x3cf1891c	0.029484324
110	0x3d9f5c02	0.07781221
111	0xbe06761b	-0.13130991
112	0xbddc9aaa	-0.10771687
113	0xbd2f8d27	-0.042859223
114	0x3d35f5d4	0.044423893
115	0x3d4ea547	0.05045059
116	0xbd3ddbbf	-0.046352144
117	0xbdcfde87	-0.101498656
118	0x3c7ae157	0.015312514
119	0xbd9ff242	-0.07809879
120	0xbe1a4d8c	-0.15068644
121	0xbe0dcc7b	-0.13847534
122	0x3cd98842	0.02655423
123	0xbdd1acca	-0.10238035
124	0x3dafc718	0.08582896
125	0xbdcf3232	-0.10116996
126	0x3da519b5	0.08061544
127	0xbcbd073c	-0.023074739
128	0x3dd3e87e	0.10347079
129	0xbd2a6c7f	-0.041607376
130	0xbce36fa4	-0.027763195
131	0x3d97ff5f	0.07421755
132	0x3ddf5490	0.10904801
133	0xbe2a7ed4	-0.16649944
134	0x3dcc01a8	0.099612534
135	0xbca54c62	-0.020178024
136	0x3cbf53a9	0.023355322
137	0x3e224f46	0.15850553
138	0xbd37b5a1	-0.04485095
139	0xbd8bb1ba	-0.06821008
140	0xbd314976	-0.04328295
141	0xbdd4e7de	-0.10395788
142	0x3da5e9a1	0.08101202
143	0x3c6911e1	0.014225454
144	0xbe00f53e	-0.12593552
145	0x3df1bf4d	0.11804066
146	0xbd9e48a6	-0.077287
147	0xbda4f044	-0.080536395
148	0x3d6a0b4b	0.057139676
149	0xbd7afbc4	-0.06127526
150	0xbdaf4377	-0.0855779
151	0x3caf87ea	0.021427114
152	0x3e0fa9eb	0.14029662
153	0x3d641fc1	0.055694345
154	0x3cc5472b	0.024081787
155	0x3e000beb	0.12504546
156	0xbbbfce49	-0.0058534485
157	0x3e083218	0.13300359
158	0x3e13d006	0.14434823
159	0xbc559b6e	-0.013037546
160	0xbde85ab8	-0.11345428
161	0x3d43f961	0.047845248
162	0x3d65fa99	0.05614719
163	0xbc5f43af	-0.013626977
164	0x3daacd9f	0.0834
165	0xbded63b1	-0.1159128
166	0xbd521669	-0.051290903
167	0x3dbb6a60	0.09151149
168	0x3d265ba4	0.04061474
169	0xbc0c5386	-0.008564835
170	0x3d85c127	0.065309815
171	0xbcdb843d	-0.026796455
172	0xbd8e5c66	-0.06951217
173	0xbdf076c1	-0.117414005
174	0xbd4798c0	-0.048729658
175	0x3d21652d	0.03940313
176	0x3e1364d7	0.14393936
177	0xbe02e726	-0.12783489
178	0xbdfe1d1e	-0.124078974
179	0x3bdeb776	0.0067967726
180	0xbd1d796e	-0.038445882
181	0xbd34a070	-0.044098318
182	0x3d714371	0.058902208
183	0x3db80429	0.089851685
184	0x3d5d29d5	0.053994972
185	0x3e478c0e	0.1948702
186	0xbdb36949	-0.08760316
187	0xbe3ebe4d	-0.18627281
188	0x3a3f41c2	0.00072958705
189	0xbba54ee0	-0.005044803
190	0xbd5309d5	-0.05152305
191	0xbd99146a	-0.07474597
192	0xbddac8c1	-0.10682822
193	0x3e41b33a	0.18916026
194	0x3c6691d7	0.014072857
195	0x3dbc12cb	0.09183272
196	0x3d0699f8	0.03286168
197	0xbd0e9aab	-0.03481547
198	0xbccbc7f5	-0.02487562
199	0x3d9ef7b9	0.07762093
200	0x3dcc9436	0.099892065
201	0x3cf93dde	0.030425008
202	0xbe3c0115	-0.18359788
203	0xbd57e83e	-0.052711718
204	0xbca98add	-0.020696098
205	0xbd44bde7	-0.048032667
206	0xbcf66bb2	-0.03008065
207	0xbe407f70	-0.18798614
208	0x3d875ff0	0.066100955
209	0xbcd3566d	-0.025798047
210	0xbdb33431	-0.08750189
211	0xbd921a24	-0.07133892
212	0xbd1a2a36	-0.03763791
213	0xbcfa2734	-0.030536272
214	0xbdbe1f7c	-0.09283349
215	0xbe290891	-0.16507174
216	0x3d55da20	0.052209973
217	0x3d84d413	0.064857624
218	0x3d2fbcb9	0.04290459
219	0xbe2e04b4	-0.16993982
220	0x3d29722e	0.041368656
221	0xbd0a1a4a	-0.033716477
222	0xbdabff80	-0.08398342
223	0x3db56397	0.08856886
224	0xbe166b56	-0.14689383
225	0x3e343c14	0.17601043
226	0x3d675d60	0.056485534
227	0x3dfb369c	0.12266275
228	0xbe07f68b	-0.13277642
229	0x3d0ab4dc	0.033863887
230	0x3db24f09	0.08706481
231	0xbd9e50c8	-0.077302516
232	0x3e095e4a	0.13414875
233	0x3dd58dfe	0.104274735
234	0xbd4cd5a1	-0.05000842
235	0x3d77f4c4	0.06053616
236	0x3d89a42e	0.06720768
237	0xbc0a18d9	-0.008428776
238	0x3da02354	0.07819238
239	0xbd2eaf55	-0.04264768
240	0x3e00f75d	0.12594362
241	0xbe007062	-0.1254287
242	0xbe2758e7	-0.16342507
243	0xbe47ec79	-0.19523801
244	0x3e1e571c	0.15462917
245	0xbdb812db	-0.089879714
246	0x3d2d0db8	0.04224941
247	0x3dc5b02f	0.09652745
248	0xbe1d29ef	-0.15348028
249	0xbd23dc8b	-0.040005248
250	0xbd98316a	-0.074313
251	0xbe0330aa	-0.12811533
252	0x3cc777d9	0.02434914
253	0xbe816556	-0.25272626
254	0xbe6dabd8	-0.23210084
255	0x3da0dcb0	0.07854593

model.decoder.readout.mlp.0.affinity.bias f4 [64]
0	0xbdeee31d	-0.11664412
1	0x3d75bca9	0.059994373
2	0x3c4a8e93	0.012363094
3	0x3d9379bf	0.072009556
4	0xbdbc9d02	-0.09209634
5	0xbcdfe9fe	-0.027333256
6	0xbddf585b	-0.10905524
7	0x3de08297	0.10962408
8	0xbde9a908	-0.11409193
9	0x3dc620c6	0.0967422
10	0x3c4e7565	0.012601231
11	0x3cfc7163	0.030815786
12	0x3c34185c	0.010992136
13	0x3df3c72c	0.119032234
14	0xbd19e6ca	-0.037573613
15	0x3d4cf4c5	0.050038118
16	0x3b8e33ab	0.0043396554
17	0x3e0426fc	0.12905496
18	0x3dfe4e1b	0.12417241
19	0xbdc89aa4	-0.0979512
20	0xbc08d218	-0.0083508715
21	0xbdb50950	-0.08839667
22	0xbdbea7e5	-0.09309367
23	0xbd0918c5	-0.033470888
24	0x3dfc15ae	0.123088226
25	0xbd83126a	-0.063999966
26	0xbccced0f	-0.025015382
27	0xbc2a0e0e	-0.010379327
28	0xbd11452b	-0.035466354
29	0x3da02f12	0.07821478
30	0x3df4850f	0.119394414
31	0xbc9a4a70	-0.018834323
32	0x3e1e779c	0.15475315
33	0x3c872169	0.016495423
34	0xbdafde65	-0.0858734
35	0x3d1602e1	0.03662384
36	0xbd651022	-0.05592359
37	0xbd6b58ea	-0.057457842
38	0xbdb44a63	-0.08803251
39	0xbd50e1c3	-0.050996553
40	0x3d0b3a67	0.033991244
41	0x3dc66fb9	0.09689278
42	0x3e04fae1	0.12986328
43	0x3da0e537	0.07856219
44	0xbdd300a1	-0.10302854
45	0x3dc3c0d1	0.09558261
46	0x3ce1222a	0.027482111
47	0x3df71615	0.12064759
48	0xbdf0cd34	-0.117578894
49	0xbd40003e	-0.04687523
50	0xbda328e6	-0.07966785
51	0x3d909761	0.07060123
52	0x3c583299	0.013195657
53	0xbdcc66d5	-0.09980551
54	0xbdceed12	-0.10103811
55	0xbd862b3a	-0.065512136
56	0xbd87d083	-0.06631567
57	0x3d8401fb	0.0644569
58	0xbd98b2f1	-0.07456005
59	0xbc55ac71	-0.0130416015
60	0xbdbe9c36	-0.093071386
61	0x3dedca4e	0.11610852
62	0x3d711713	0.058859896
63	0x3cebada2	0.028769318
