logs/epoch=79-step=30800.ckpt (torch, 250167 bytes, 39 tensors)

model.node_embeddings.emb f4 [207, 16]
0	0xbed2bcf6	-0.4115979
1	0xbea32323	-0.31862745
2	0xbec934b5	-0.39298025
3	0x3f145009	0.57934624
4	0x3d01bb7d	0.031672943
5	0x3d3c7fbf	0.046020266
6	0x3dc935e9	0.09824736
7	0x3e9c07c8	0.30474687
8	0x3e75d29b	0.24006121
9	0x3e57bc64	0.21067959
10	0xbd478cf8	-0.048718423
11	0xbca3a9cd	-0.019978428
12	0x3e91fd2d	0.2851347
13	0xbe37eb57	-0.17960869
14	0x3e2fd4ff	0.17171095
15	0x3e6ca5ea	0.23110166
16	0x3f782c0c	0.9694221
17	0x3e257cd9	0.16160907
18	0x3e904776	0.2817952
19	0xbde08d6d	-0.10964475
20	0xbd91703a	-0.07101484
21	0x3e8f8cf1	0.28037217
22	0x3e897938	0.26850295
23	0xbdb3abe5	-0.08773021
24	0x3d34e424	0.044162884
25	0xbed7e13c	-0.42164028
26	0xbd326fe0	-0.043563724
27	0xbe9df31c	-0.3084954
28	0x3b9dbe63	0.0048139556
29	0x3e2a38d9	0.16623248
30	0x3eae5294	0.34047377
31	0xbec26e60	-0.37974834
32	0xbe45fc20	-0.1933446
33	0xbe954388	-0.29153085
34	0x3e9a6fa1	0.3016329
35	0x3e9e514a	0.30921394
36	0xbe0f35b5	-0.13985331
37	0xbd2107b0	-0.039313972
38	0xbeef90a8	-0.4679005
39	0x3e183b5e	0.14866397
40	0xbe7c0c42	-0.24614051
41	0xbe2288cb	-0.15872495
42	0x3c272879	0.0102025205
43	0xbef1be4c	-0.47215497
44	0xbe47ad3a	-0.19499674
45	0xbe3225b0	-0.17397189
46	0x3c66c8bb	0.014085944
47	0x3e369c14	0.17832977
48	0xbe3ebdf4	-0.18627149
49	0x3ec4d1b1	0.38441232
50	0xbf24eaec	-0.6442096
51	0xbf183438	-0.5945468
52	0x3e1b5fd2	0.15173271
53	0x3db3ad2d	0.08773265
54	0xbe8b3d6a	-0.27195293
55	0x3db91268	0.09036714
56	0x3dd50ca5	0.104028024
57	0xbf0d870d	-0.55284196
58	0x3bf67f1e	0.007522478
59	0xbe057a94	-0.13035041
60	0x3dae9331	0.08524168
61	0x3bcfc26a	0.0063403146
62	0xbec4d4cb	-0.38443598
63	0x3d79b052	0.060959168
64	0x3dd5dfac	0.10443053
65	0x3e8181f1	0.2529445
66	0x3f08563b	0.5325658
67	0x3ed427e6	0.4143669
68	0xbce0755d	-0.027399713
69	0x3e097530	0.1342361
70	0x3d41be5f	0.047300693
71	0x3e820c6a	0.25400096
72	0x3dde9b5e	0.10869478
73	0x3ef63dab	0.48093924
74	0xbbff8761	-0.007798121
75	0x3f140870	0.57825375
76	0xbea77c8c	-0.3271221
77	0x3e8bd636	0.27311867
78	0xbd53bdd1	-0.051694695
79	0x3b134c8c	0.0022476045
80	0xbe80dc33	-0.25168
81	0xbf169174	-0.58815694
82	0xbf479fbc	-0.7797811
83	0x3e24754f	0.16060375
84	0x3f3f9e09	0.7485052
85	0xbdc373b3	-0.09543552
86	0xbda8e9ea	-0.082477406
87	0xbec5a056	-0.3859889
88	0x3f33c65c	0.7022455
89	0xbe423183	-0.189642
90	0x3f372932	0.71547234
91	0xbf440df6	-0.765838
92	0x3edeb893	0.43500194
93	0x3f41bcc8	0.7567868
94	0x3f5e861b	0.8692338
95	0xbedce466	-0.43143004
96	0xbdeed32f	-0.11661374
97	0x3d8932ad	0.06699119
98	0x3c43aa1e	0.011942415
99	0x3f3107f7	0.6915278
100	0x3ecfa206	0.40553302
101	0xbd20153f	-0.03908276
102	0x3eaecbab	0.3413976
103	0xbec0756e	-0.37589592
104	0xbf36fc88	-0.7147908
105	0x3eac44f9	0.33646372
106	0xbebf23b2	-0.3733192
107	0x3e799d1c	0.24376339
108	0x3e974bab	0.29549918
109	0x3d11e30d	0.035616923
110	0x3f2e49b8	0.68081236
111	0xbd61057d	-0.054936875
112	0x3e8808ab	0.26569113
113	0x3dd14cbc	0.10219714
114	0x3e3c0f91	0.18365313
115	0x3f0c0db9	0.5470844
116	0x3df85d4d	0.12127171
117	0x3edb8734	0.4287659
118	0x3f0c5e77	0.5483164
119	0xbe675d3e	-0.22594163
120	0xbe18d627	-0.14925443
121	0xbed14aca	-0.40877372
122	0x3ac97775	0.0015370684
123	0x3ef0c28d	0.4702343
124	0xbc18ab7c	-0.009318229
125	0xbd4d516c	-0.050126478
126	0x3e21cbdf	0.15800427
127	0xbe83c5af	-0.25736758
128	0xbe436743	-0.1908236
129	0x3dafd4ac	0.08585486
130	0xbcb63f64	-0.022247024
131	0x3e88e17a	0.26734525
132	0xbdccf4bf	-0.10007619
133	0x3f1309fb	0.57437104
134	0xbef47373	-0.4774433
135	0xbefd1acf	-0.49434516
136	0x3ea82e30	0.32847738
137	0x3afb1637	0.0019156401
138	0xbed7fdba	-0.42185766
139	0xbee2c0e0	-0.44287777
140	0xbcfaf0b8	-0.030632362
141	0x3e298959	0.165563
142	0xbea27f83	-0.3173791
143	0xbed1f6f7	-0.41008732
144	0x3d4831b0	0.04887551
145	0x3ec34e7e	0.38145822
146	0xbead4ff2	-0.33850056
147	0xbe92a5ef	-0.28642222
148	0xbe97c02a	-0.29638797
149	0xbe36ee9b	-0.17864458
150	0xbf01e4d8	-0.5073981
151	0xbf037135	-0.51344615
152	0xbebe18c5	-0.37128273
153	0xbdbb06f1	-0.09132183
154	0xbeaea8d3	-0.34113178
155	0xbde7c7a6	-0.11317377
156	0xbecab036	-0.39587563
157	0x3f0bfbf8	0.5468135
158	0x3f1d2c9e	0.61396205
159	0x3f28e3d1	0.6597262
160	0x3d1a06ea	0.03760425
161	0x3e069861	0.13144065
162	0x3d8b7649	0.068096705
163	0x3e0bf0c2	0.1366606
164	0x3f0686ef	0.5254964
165	0xbe5ae87e	-0.21377751
166	0x3e5ec2dd	0.21754022
167	0xbf7716e8	-0.9651933
168	0xbdf261fa	-0.11835094
169	0xbc926dbf	-0.017874597
170	0xbe395c89	-0.18101706
171	0x3df83e20	0.121212244
172	0x3f246af5	0.64225703
173	0x3f044127	0.51661915
174	0x3e198f86	0.14996156
175	0xbf0b2740	-0.54356766
176	0x3f1d21f8	0.6137996
177	0x3e60659a	0.21913758
178	0x3d5a6b5e	0.05332505
179	0x3e0d6338	0.1380738
180	0xbf0ae6d5	-0.5425847
181	0x3f4683ce	0.7754487
182	0x3f1bc4d3	0.60847205
183	0x3eeb0ab5	0.45906606
184	0xbeec82bd	-0.46193495
185	0xbe6fdc75	-0.23423941
186	0xbda1e405	-0.079048194
187	0xbd13da31	-0.036096755
188	0x3dc2080c	0.09474191
189	0xbe57510d	-0.21027012
190	0x3f8490ef	1.035673
191	0x3eac466f	0.33647487
192	0xbeae2ea1	-0.3401995
193	0x3ddf5515	0.109049
194	0x3ed4e337	0.415796
195	0x3e91a07c	0.28442752
196	0x3df50177	0.1196317
197	0x3ea0d76f	0.31414363
198	0x3e008032	0.12548903
199	0x3e50d65b	0.2039427
200	0xbc33c571	-0.010972367
201	0x3e9a17a0	0.3009615
202	0x3ba016ad	0.0048855157
203	0xbebad37b	-0.36489472
204	0xbe8b92d3	-0.27260455
205	0xbc5b874f	-0.013398959
206	0x3e70e303	0.23524098
207	0x3e90f511	0.2831197
208	0x3d742bc3	0.059612047
209	0xbd39ffa8	-0.04540983
210	0x3e8f1e94	0.27953017
211	0x3dfb47e4	0.122695714
212	0xbdd8d4f5	-0.10587493
213	0xbf1ed9b2	-0.62050927
214	0x3e608cfb	0.2192878
215	0x3e080024	0.13281304
216	0xbdd06613	-0.10175719
217	0xbdabc7d8	-0.083877265
218	0xbe686cc0	-0.22697735
219	0x3b5e9059	0.003396055
220	0x3e3c6518	0.18397939
221	0xbea97f46	-0.33104914
222	0x3e0bfe82	0.13671306
223	0xbe1b81f6	-0.15186295
224	0xbf083ede	-0.5322093
225	0xbdd1399b	-0.102160655
226	0x3e1d59b5	0.15366252
227	0x3e4a8a8f	0.19779418
228	0x3dabf9cf	0.083972566
229	0x3ea0f6b3	0.31438217
230	0x3e932abb	0.28743538
231	0xbe011460	-0.12605429
232	0x3ec8a94f	0.39191672
233	0x3e0e26f9	0.13882054
234	0x3e588809	0.21145643
235	0xbf5f1e00	-0.8715515
236	0x3e09be31	0.13451459
237	0xbf3cb55c	-0.7371423
238	0xbea3f61c	-0.32023704
239	0xbe7d6206	-0.24744424
240	0xbe7689da	-0.24076024
241	0xbdcf5c1e	-0.10124992
242	0x3ed84874	0.42242777
243	0x3f23175e	0.6370753
244	0xbce5b6d8	-0.028041288
245	0x3e763b31	0.24046017
246	0xbe89dae4	-0.26924813
247	0x3e858561	0.26078323
248	0x3e115b50	0.14194989
249	0x3e68a336	0.2271851
250	0x3ec5a018	0.38598704
251	0x3ed9d4d6	0.42545193
252	0xbe479222	-0.19489339
253	0x3e98118f	0.29700896
254	0x3b087505	0.0020821702
255	0xbd95c82e	-0.07313572

model.encoder.weight f4 [32, 17]
0	0xbea61b04	-0.32442486
1	0xbedcf85b	-0.4315823
2	0xbe33b353	-0.17548876
3	0x3e415469	0.18879856
4	0x3e49c20e	0.19702932
5	0xbe82704c	-0.254763
6	0xbe83bbb2	-0.25729138
7	0x3e792484	0.24330336
8	0xbece16bd	-0.40251723
9	0xbeadbd1a	-0.33933336
10	0x3dc6019e	0.09668277
11	0xbec9765f	-0.39348122
12	0xbd8d1298	-0.06888312
13	0x3e66c89c	0.22537464
14	0x3eb0fa1a	0.34565812
15	0x3f003962	0.5008756
16	0x3e67aee0	0.22625303
17	0x3e623359	0.220899
18	0xbe61a13c	-0.22034162
19	0x3f0a89c8	0.5411649
20	0xbe2bd40d	-0.1678011
21	0xbed72dfd	-0.42027274
22	0xbe37e34a	-0.17957798
23	0x3aa339bd	0.001245312
24	0x3d4927ad	0.049110103
25	0x3e4b5287	0.198557
26	0x3f0dbb13	0.5536358
27	0x3e7bcf82	0.24590877
28	0x3e4fb791	0.20284869
29	0x3d787acf	0.060663994
30	0xbc8ad302	-0.01694632
31	0x3cf6f4d1	0.030146034
32	0xbe13dbd7	-0.14439331
33	0x3ea396fc	0.3195113
34	0x3eaca3ba	0.33718663
35	0x3c4cebbd	0.012507376
36	0xbd4d877c	-0.050178036
37	0xbdf5deb4	-0.12005368
38	0x3c6d2afd	0.014475581
39	0xbe2e935f	-0.17048405
40	0x3e8329fd	0.25617972
41	0xbed2362e	-0.4105696
42	0xbcfa96ac	-0.030589424
43	0xbe9804fa	-0.29691297
44	0xbe550aae	-0.20804855
45	0x3f4f49c4	0.8097193
46	0xbeb012a5	-0.34389225
47	0xbe8aebf5	-0.27133146
48	0xbcfd5c1c	-0.03092771
49	0xbd7b7c45	-0.06139781
50	0x3d82e0af	0.06390511
51	0x3dab3412	0.08359541
52	0xbdb0cceb	-0.08632835
53	0xbf485191	-0.7824946
54	0x3df051dc	0.117343634
55	0xbee54780	-0.44781113
56	0x3eb589ff	0.35456845
57	0x3eeccc06	0.46249408
58	0x3ee06eb4	0.4383446
59	0x3e39c017	0.18139683
60	0x3eb6aed5	0.3568026
61	0x3e02ae1b	0.12761728
62	0x3ca98d72	0.02069733
63	0x3f1fde9c	0.6244905
64	0xbf1b2cee	-0.6061543
65	0x3f35af83	0.70970935
66	0xbf017c20	-0.50580025
67	0xbf203be7	-0.62591404
68	0xbeb94533	-0.36185607
69	0x3ed1a9d8	0.40949893
70	0xbe9f3fae	-0.3110327
71	0xbed563ad	-0.4167761
72	0xbe3a8b03	-0.18217091
73	0xbe64ff13	-0.22362928
74	0xbec3bd4d	-0.38230363
75	0xbe3fb2ed	-0.18720599
76	0x3e91a266	0.28444213
77	0xbdb0a2f6	-0.08624832
78	0xbcf4d205	-0.029885301
79	0x3e229d73	0.15880375
80	0x3eee92f7	0.465965
81	0xbe6899df	-0.22714947
82	0xbe054a8a	-0.13016716
83	0xbec2fbb0	-0.38082647
84	0x3e0817f3	0.13290386
85	0x3d983283	0.07431509
86	0xbeeae044	-0.45874226
87	0xbdb28e44	-0.08718541
88	0x3e3000b0	0.17187762
89	0x3e2a3398	0.16621244
90	0x3ef7f14c	0.48426282
91	0x3e33ba40	0.17551517
92	0x3e0a8fad	0.1353137
93	0x3eb09ddf	0.34495446
94	0xbd35e4b1	-0.04440755
95	0xbe6649be	-0.22489068
96	0xbe4e6f4f	-0.20159648
97	0x3efa8a90	0.4893384
98	0x3f2623c9	0.64898354
99	0x3e940a2b	0.28914008
100	0xbf1f94c7	-0.6233639
101	0xbf0c56b6	-0.5481981
102	0x3ec11de8	0.3771813
103	0x3e0a4849	0.13504137
104	0x3d86cebc	0.065824
105	0xbeeeb513	-0.46622524
106	0x3e6e6637	0.2328118
107	0x3e90c6b1	0.2827659
108	0x3e495d64	0.19664532
109	0x3ea392a9	0.3194783
110	0x3e4f0b0e	0.20219061
111	0x3da77614	0.081768185
112	0x3ead3206	0.33827227
113	0xbdf2c202	-0.1185341
114	0xbebeca44	-0.3726369
115	0x3e0d2371	0.13783051
116	0xbdf4ddf0	-0.11956394
117	0x3e85d2c7	0.26137373
118	0xbbe20b11	-0.006898292
119	0x3e227a35	0.15866931
120	0x3f045f43	0.5170786
121	0xbe6e8a1f	-0.23294877
122	0x3e3a0f1b	0.18169825
123	0xbf19cb46	-0.60075796
124	0xbcac6013	-0.021041906
125	0xbbe6510f	-0.007028706
126	0xbeb696ea	-0.35662013
127	0xbe07ef18	-0.13274801
128	0xbcba558a	-0.022745866
129	0xbd8cd6a1	-0.06876875
130	0xbefb5008	-0.49084496
131	0xbe4e2b40	-0.20133686
132	0xbe07de0c	-0.13268298
133	0xbb79a2a3	-0.0038091324
134	0x3e739055	0.23785527
135	0xbcabda6c	-0.020978175
136	0xbdb7b049	-0.089691706
137	0xbee8372b	-0.4535459
138	0x3eda5fc5	0.4265119
139	0x3e0e7cff	0.1391487
140	0xbe378bc3	-0.17924409
141	0xbe50ef8e	-0.20403883
142	0xbf0a4bca	-0.54021895
143	0xbe1c0f3b	-0.15240185
144	0x3ebd1f5e	0.36937994
145	0xbe0cbef9	-0.13744725
146	0xbee274b4	-0.44229662
147	0xbdcd6994	-0.10029903
148	0xbf0ca35f	-0.54936785
149	0xbeb81933	-0.35956725
150	0xbf2a4bd6	-0.66521966
151	0xbf486c7f	-0.7829055
152	0xbedf971b	-0.43669972
153	0xbe83360a	-0.25627166
154	0x3e21996f	0.15781187
155	0xbe654f9e	-0.22393653
156	0xbe7037ef	-0.23458837
157	0xbe8fb466	-0.2806732
158	0x3e719392	0.2359145
159	0x3e82f004	0.25573742
160	0xbec91d6a	-0.39280254
161	0xbdea2061	-0.11431957
162	0x3eb5f8af	0.35541293
163	0x3e1342ab	0.143809
164	0xbec76b7d	-0.38949195
165	0xbe5b1cd6	-0.21397719
166	0xbe1ed280	-0.15509987
167	0xbd2c091b	-0.04200087
168	0x3d3133bf	0.04326224
169	0xbe89cb61	-0.26912978
170	0xbdb61a78	-0.08891767
171	0x3f2a9191	0.66628367
172	0x3dd4e665	0.10395507
173	0x3efe87c9	0.4971297
174	0xbe120499	-0.14259566
175	0x3ea0f91e	0.3144006
176	0x3e15f664	0.14644772
177	0xbe3e0a2c	-0.18558568
178	0xbe08d46d	-0.13362284
179	0xbeb79e6c	-0.35863054
180	0x3eb555b4	0.3541695
181	0x3e3d97d3	0.18514948
182	0x3f21c4b5	0.63190776
183	0x3e4ee135	0.20203097
184	0xbdbba7f0	-0.09162891
185	0x3e6bcd9f	0.23027657
186	0xbd92b8a5	-0.071641244
187	0xbe5728c4	-0.21011645
188	0x3b9555ee	0.0045573628
189	0xbc5965c4	-0.013268892
190	0x3aca8ec2	0.0015453922
191	0xbdf5936b	-0.11991008
192	0x3e145f61	0.14489509
193	0xbdf8a912	-0.121416226
194	0x3e486e9b	0.19573443
195	0xbe3a9c14	-0.18223602
196	0x3cabfe9e	0.020995434
197	0x3edb5ba8	0.42843366
198	0xbc467782	-0.012113454
199	0xbeadda52	-0.33955628
200	0xbe66c9e5	-0.22537954
201	0x3ebdea75	0.3709294
202	0xbc91fbb6	-0.01782022
203	0x3da7e04c	0.08197078
204	0x3e7a4026	0.24438533
205	0xbf42890e	-0.7599038
206	0x3f03ead9	0.51530224
207	0xbf089c56	-0.5336355
208	0xbf1ed382	-0.62041485
209	0xbee65450	-0.449862
210	0x3e88d88f	0.2672772
211	0x3e3e1f0b	0.1856653
212	0x3cce86d8	0.025210783
213	0xbecc003b	-0.39843926
214	0xbe456041	-0.19274999
215	0xbe0c3eab	-0.13695781
216	0x3e86f3fb	0.26358017
217	0xbdae4cc0	-0.08510733
218	0xbf224d5d	-0.63399297
219	0xbe36635b	-0.17811339
220	0x3e3ed8b0	0.18637347
221	0x3e19cd05	0.15019615
222	0x3db75a94	0.08952823
223	0xbe9a635c	-0.3015393
224	0x3e93bef6	0.2885663
225	0x3ee7ac39	0.45248583
226	0xbf117cc3	-0.56830996
227	0x3f3feb3d	0.7496832
228	0x3e985371	0.2975116
229	0x3f8aaf1d	1.083469
230	0xbca7c3e9	-0.02047916
231	0x3f4222dd	0.7583445
232	0xbee53baf	-0.44772097
233	0xbdf7ae10	-0.12093747
234	0x3d1d4020	0.038391232
235	0xbf1609a5	-0.58608466
236	0x3f0457d7	0.5169653
237	0xbf18a168	-0.59621286
238	0x3dc4acde	0.09603284
239	0xbbd9af0c	-0.0066431817
240	0x3d85f341	0.065405376
241	0xbe99002f	-0.29882953
242	0xbe098be4	-0.1343227
243	0xbecf2f8b	-0.4046596
244	0xbe1cd954	-0.15317279
245	0xbe24d286	-0.16095933
246	0xbf574cca	-0.84101546
247	0x3f348abc	0.7052419
248	0xbd9d1bb9	-0.07671303
249	0xbe1a9b46	-0.15098295
250	0x3ea6ed9c	0.32603157
251	0x3ef58785	0.47954956
252	0x3e02084c	0.12698478
253	0xbf32a196	-0.6977781
254	0x3da9e21a	0.082950786
255	0x3e7f943a	0.24958888

model.encoder.bias f4 [32]
0	0x3cba4488	0.022737756
1	0x3da160d8	0.078797996
2	0xbdb7ef5d	-0.08981202
3	0xbdc29681	-0.095013626
4	0x3e21068b	0.15725152
5	0xbc1f7555	-0.009732564
6	0xbd0e31dd	-0.034715522
7	0xbdfa1f31	-0.122129805
8	0xbdc7fedb	-0.09765407
9	0xbcb262f1	-0.021775695
10	0xbcb36ee9	-0.021903472
11	0xbc5a6100	-0.013328791
12	0x3db383d1	0.08765376
13	0x3e0f3ea6	0.13988742
14	0xbe0a4963	-0.13504557
15	0x3e3ba3c6	0.18324193
16	0x3df8d459	0.12149877
17	0xbd4f858e	-0.050664477
18	0xbe13c8eb	-0.14432113
19	0x3d4c2fd7	0.04985031
20	0xbd955016	-0.07290666
21	0x3e17e304	0.14832693
22	0xbe528555	-0.20558675
23	0xbe19ceca	-0.1502029
24	0xbe3b9976	-0.1832026
25	0xbd9e28c7	-0.077226214
26	0x3dba5235	0.09097711
27	0x3d7d7afd	0.06188487
28	0x3d7b777c	0.061393246
29	0x3d89a934	0.06721726
30	0x3cb775cf	0.022395043
31	0xbc933b7e	-0.017972704

model.time_nn.rnn.weight_ih_l0 f4 [96, 32]
0	0xbd428b28	-0.04749599
1	0xbf029a33	-0.5101654
2	0x3f445379	0.7668987
3	0x3dcd4c22	0.10024287
4	0xbee6e3b2	-0.45095593
5	0x3e8411da	0.2579487
6	0x3e681f55	0.22668202
7	0x3dd9db80	0.106375694
8	0xbea829b3	-0.32844314
9	0xbf321f6c	-0.69579196
10	0x3ec8f53f	0.39249608
11	0xbf63c5a3	-0.88973445
12	0x3d0e8916	0.034798704
13	0xbebb4905	-0.36579147
14	0x3ef7ebad	0.48421994
15	0xbe2493b6	-0.16071972
16	0x3ed6e391	0.41970494
17	0xbea9c289	-0.3315623
18	0xbf2ccc72	-0.6749946
19	0xbe338e6e	-0.17534801
20	0x3f2e1c4b	0.6801192
21	0x3da6acac	0.08138403
22	0x3d9257c8	0.07145649
23	0xbe7952f0	-0.24348044
24	0xbdd0f14e	-0.10202275
25	0xbe956066	-0.2917511
26	0x3dc6bf27	0.09704428
27	0xbfae0431	-1.3595029
28	0xbe194a0a	-0.1496965
29	0x3df3aa3e	0.118977055
30	0x3f07f977	0.5311503
31	0x3ecda74b	0.40166697
32	0x3e498d13	0.19682722
33	0x3c6e1a28	0.014532603
34	0x3e31f929	0.17380203
35	0xbf17f0dd	-0.59351903
36	0xbe28be30	-0.16478801
37	0xbc932c35	-0.017965415
38	0xbe5c371c	-0.21505398
39	0xbf2bd9dd	-0.6712931
40	0x3ee089f0	0.43855238
41	0xbeca16b0	-0.39470434
42	0xbe9aa82f	-0.3020644
43	0x3ca9155d	0.02064007
44	0xbf230d1c	-0.6369188
45	0xbeb0735e	-0.34463018
46	0x3dfc8741	0.12330485
47	0xbe02243f	-0.1270914
48	0xbe4200ef	-0.18945669
49	0xbda683fc	-0.08130643
50	0xbf0e8c55	-0.5568288
51	0x3af7f3d8	0.0018917276
52	0xbf2f6395	-0.68511325
53	0xbd0341fb	-0.032045346
54	0x3e6edc9e	0.23326346
55	0xbce7884f	-0.02826324
56	0xbe37a816	-0.17935213
57	0xbe1ff21d	-0.15619703
58	0x3da5d9bc	0.0809817
59	0x3e968564	0.29398644
60	0x3e7fda8a	0.2498571
61	0x3ea4ef92	0.32214028
62	0x3eaad13f	0.33362767
63	0xbde01078	-0.10940641
64	0x3ed24ac7	0.41072676
65	0xbe4f15e6	-0.20223197
66	0xbf3199c0	-0.6937523
67	0xbd28c4c8	-0.04120329
68	0x3fb18cc8	1.3871088
69	0xbefe63f7	-0.49685642
70	0xbeb21ee8	-0.34789205
71	0x3e8d181f	0.27557465
72	0xbec12a8a	-0.37727767
73	0x3f8c347b	1.0953516
74	0x3e3b76de	0.18307063
75	0x3f140e51	0.57834345
76	0xbee33d1e	-0.44382566
77	0xbe0b745a	-0.13618603
78	0x3eaee6fe	0.34160608
79	0x3da185cc	0.07886848
80	0xbf34cdf5	-0.70626765
81	0x3ed50246	0.41603297
82	0xbd96cc70	-0.07363212
83	0x3d981594	0.07425991
84	0x3d1c276a	0.038123526
85	0xbda8abf0	-0.082359195
86	0x3dc434fe	0.0958042
87	0x3e93737d	0.28799048
88	0x3e8895b2	0.26676708
89	0x3e2678cf	0.16257022
90	0xbdb262d6	-0.08710258
91	0x3f80c670	1.0060558
92	0x3e99ea56	0.30061597
93	0xbea701d4	-0.32618582
94	0x3d7ca284	0.061678424
95	0xbe4c3d08	-0.19945157
96	0xbef03e6f	-0.46922633
97	0x3e8c6e85	0.2742807
98	0x3e895166	0.26819915
99	0xbec9bc3e	-0.3940143
100	0x3e5e0797	0.21682583
101	0xbd14bdaa	-0.03631369
102	0x3e89592c	0.26825845
103	0x3e00476e	0.12527248
104	0xbf83b8e2	-1.0290797
105	0x3e06bf85	0.13158996
106	0x3e23c1e9	0.1599194
107	0xbf365191	-0.7121821
108	0xbdf2d8c9	-0.11857755
109	0x3e2a1553	0.16609697
110	0xbc920b2a	-0.017827589
111	0x3ea5b92b	0.32367834
112	0xbe9f77c2	-0.31146055
113	0xbdc7bfb2	-0.0975336
114	0xbc9c56e8	-0.019084409
115	0x3e924059	0.28564718
116	0x3e33829d	0.17530294
117	0xbd9e3443	-0.07724812
118	0xbf26ea11	-0.65200907
119	0x3ddc3db5	0.10753957
120	0x3d86ab45	0.06575636
121	0xbeafb648	-0.34318757
122	0x3eaef0e6	0.34168166
123	0xbeab5d9b	-0.33469853
124	0x3de3b019	0.11117572
125	0x3f117d60	0.5683193
126	0x3f8c6afb	1.0970148
127	0x3f049622	0.51791584
128	0x3eee41df	0.4653463
129	0xbc27bb99	-0.010237598
130	0xbc8965b9	-0.016772138
131	0xbe27b4d2	-0.16377571
132	0x3f0c7502	0.5486604
133	0xbf4dc873	-0.80383986
134	0xbe9dbe95	-0.30809465
135	0x3f0d69d5	0.5523961
136	0x3eba8080	0.36426163
137	0x3e47af48	0.19500458
138	0xbda74e6b	-0.08169254
139	0x3de69dda	0.112605765
140	0xbc05e074	-0.00817119
141	0xbe2766ca	-0.16347805
142	0xbe62d381	-0.22150995
143	0xbe9d5a96	-0.30733174
144	0xbf84eef5	-1.0385424
145	0x3eac8d1c	0.33701408
146	0x3dcc3fe3	0.09973123
147	0xbe81d26d	-0.25355855
148	0xbe56504b	-0.20929067
149	0x3e0f0022	0.13964894
150	0xbd6d076c	-0.057868406
151	0x3f5918ff	0.84803766
152	0x3f179d72	0.5922462
153	0x3e8b2e7c	0.27183902
154	0x3da240fd	0.07922552
155	0x3e958cea	0.2920907
156	0x3ea2c122	0.31787974
157	0xbf07e0ca	-0.53077376
158	0xbe8c54ff	-0.27408597
159	0xbe03e56c	-0.12880486
160	0x3da92f69	0.08260996
161	0x3c77d941	0.015127481
162	0xbe277ec4	-0.16356951
163	0xbd5f9079	-0.05458114
164	0xbe82e8f5	-0.25568357
165	0xbe07fc66	-0.13279876
166	0x3e41dd1a	0.18932
167	0xbd822d79	-0.063563295
168	0xbb92b06c	-0.0044765975
169	0xbe22d401	-0.15901186
170	0xbeca07ce	-0.3945908
171	0x3d6aa829	0.057289276
172	0x3dc6d378	0.09708303
173	0x3f18899a	0.59584963
174	0xbf6f1344	-0.9338877
175	0xbdae7fcf	-0.08520471
176	0x3c043ead	0.008071584
177	0xbd0a1206	-0.033708595
178	0xbe90c3bd	-0.28274336
179	0xbd55c9b7	-0.052194323
180	0xbd9bff33	-0.07617035
181	0x3d8c0cec	0.06838402
182	0xbdef2b84	-0.11678222
183	0x3d3c1741	0.045920614
184	0x3d2297b5	0.03969546
185	0x3eaec912	0.3413778
186	0x3e932fdc	0.2874745
187	0xbdd8687b	-0.10566803
188	0xbbb71c67	-0.0055881026
189	0xbc306c64	-0.01076803
190	0x3e4586bd	0.1928968
191	0xbd99519e	-0.0748627
192	0xbea60968	-0.3242905
193	0xbe2def5d	-0.16985841
194	0x3dbdc5f8	0.09266275
195	0x3f0a2e9b	0.53977364
196	0xbd903755	-0.07041804
197	0xbcdd8a07	-0.027043356
198	0x3d8763db	0.06610843
199	0x3e5436b6	0.20723996
200	0xbd5a623f	-0.05331635
201	0x3ee8ac36	0.45443887
202	0x3de2da2c	0.11076769
203	0x3e8c60ce	0.27417606
204	0xbd62b6e1	-0.05535019
205	0x3d8a366e	0.06748663
206	0x3d115ecf	0.035490807
207	0x3dd2095e	0.10255693
208	0x3f2cbf22	0.67479146
209	0x3d80b2a8	0.06284076
210	0x3f60e4e1	0.8784924
211	0xbe5a4ac3	-0.21317582
212	0xbbf941c8	-0.0076067187
213	0x3e8b583d	0.27215758
214	0x3eb09d6d	0.34495106
215	0x3e7186e2	0.2358661
216	0x3eb12643	0.34599504
217	0x3d02d3aa	0.03194014
218	0x3e130700	0.14358139
219	0x3b2dd2bc	0.0026523313
220	0xbbd152ea	-0.006388058
221	0xbd485202	-0.048906334
222	0x3dd2812c	0.10278544
223	0xbd3e67bd	-0.04648565
224	0xbdf1abc3	-0.11800339
225	0x3e4d4b67	0.20048295
226	0x3e3afca9	0.18260445
227	0xbea7a77e	-0.32744974
228	0xbd8a083a	-0.0673985
229	0xbeff5168	-0.49866796
230	0x3e10bf86	0.1413556
231	0xbe2e96ad	-0.17049666
232	0x3e633b8c	0.22190684
233	0x3c64e449	0.013970443
234	0xbefea1cf	-0.49732825
235	0x3d0a7789	0.033805404
236	0x3eefeed3	0.46861896
237	0x3f25c22b	0.647494
238	0xbea08f33	-0.31359252
239	0x3e8ede91	0.2790418
240	0xbed03f34	-0.4067322
241	0xbe11ff05	-0.14257438
242	0xbf5dd7ec	-0.86657596
243	0x3effad93	0.49937114
244	0x3ea0d392	0.31411415
245	0x3ede77c2	0.43450743
246	0xbe2a5407	-0.16633616
247	0xbe71b7b1	-0.23605229
248	0xbeb3bf07	-0.3510668
249	0x3d06ddcc	0.032926366
250	0x3eec2767	0.46123812
251	0x3bd58823	0.006516473
252	0xbed0332c	-0.4066404
253	0xbcfebe15	-0.031096498
254	0xbe388f25	-0.18023355
255	0xbd1eeddd	-0.038801063

model.time_nn.rnn.weight_hh_l0 f4 [96, 32]
0	0xbe319b52	-0.17344406
1	0xbf582ac6	-0.8444027
2	0xbec6779e	-0.38763136
3	0x3f095d8f	0.53658384
4	0xbebe226e	-0.37135643
5	0x3d7150ac	0.058914825
6	0xbee24fb1	-0.44201425
7	0xbdb7bf39	-0.0897202
8	0xbd9c44dc	-0.076303214
9	0x3c96cc5d	0.018407995
10	0x3eb77921	0.35834602
11	0xbd119bd9	-0.03554902
12	0x3e6e24c8	0.23256218
13	0xbdeaafc8	-0.11459309
14	0xbdf070e8	-0.11740285
15	0xbd8e634f	-0.06952535
16	0xbea7fc8d	-0.32809868
17	0xbfa84c02	-1.3148196
18	0xbeb37bfd	-0.35055533
19	0xbf0e3291	-0.5554591
20	0x3ef09d59	0.46995047
21	0x3fd89404	1.6920171
22	0xbe464b58	-0.19364679
23	0x3e0c1ee8	0.13683665
24	0x3f1545a1	0.5830937
25	0x3e986de5	0.29771343
26	0x3dcaf412	0.09909834
27	0xbe9d5cf4	-0.3073498
28	0xbcc67178	-0.024224028
29	0xbc921f3b	-0.017837157
30	0xbe937abd	-0.2880458
31	0x3f12fd37	0.57417625
32	0xbe68f23c	-0.22748655
33	0xbdcbc161	-0.099489935
34	0x3e95565f	0.29167458
35	0x3ea88152	0.32911164
36	0xbd73a45b	-0.059482913
37	0x3e7a4046	0.24438581
38	0x3e449f9c	0.19201511
39	0x3ea510de	0.3223943
40	0x3dc41d88	0.09575945
41	0xbdb9fa0b	-0.09080895
42	0x3f4637f0	0.77429104
43	0x3e154f78	0.14581096
44	0xbecf4482	-0.40481955
45	0xbd22dc94	-0.03976114
46	0xbc9f7965	-0.019467065
47	0xbd51b1b8	-0.051194876
48	0x3ea28979	0.31745508
49	0x3df756c9	0.120771
50	0x3e9dbea6	0.30809516
51	0xbd94e609	-0.07270438
52	0x3d3ec696	0.046576105
53	0x3f1c0405	0.60943633
54	0x3ed87532	0.42276913
55	0xbd9ff50b	-0.0781041
56	0x3e377077	0.17913996
57	0x3e9f6cd7	0.31137726
58	0x3e189639	0.14901055
59	0xbe46c79c	-0.19412082
60	0xbe53fc94	-0.2070182
61	0xbda811db	-0.08206531
62	0x3ea81bf3	0.32833824
63	0xbd95c9c0	-0.073138714
64	0x3e62f0aa	0.22162119
65	0x3f5d551e	0.86458004
66	0x3f244213	0.6416332
67	0xbe0b77f1	-0.13619973
68	0xbc98af79	-0.01863836
69	0x3dcbf914	0.09959617
70	0x3c427f68	0.011871196
71	0x3f0ae44d	0.5425461
72	0x3e6de891	0.23233248
73	0x3d8d09f0	0.06886661
74	0x3de67ad8	0.11253899
75	0xbec2769e	-0.37981123
76	0xbf3c71d6	-0.736112
77	0xbe1530b2	-0.14569357
78	0x3d206ff7	0.039169278
79	0x3e563a69	0.20920719
80	0xbeab304f	-0.33435294
81	0xbf0aead0	-0.54264545
82	0xbe138b91	-0.14408709
83	0x3ed0238e	0.40652126
84	0xbde2f3ff	-0.11081695
85	0x3e66b161	0.22528602
86	0xbeb50aab	-0.35359702
87	0x3dc101f8	0.09424204
88	0xbdf2e1b6	-0.11859457
89	0xbe9daa1f	-0.30793855
90	0x3e58f532	0.21187285
91	0x3e078067	0.13232575
92	0xbe579503	-0.21052937
93	0xbd036ed7	-0.032088127
94	0x3a28dd7e	0.00064416963
95	0xbe4d0f42	-0.20025352
96	0x3d9ba613	0.076000355
97	0xbed3c3d8	-0.41360354
98	0x3eefb9c8	0.46821427
99	0xbdaf6318	-0.085638225
100	0xbcef89fb	-0.029240599
101	0xbef1ac5d	-0.47201815
102	0x3cb2c3ae	0.021821823
103	0x3df11e83	0.11773398
104	0x3f10596e	0.5638646
105	0xbdc5c6ff	-0.09657096
106	0x3f6f9dc5	0.9360011
107	0xbf0cceb6	-0.55002916
108	0x3e82c9c1	0.2554455
109	0xbeaafc01	-0.3339539
110	0xbebae0ff	-0.36499783
111	0x3e14aca9	0.1451899
112	0xbee8a4de	-0.45438284
113	0x3db1f8ce	0.08690034
114	0x3ee2f53e	0.4432773
115	0x3e80547d	0.2506446
116	0xbcb29a27	-0.021802021
117	0x3f92c6c9	1.1466914
118	0x3e88ef4e	0.26745075
119	0x3f1c2a2b	0.61001843
120	0xbfa291d1	-1.270075
121	0x3e36e6ec	0.17861527
122	0x3f858b10	1.0433064
123	0xbf05ba39	-0.5223728
124	0x3ee0a098	0.43872523
125	0xbda628c2	-0.08113243
126	0xbca3b7fa	-0.019985188
127	0x3e50e413	0.20399503
128	0xbeb46a55	-0.35237375
129	0xbebeffb5	-0.37304464
130	0xbe817242	-0.25282484
131	0x3c911f4c	0.017715119
132	0x3e84de3b	0.25950798
133	0xbea05f05	-0.31322494
134	0xbf20c762	-0.62804234
135	0xbf7a15f9	-0.9768978
136	0xbd864f75	-0.06558124
137	0xbde839ff	-0.11339187
138	0x3e959521	0.2921534
139	0xbc88f136	-0.01671658
140	0xbec05c19	-0.37570265
141	0xbdefb3be	-0.11704205
142	0x3e3784e4	0.17921788
143	0x3ef0759a	0.46964723
144	0xbeb4a084	-0.35278714
145	0xbf3ddffe	-0.7416991
146	0x3d86d824	0.06584194
147	0x3f04fddc	0.5194986
148	0xbe267c5f	-0.16258381
149	0x3e37a805	0.17935188
150	0x3e258543	0.16164117
151	0xbe97b168	-0.29627538
152	0xbdb008f2	-0.08595456
153	0xbf00e4d9	-0.50349194
154	0xbd92707f	-0.07150363
155	0x3e02700e	0.12738058
156	0xbeb4e555	-0.35331216
157	0xbda11334	-0.07864991
158	0x3e028723	0.12746863
159	0xbc577616	-0.0131507125
160	0xbd306fbe	-0.043075316
161	0x3f08c0ca	0.5341917
162	0x3eeaaf7b	0.45837006
163	0xbea460be	-0.32105058
164	0xb91f4c75	-0.00015191904
165	0xbd307f10	-0.043089926
166	0xbee5a508	-0.4485247
167	0x3f28193f	0.6566352
168	0x3e40f14d	0.18842049
169	0x3cd90dec	0.026495896
170	0xbec8cb7a	-0.3921774
171	0xbe5c348c	-0.2150442
172	0x3ef99eba	0.4875391
173	0xbe14e608	-0.14540875
174	0x3e1dc9d6	0.15409026
175	0x3bc06394	0.0058712456
176	0x3e0c548a	0.13704124
177	0xbecdb41b	-0.40176472
178	0xbcd79279	-0.02631496
179	0x3f473364	0.7781279
180	0xbe570f52	-0.21001938
181	0xbecd4333	-0.4009033
182	0xbe18f7c9	-0.14938273
183	0x3c138e8a	0.009006152
184	0xbd872a7a	-0.06599899
185	0xbe53690c	-0.20645541
186	0x3efdc7a7	0.49566385
187	0x3e7eef08	0.2489587
188	0x3eae4b8e	0.3404202
189	0x3c90a013	0.017654454
190	0x3e2a2efa	0.16619483
191	0xbe8a3561	-0.2699385
192	0x3e35ee88	0.17766774
193	0xbea98a07	-0.3311312
194	0x3ec67a63	0.3876525
195	0x3d956d23	0.07296207
196	0xbd330d7f	-0.043714043
197	0xbf4235db	-0.75863427
198	0xbea6abcc	-0.32552946
199	0xbf4078b4	-0.7518418
200	0xbec8896e	-0.3916735
201	0xbd84ca71	-0.06483925
202	0xbe9adceb	-0.30246672
203	0x3becb166	0.007223296
204	0x3d547a16	0.051874243
205	0x3bf8679e	0.0075807115
206	0x3c80690d	0.015675092
207	0x3e0b0e69	0.13579716
208	0x3c12fd67	0.008971549
209	0xbeaccbae	-0.33749145
210	0x3e64a50d	0.22328587
211	0xbe266eb8	-0.16253173
212	0x3e693a5c	0.22776169
213	0x3d4db83b	0.050224524
214	0x3eb961f0	0.36207533
215	0xbe7e6e29	-0.2484671
216	0xbe6c0df4	-0.23052198
217	0xbdcf2373	-0.10114183
218	0x3dae3ddd	0.08507893
219	0x3e01be17	0.1267017
220	0xbe6e91f4	-0.23297864
221	0x3d1bcf61	0.03803957
222	0x3e670bfc	0.22563165
223	0x3dd38226	0.10327558
224	0xbe9a7d82	-0.3017388
225	0x3dd421d2	0.10358013
226	0xbe699b7e	-0.22813222
227	0x3cd9f75b	0.026607206
228	0xbf0d44d7	-0.55183166
229	0xbefff92c	-0.4999479
230	0xbcfc5ed5	-0.030806938
231	0x3f15f305	0.58573943
232	0x3ed0432c	0.40676248
233	0x3e0b36fe	0.13595197
234	0x3e22b885	0.15890701
235	0xbdaf329e	-0.08554576
236	0x3e465aec	0.19370621
237	0x3dee2947	0.11628967
238	0xbbe54284	-0.0069964547
239	0xbd9c7624	-0.07639721
240	0x3e52ddc1	0.20592405
241	0xbeac8d1a	-0.33701402
242	0xbe69b371	-0.22822358
243	0xbe69bee8	-0.22826731
244	0x3e767f69	0.2407204
245	0xbddf52a9	-0.10904438
246	0x3e71c420	0.23609972
247	0x3d41e055	0.04733308
248	0xbe86fafd	-0.26363364
249	0x3eb97368	0.3622086
250	0xbe1889e6	-0.14896354
251	0x3d2a833b	0.041629057
252	0x3d5ccfec	0.053909227
253	0x3e164328	0.14674056
254	0x3e8f0472	0.2793308
255	0x3d03570d	0.03206544

model.time_nn.rnn.bias_ih_l0 f4 [96]
0	0xbee059fd	-0.43818656
1	0xbd2d4628	-0.042303234
2	0x3d9eb06a	0.07748492
3	0x3d9511db	0.07278796
4	0xbe0975d1	-0.1342385
5	0x3e5ce2e2	0.21570924
6	0xbe16681d	-0.14688154
7	0x3e98b49d	0.29825297
8	0xbd32d9e3	-0.043664824
9	0x3e463a4f	0.1935818
10	0x3e0d0ae6	0.13773689
11	0xbe910ddf	-0.28330895
12	0x3de30573	0.11085024
13	0x3c9cd79c	0.01914578
14	0x3dadb902	0.08482553
15	0xbda8420b	-0.08215722
16	0x3d91a084	0.07110694
17	0x3d0e466f	0.03473514
18	0xbe0ec108	-0.13940823
19	0xbd3ed301	-0.046587948
20	0x3de8c01e	0.113647684
21	0xbcaf5175	-0.021401146
22	0xbe2681d4	-0.16260463
23	0x3caa2958	0.020771667
24	0xbdac441e	-0.0841143
25	0xbd584625	-0.05280127
26	0x3ba11631	0.0049159755
27	0xbdcefca4	-0.10106781
28	0xbdff99f2	-0.124805346
29	0xbe12c10d	-0.14331456
30	0x3e6deb0f	0.23234199
31	0x3e822523	0.25418958
32	0xbe92cbb6	-0.28671044
33	0x3e8b814f	0.27247092
34	0xbd09ed3b	-0.033673506
35	0x3e97c35b	0.29641232
36	0x3ce8b790	0.028407842
37	0x3e04e4ec	0.12977952
38	0xbeebb68b	-0.46037707
39	0xbecec658	-0.403857
40	0xbdd44657	-0.10364979
41	0x3e5a4fda	0.21319523
42	0xbe676000	-0.22595215
43	0x3ebca753	0.36846408
44	0xbef8d3ed	-0.48599187
45	0x3f0cb3ec	0.5496204
46	0x3ee96f14	0.45592558
47	0x3da73c19	0.081657596
48	0xbe448fb1	-0.19195439
49	0x3e9669ca	0.29377586
50	0x3d254610	0.04035002
51	0x3d88557a	0.06656928
52	0xbdb84f5d	-0.08999512
53	0x3e65c9b3	0.22440223
54	0xbe80eec8	-0.25182176
55	0x3d829a47	0.06377082
56	0xbefc61d9	-0.49293402
57	0xbf57eb48	-0.84343386
58	0x3edd429b	0.43214878
59	0xbe1d1af2	-0.1534231
60	0x3eb76b95	0.35824266
61	0xbdf503a7	-0.11963587
62	0x3ee3898e	0.44440883
63	0x3b976e97	0.0046213376
64	0xbe3829d2	-0.17984703
65	0x3dde81fb	0.108646356
66	0x3dfe17f3	0.12406912
67	0x3c7d802f	0.015472456
68	0xbdf143c1	-0.11780501
69	0x3da8a5e1	0.08234764
70	0xbb4a2a30	-0.00308479
71	0xbd2fae6a	-0.042890944
72	0x3df83dd4	0.12121168
73	0x3e2708a2	0.16311887
74	0x3d0993b7	0.033588137
75	0xbe10e6b9	-0.14150514
76	0x3d432ee1	0.04765213
77	0xbe135f76	-0.14391884
78	0x3d957b33	0.07298889
79	0x3e3e7879	0.18600644
80	0xbcbdbbd5	-0.023160854
81	0x3e6dec42	0.23234656
82	0x3e37e1bf	0.17957209
83	0x3d16ad5f	0.036786433
84	0x3e0cacdf	0.1373782
85	0x3bdd52ac	0.00675424
86	0x3cc4c039	0.02401744
87	0x3dba47e6	0.09095745
88	0xbe7ce809	-0.2469789
89	0xbcb97061	-0.022636594
90	0xbdbf3e08	-0.093380034
91	0xbe23b8a1	-0.15988399
92	0x3db2033b	0.086920224
93	0xbe846664	-0.25859368
94	0x3dfe78ff	0.12425422
95	0x3d94ab6e	0.0725926

model.time_nn.rnn.bias_hh_l0 f4 [96]
0	0xbed54213	-0.41651973
1	0x3e369fe0	0.17834425
2	0xbd853e1a	-0.065059856
3	0x3e515bc4	0.20445162
4	0xbe711ff3	-0.23547344
5	0x3daae1e4	0.083438665
6	0xbd2e6ee0	-0.042586207
7	0x3de5978c	0.11210546
8	0xbcca7a48	-0.024716511
9	0x3e2768d5	0.16348584
10	0xbde7a117	-0.11310022
11	0xbe4b37fb	-0.19845574
12	0x3e336c3d	0.17521758
13	0x3e267cd1	0.16258551
14	0x3e55cbf4	0.20878583
15	0xbd9ad8ab	-0.075608574
16	0xbe0499a3	-0.12949233
17	0xbd2d4844	-0.042305246
18	0xbe553d1c	-0.20824093
19	0x3d8f7583	0.070048355
20	0xbd729ad2	-0.05922968
21	0x3d992585	0.074778594
22	0x3d914616	0.07093446
23	0xbe4bad59	-0.19890346
24	0xbeb1aa92	-0.34700447
25	0x3e18e5cc	0.1493141
26	0x3d37428a	0.04474119
27	0x3ce758f3	0.028240656
28	0x3e2f8f0c	0.17144412
29	0xbe751b05	-0.23936088
30	0x3d7d6c45	0.061870832
31	0x3e1f3df7	0.15550981
32	0xbe81a878	-0.25323844
33	0x3ec52ed1	0.3851228
34	0xbe8a281e	-0.26983732
35	0x3e446a5e	0.19181201
36	0x3e7cb57d	0.24678607
37	0x3ebacb53	0.3648325
38	0xbec613d7	-0.38687012
39	0xbecdbbc2	-0.4018231
40	0x3c66a20f	0.014076724
41	0x3e851cc0	0.25998497
42	0xbe59c704	-0.21267325
43	0x3ebb7a99	0.36616972
44	0xbed1918b	-0.40931353
45	0x3f0f2130	0.55910015
46	0x3e50f841	0.20407201
47	0x3da19d31	0.0789131
48	0xbe1400cf	-0.14453433
49	0x3e83e862	0.25763232
50	0x3d9f7bfb	0.07787319
51	0x3e3bcae8	0.18339121
52	0x3e55dfe7	0.20886193
53	0x3baea937	0.0053302306
54	0x3d30fc76	0.043209516
55	0xbe3b3eb8	-0.18285644
56	0xbf217563	-0.6306974
57	0xbf8ca1da	-1.0986893
58	0x3e70d93d	0.2352037
59	0xbdc82482	-0.09772588
60	0x3efbe595	0.49198595
61	0xbd8609ff	-0.06544875
62	0x3efda890	0.49542665
63	0xbd17fddb	-0.03710733
64	0x3c879757	0.016551657
65	0xbd8a58fe	-0.06755255
66	0x3d2581a8	0.040406853
67	0xbde0a0bb	-0.10968157
68	0x3ccdd5cd	0.025126362
69	0xbe25d7fc	-0.16195673
70	0xb9cafb52	-0.0003871569
71	0x3e173cbb	0.1476926
72	0x3d1fcccb	0.039013665
73	0x3e273036	0.16326985
74	0x3dde0bf5	0.108421244
75	0xbe03ebd4	-0.1288293
76	0x3d9ca9ed	0.07649598
77	0xbe435ba4	-0.19077927
78	0x3e20b29b	0.15693133
79	0x3b86dce0	0.004115686
80	0x3d6a9a8c	0.057276294
81	0x3d49f780	0.0493083
82	0x3e25738d	0.1615736
83	0x3e01acc3	0.1266356
84	0xbcbea3ed	-0.023271525
85	0x3db47753	0.08811822
86	0x3d1a4b32	0.037669368
87	0xbd748059	-0.059692714
88	0xbdaceb22	-0.084432855
89	0x3d842be4	0.06453684
90	0xbcb002b8	-0.021485671
91	0x3e717884	0.2358113
92	0x3e4ddb30	0.20103145
93	0xbd077cf4	-0.03307815
94	0x3de05c25	0.10955075
95	0x3e40a535	0.18813021

model.space_nn.filters.weight f4 [32, 160]
0	0x3e99d2cc	0.30043638
1	0x3d2d1f80	0.04226637
2	0xbd52abdb	-0.051433425
3	0xbda0ded5	-0.07855002
4	0x3e9195cf	0.28434607
5	0x3e1ad572	0.15120485
6	0x3d9a63cf	0.07538568
7	0xbdd26910	-0.10273945
8	0xbe15f031	-0.14642407
9	0xbd6febd5	-0.058574516
10	0x3e1e0073	0.15429859
11	0x3d95aba5	0.07308129
12	0xbdead560	-0.11466479
13	0xbb690acc	-0.0035559414
14	0xbdc61388	-0.09671694
15	0xbd145a02	-0.03621865
16	0xbd110517	-0.035405245
17	0x3d8ec218	0.06970614
18	0xbd4dfa60	-0.050287604
19	0xbe37e018	-0.17956579
20	0xbe855f4a	-0.26049262
21	0xbe2614f6	-0.16218933
22	0x3df5db80	0.12004757
23	0x3cffc5ad	0.031222189
24	0xbd99e782	-0.0751486
25	0x3db1e717	0.08686655
26	0x3d8ec899	0.06971855
27	0x3d99eb3b	0.0751557
28	0xbe7f2f30	-0.24920344
29	0xbc1e1a39	-0.009649807
30	0xbc12d459	-0.00896176
31	0xbe2c0c2b	-0.16801517
32	0xbe07fecd	-0.13280793
33	0xbe6244fb	-0.22096626
34	0xbd34c796	-0.044135652
35	0xbd011b8e	-0.03152042
36	0x3e78dc1e	0.24302718
37	0x3d9a2665	0.075268544
38	0x3ed69ce9	0.41916588
39	0xbcdaa9c1	-0.026692273
40	0xbe2c7938	-0.16843116
41	0xbd4b711c	-0.049668416
42	0xbc367850	-0.011137083
43	0xbd5b8c58	-0.05360064
44	0xbeae6852	-0.34063965
45	0x3e938fff	0.28820798
46	0xbe526c4f	-0.20549129
47	0x3cf8dc65	0.03037853
48	0xbe21a322	-0.15784886
49	0xbca0d2da	-0.019631792
50	0xbe710aa0	-0.2353921
51	0xbec70f9f	-0.38879105
52	0xbe8f233b	-0.27956566
53	0xbeab2eb5	-0.33434072
54	0x3ea4e773	0.32207832
55	0xbd00fb63	-0.03148974
56	0xbe101b0f	-0.14072822
57	0xbe7ca05a	-0.24670544
58	0x3e9e775a	0.30950433
59	0x3e80fdcf	0.2519364
60	0x3d5ae214	0.05343826
61	0x3e64ea1d	0.22354932
62	0x3e475689	0.19466604
63	0xbde0626c	-0.109562725
64	0xbd18a8c1	-0.03727031
65	0xbe7d6bb8	-0.24748123
66	0x3e68b8fc	0.22726816
67	0xbef0e6a4	-0.47050965
68	0x3c6257ff	0.013814925
69	0x3f30e865	0.69104606
70	0x3e8626d6	0.26201504
71	0xbef1de66	-0.4723999
72	0xbeb4601e	-0.35229582
73	0xbe06e0fe	-0.13171765
74	0x3e2a62d1	0.16639258
75	0x3ecd4453	0.4009119
76	0xbf21e19d	-0.63234884
77	0x3ef13aea	0.4711526
78	0xbf08c95c	-0.5343225
79	0x3e816eb9	0.25279787
80	0x3de67041	0.112518795
81	0xbe4884f3	-0.19581966
82	0xbef23f1c	-0.47313774
83	0xbea6cf41	-0.32579997
84	0xbe0f7ec4	-0.14013201
85	0xbef11812	-0.47088677
86	0xbebc1a49	-0.36738804
87	0xbe978476	-0.29593247
88	0x3dff2ff7	0.124603204
89	0x3d25be30	0.04046458
90	0x3e4ea7a2	0.20181134
91	0x3dcb558f	0.099284284
92	0xbec751fa	-0.3892973
93	0x3ea37a65	0.31929317
94	0x3da836ca	0.08213575
95	0xbd4868da	-0.04892812
96	0xbe59fc40	-0.21287632
97	0xbe12dd2e	-0.14342186
98	0x3dd4adbb	0.10384699
99	0xbe401eaf	-0.18761705
100	0x3e8d9d1f	0.27658936
101	0xbde6c10b	-0.11267289
102	0xbe1422df	-0.14466427
103	0xbc0a9391	-0.008458034
104	0xbbd18842	-0.006394417
105	0xbe89757f	-0.26847455
106	0xbe911b7b	-0.28341278
107	0xbc875b65	-0.016523072
108	0xbe161353	-0.14655809
109	0xbde7f85d	-0.113266684
110	0x3df2d78d	0.11857519
111	0xbe4b6262	-0.19861749
112	0xbd80cbfd	-0.06288908
113	0xbe3aa4fe	-0.18227002
114	0x3dd8633a	0.10565801
115	0xbd7b2a18	-0.06131944
116	0xbe86e1f5	-0.26344267
117	0x3cace783	0.021106487
118	0x3e841857	0.2579982
119	0xbe9dba5c	-0.30806243
120	0xbddc9492	-0.10770525
121	0xbe0de496	-0.1385673
122	0x3ebf151a	0.37320787
123	0x3e8ae4de	0.27127737
124	0xbe339787	-0.17538272
125	0x3e4093f4	0.1880644
126	0xbe067d24	-0.13133675
127	0xbd17a937	-0.03702661
128	0x3dd1abdf	0.1023786
129	0xbdb85814	-0.090011746
130	0x3ecfee01	0.4061127
131	0xbefbb908	-0.49164605
132	0x3e839fae	0.25707763
133	0x3e61f347	0.22065459
134	0x3c836086	0.016037237
135	0x3e55d6f9	0.20882787
136	0xbe7c040a	-0.24610916
137	0xbe73692a	-0.23770586
138	0x3e18c600	0.14919281
139	0x3b38243d	0.0028097772
140	0xbe722184	-0.23645598
141	0x3e4a3303	0.19746022
142	0xbdb6f603	-0.08933642
143	0xbe1213da	-0.14265385
144	0xbd7a3101	-0.06108189
145	0xbe763a64	-0.24045712
146	0xbd9879fe	-0.07445143
147	0xbe2faee6	-0.17156562
148	0xbeab3adc	-0.33443344
149	0x3e2ed71b	0.17074244
150	0x3e181cd9	0.14854755
151	0xbeb1065d	-0.34575167
152	0xbdf645cf	-0.12025034
153	0x3d0996e1	0.033591155
154	0x3eaeb17a	0.3411978
155	0x3f0fb6ff	0.56138605
156	0xbd06c226	-0.032899998
157	0x3e591c8f	0.212023
158	0x3f0f0913	0.5587322
159	0xbda1f78e	-0.079085454
160	0x3d7f929f	0.06239569
161	0xbd89963a	-0.067181066
162	0x3db6d46b	0.08927234
163	0xbd3c76f0	-0.046011865
164	0x3c5da8e0	0.0135290325
165	0x3e0ec22e	0.13941261
166	0x3ca5e8f3	0.02025268
167	0x3d5e05db	0.054204803
168	0x3d5b733a	0.053576685
169	0x3e3eb40a	0.18623367
170	0xbe5084f4	-0.20363218
171	0x3cb25594	0.021769322
172	0x3da65c09	0.08123023
173	0x3e0173e0	0.12641859
174	0xbd8e182f	-0.069382064
175	0xbe5bd4b0	-0.21467853
176	0x3c9a5535	0.018839458
177	0x3d5c978c	0.053855464
178	0xbe5ed3af	-0.21760438
179	0xbd623d91	-0.055234496
180	0x3db0908a	0.08621319
181	0xbd1ae76a	-0.03781835
182	0x3d04f65a	0.0324615
183	0xbc638c9f	-0.013888507
184	0xbc19073a	-0.009340102
185	0xbdf027e5	-0.11726359
186	0xbdcd071e	-0.10011123
187	0x3e2ee0ba	0.17077914
188	0x3d68d9e5	0.056848425
189	0x3da876b0	0.08225763
190	0xbd80601a	-0.0626833
191	0xbda2f1c9	-0.07956273
192	0xbe0e293b	-0.13882916
193	0xbd72dc19	-0.059291933
194	0x3e281ff6	0.16418442
195	0xbca0580f	-0.01957324
196	0xbe0d9455	-0.13826115
197	0x3e02b889	0.12765707
198	0x3dbe1b7e	0.092825875
199	0xbd077721	-0.033072595
200	0xbd3f4034	-0.04669209
201	0x3cce1e9d	0.025161082
202	0x3ddd18d4	0.10795751
203	0xbd589452	-0.052875824
204	0xbd4bd547	-0.049763944
205	0x3d541967	0.051782038
206	0xbe123ee6	-0.14281806
207	0x3da514e3	0.080606245
208	0xbd55fa1a	-0.05224047
209	0xbdabe8b0	-0.08393991
210	0xbc5ec74d	-0.013597322
211	0xbd7ec11c	-0.062195882
212	0x3ceb7e58	0.028746769
213	0xbdb06790	-0.08613503
214	0xbe0b2028	-0.13586485
215	0x3c9a2c37	0.018819911
216	0xbdb61297	-0.088902645
217	0xbdaaa260	-0.08331752
218	0xbe122ac9	-0.14274134
219	0xbcadaf50	-0.02120176
220	0xbdb83549	-0.08994538
221	0xb5c7c260	-1.4883226e-06
222	0x3d61370e	0.054984145
223	0xbc7c3881	-0.015394331
224	0xbdbdc28a	-0.09265621
225	0xbd81d040	-0.06338549
226	0x3e37ae25	0.17937525
227	0xbe063698	-0.13106763
228	0x3e0a8f00	0.13531113
229	0x3ddd75f3	0.10813513
230	0x3d1b7800	0.037956238
231	0xbcf71a25	-0.030163834
232	0x3d013c3f	0.031551596
233	0xbdd2c090	-0.10290635
234	0xbdd623ec	-0.1045607
235	0x3e9424a2	0.289342
236	0xbe38b8de	-0.18039271
237	0x3d61d432	0.055134006
238	0x3d78b64e	0.060720734
239	0x3df41db7	0.1191973
240	0x3e36b561	0.17842628
241	0xbee5dc8c	-0.44894826
242	0xbbe88c0a	-0.007096772
243	0xbe8433d8	-0.25820804
244	0x3d2d0b87	0.04224732
245	0x3d789a3a	0.060693957
246	0xbd311dab	-0.043241184
247	0xbdc76b97	-0.09737318
248	0x3de417ee	0.11137377
249	0x3e11ed78	0.14250743
250	0xbe1bc19f	-0.1521058
251	0xbd61004a	-0.054931916
252	0xbe8acbf6	-0.27108735
253	0x3d0c0c97	0.034191694
254	0xbe61c49f	-0.22047661
255	0xbd9c267b	-0.07624527

model.space_nn.filters.bias f4 [32]
0	0xbeb7fed9	-0.3593662
1	0xbeb1ee1b	-0.34751973
2	0xbe18f9b2	-0.14939001
3	0x3ebb8544	0.3662511
4	0x3dbc3cf0	0.091913104
5	0x3d2c1346	0.042010568
6	0xbddcb3e1	-0.10776497
7	0x3e239161	0.15973426
8	0xbcffaea7	-0.03121121
9	0x3c946c09	0.018117921
10	0xbdbcb721	-0.092146166
11	0xbda01c09	-0.07817847
12	0x3e76b24c	0.24091452
13	0x3ccaf451	0.024774702
14	0xbbaf1b85	-0.0053438568
15	0xbd828a99	-0.06374092
16	0xbda81ba0	-0.08208394
17	0x3ccb016e	0.024780955
18	0x3e81cf40	0.25353432
19	0xbd6575e8	-0.056020647
20	0x3e0f742c	0.1400916
21	0x3ce0284c	0.027362965
22	0x3c06ba0a	0.008223066
23	0x3cd20be8	0.025640443
24	0xbde7a9d8	-0.11311692
25	0x3e04c42a	0.12965456
26	0x3dd9d38e	0.10636054
27	0xbdd1d6f4	-0.10246077
28	0x3c4b2f3a	0.012401396
29	0x3d6a00e9	0.057129774
30	0xbe7918c3	-0.24325852
31	0x3ca40a67	0.020024491

model.decoder.readout.mlp.0.affinity.weight f4 [64, 48]
0	0x3e749bbf	0.23887537
1	0xbcd7b85e	-0.02633303
2	0xbe0c8b7b	-0.13725083
3	0xbe15bc0a	-0.14622512
4	0xbd95e73f	-0.07319497
5	0x3ec2aa41	0.38020518
6	0x3dc55e72	0.09637155
7	0xbe51494e	-0.2043812
8	0x3d9105ed	0.070812084
9	0xbdb71e03	-0.08941271
10	0x3d955d26	0.07293157
11	0xbe4a9b69	-0.19785847
12	0xbe4475fa	-0.1918563
13	0xbd74cad6	-0.059763752
14	0xbe54421c	-0.20728344
15	0xbde50d16	-0.111841366
16	0x3dd8f7c8	0.105941355
17	0xbe1ed2c0	-0.15510082
18	0xbe0463ac	-0.12928647
19	0xbda94122	-0.08264376
20	0xbe502bb0	-0.20329165
21	0xbcc47c7a	-0.023985136
22	0x3e78d5fb	0.24300377
23	0xbe02a2d4	-0.12757427
24	0xbe683b3e	-0.22678849
25	0xbe308784	-0.17239195
26	0xbdd2710f	-0.102754705
27	0xbe081ee9	-0.13293041
28	0xbdc7ddb0	-0.097590804
29	0x3e66458c	0.22487468
30	0xbe19feb6	-0.15038571
31	0x3de5f1c9	0.112277575
32	0xbd0078fb	-0.031365376
33	0x3f01c732	0.5069457
34	0x3e280718	0.16408956
35	0x3d00612e	0.031342678
36	0x3e00d1d0	0.12580037
37	0xbeca5954	-0.39521277
38	0x3f0985f5	0.5372003
39	0x3e921e05	0.28538528
40	0x3f334074	0.7002022
41	0x3f0d25c2	0.5513574
42	0x3a15f889	0.00057209336
43	0x3dbf9bb1	0.09355868
44	0x3ea8e136	0.32984322
45	0x3dd49d1c	0.10381529
46	0x3c8b7cc8	0.017027274
47	0xbe8b1373	-0.27163276
48	0x3d8bac5e	0.06819986
49	0x3e1bbf1a	0.15209618
50	0xbd8134e8	-0.06308919
51	0xbce9fd5d	-0.028563196
52	0x3e375356	0.17902884
53	0x3e4b8844	0.198762
54	0x3ea11870	0.31463957
55	0xbe1b8407	-0.15187083
56	0xbe6e435a	-0.2326788
57	0xbd9f5deb	-0.07781585
58	0x3e6149cb	0.22000806
59	0x3d68c664	0.056829825
60	0x3e23bd95	0.15990289
61	0xbe8f31b9	-0.27967623
62	0x3e4001ce	0.18750688
63	0x3e4267d3	0.18984918
64	0xbcb2ecbb	-0.021841398
65	0x3f06eed7	0.5270819
66	0xbd1cf9b2	-0.038324066
67	0x3e1cec23	0.15324454
68	0x3d0fb531	0.035084907
69	0xbd991766	-0.07475166
70	0xbb036ad6	-0.0020052693
71	0xbe8e06a3	-0.27739438
72	0x3e0e289f	0.13882683
73	0xbda86540	-0.08222437
74	0x3e614b6c	0.22001427
75	0x3db1986c	0.0867165
76	0x3e372874	0.17886525
77	0x3b5624ac	0.0032675667
78	0x3e41f69f	0.18941735
79	0xbd275cdf	-0.040860053
80	0xbdc3495c	-0.095354766
81	0xbdfcba44	-0.12340215
82	0xbee7041c	-0.45120323
83	0x3e545663	0.20736079
84	0xbe1121c3	-0.14173035
85	0xbbc9315f	-0.0061399187
86	0x3d9f6e04	0.07784656
87	0x3de2d01d	0.11074851
88	0xbc55a32a	-0.01303939
89	0xbe001bd3	-0.12510614
90	0xbdd4940c	-0.103798
91	0xbd08e04f	-0.033417042
92	0xbe5a411c	-0.213139
93	0x3e69719c	0.22797245
94	0x3e0fca71	0.14042069
95	0x3d346e5e	0.044050567
96	0x3e1b7565	0.15181501
97	0x3eab94f3	0.33512077
98	0x3e4f3f35	0.20238955
99	0x3bc22873	0.005925232
100	0xbde76acd	-0.112996675
101	0x3e5ad5a3	0.21370558
102	0x3cf708f5	0.030155638
103	0xbc834f90	-0.01602915
104	0x3e43a4a9	0.19105782
105	0x39550471	0.00020314917
106	0xbe21f8fd	-0.15817638
107	0x3d024759	0.031806324
108	0xbf363986	-0.71181524
109	0x3a263533	0.0006340325
110	0x3dd8cdcd	0.105861284
111	0x3e6e8034	0.23291093
112	0x3e4e487a	0.20144835
113	0x3e7e1559	0.24812831
114	0x3e258488	0.16163838
115	0x3e906ee6	0.2820961
116	0xbdc7aeab	-0.09750112
117	0xbed5eb0d	-0.41780892
118	0xbdf5546b	-0.11978992
119	0x3e33e8db	0.17569296
120	0x3ed552e4	0.41664803
121	0xbe4e3030	-0.2013557
122	0xbdfc4c70	-0.12319267
123	0x3c8f5402	0.017496113
124	0xbdcd1ef0	-0.100156665
125	0xbeb0d3ba	-0.34536535
126	0x3f06eed0	0.5270815
127	0x3e83a1d3	0.257094
128	0xbe3050f3	-0.1721838
129	0xbe025f80	-0.12731743
130	0xbd769b66	-0.060206793
131	0xbe7cfd32	-0.24705961
132	0x3e42913b	0.19000714
133	0x3e2caba5	0.16862352
134	0xbeddce59	-0.43321493
135	0x3ea15e2b	0.31517157
136	0x3d919451	0.07108367
137	0xbca5d8f3	-0.020245051
138	0x3d13c33a	0.036074854
139	0x3f003139	0.5007511
140	0x3dfb8743	0.122816585
141	0x3d826de7	0.063686185
142	0xbe226a48	-0.15860856
143	0x3e31f163	0.17377238
144	0x3dc9ac51	0.0984732
145	0xbe5ac544	-0.21364313
146	0x3d35db76	0.044398747
147	0x3daec71a	0.08534069
148	0x3d364a02	0.044504173
149	0x3d494b51	0.049144093
150	0xbd591774	-0.053000882
151	0xbc8e86ce	-0.017398264
152	0xbe0b3850	-0.135957
153	0xbd6bd719	-0.05757818
154	0x3dd595ed	0.10428987
155	0xbd63e8c3	-0.0556419
156	0x3d83177d	0.064009644
157	0x3b14f374	0.0022728117
158	0x3d96e667	0.073681645
159	0x3e3ff54e	0.1874592
160	0x3e4d4f33	0.20049743
161	0xbe056b3f	-0.13029192
162	0xbcc35952	-0.023846302
163	0xbe0fdeb5	-0.140498
164	0x3d81b4d1	0.06333316
165	0x3c610b7d	0.013735649
166	0x3c9a8177	0.018860562
167	0xbcce3420	-0.02517134
168	0xbea49876	-0.32147568
169	0x3db7fbe4	0.08983591
170	0x3d80885b	0.06276008
171	0xbd6eb09e	-0.058273904
172	0x3e5e0734	0.21682435
173	0x3c0da2b3	0.008644748
174	0xbe2e2037	-0.17004476
175	0xbe8c005f	-0.27344033
176	0xbe38b32d	-0.180371
177	0x3d857c92	0.065179005
178	0x3dccc095	0.099976696
179	0x3ec5ac0e	0.3860783
180	0xbe08e324	-0.13367897
181	0x3d19f3bf	0.03758597
182	0x3d4894e4	0.04897012
183	0xbe08fd4e	-0.13377878
184	0x3ddfa0d8	0.109193504
185	0x3e17259f	0.14760445
186	0x3e431d53	0.19054155
187	0xbe5f45fd	-0.21804042
188	0xbbf0b153	-0.0073453574
189	0x3ec4d23d	0.3844165
190	0x3dcd029b	0.100102626
191	0x3e18895c	0.14896148
192	0xbdad9bf9	-0.08477015
193	0xbdc062c2	-0.093938366
194	0xbe8ea04d	-0.27856675
195	0x3de95806	0.11393742
196	0x3e2532f5	0.1613272
197	0x3cc870de	0.024467882
198	0xbd9dcd38	-0.07705158
199	0xbcd5935f	-0.026071249
200	0x3e921c6e	0.28537315
201	0x3d58e270	0.052950323
202	0xbe32249a	-0.17396775
203	0xbdc4f63c	-0.09617278
204	0x3c6daf70	0.01450716
205	0x3d975b9d	0.07390521
206	0xb9770b32	-0.00023559926
207	0xbd44ec3a	-0.048076846
208	0xbabd1cf0	-0.001442818
209	0x3deb7d97	0.11498564
210	0xbda88f02	-0.082304016
211	0x3d456736	0.048194133
212	0xbe56e0c7	-0.20984183
213	0xbdcf8570	-0.10132873
214	0xbe40cd6a	-0.18828359
215	0xbdc78688	-0.09742457
216	0x3f01f4d6	0.50764215
217	0x3d9fdb21	0.078054674
218	0xbd4c2570	-0.04984039
219	0x3dd30c33	0.10305061
220	0xbd72a94e	-0.059243493
221	0xbb3b1b3c	-0.0028550168
222	0xbd387d15	-0.045041163
223	0x3e399fc5	0.18127353
224	0xba5f69bd	-0.0008522531
225	0xbe6a322e	-0.22870705
226	0xbd0c5f3d	-0.034270514
227	0xbe36b729	-0.17843308
228	0xbe8c78c9	-0.27435902
229	0xbe0388a1	-0.12845089
230	0x3dd929bf	0.106036656
231	0x3e8f2627	0.27958795
232	0xbe44d954	-0.19223529
233	0xbe5b754f	-0.21431468
234	0xbea97ef2	-0.33104664
235	0xbdf3c7e8	-0.119033635
236	0xbd2d7af6	-0.042353593
237	0xbe4885bb	-0.19582264
238	0x3dc5f94b	0.096666895
239	0x3b2ec6fa	0.0026668892
240	0xbd3d9195	-0.046281416
241	0x3cfcb633	0.030848598
242	0x3ba4f46e	0.005034021
243	0x3cd2d676	0.025737029
244	0x3c871583	0.01648975
245	0x3e14b9ff	0.14524077
246	0x3d270f05	0.040785808
247	0xbcdc1952	-0.026867542
248	0x3e2e761d	0.17037244
249	0x3a189b3c	0.00058214716
250	0x3d19c710	0.037543356
251	0x3dcfd2b3	0.101476096
252	0xbdd5c51e	-0.10437988
253	0x3be68f47	0.007036123
254	0xbe00b13f	-0.12567614
255	0xbe09650f	-0.13417457

model.decoder.readout.mlp.0.affinity.bias f4 [64]
0	0x3d47767c	0.04869698
1	0x3e38f9c2	0.18064025
2	0xbe8112c5	-0.25209633
3	0x3e1e8264	0.15479428
4	0x3e8304a7	0.25589487
5	0x3e03056e	0.1279504
6	0x3e19685e	0.14981219
7	0xbd911c38	-0.070854604
8	0x3c1415da	0.009038413
9	0x3ddce0ce	0.107850656
10	0x3e423fa8	0.18969595
11	0x3e43708d	0.19085903
12	0x3dfee29d	0.12445567
13	0x3e45795c	0.19284576
14	0x3e5e4e76	0.21709618
15	0x3d46e6b9	0.048559878
16	0x3e08a9d0	0.13346028
17	0x3d6a4087	0.057190444
18	0xbdeb913b	-0.1150231
19	0x3d9de98b	0.077105604
20	0x3d92099d	0.0713074
21	0x3d7fefda	0.0624846
22	0x3e1c9ff0	0.15295386
23	0x3d783dd1	0.060605828
24	0xbdd7a66b	-0.105297886
25	0x3e39e243	0.18152718
26	0xbd17e3b4	-0.03708239
27	0xbe089cfc	-0.13341135
28	0xbdeb957e	-0.11503123
29	0x3d7660bf	0.060150858
30	0xbe57cc87	-0.21074115
31	0x3cc33444	0.023828633
32	0xbd0ef7f1	-0.034904424
33	0x3d8e84c6	0.06958918
34	0x3d05829a	0.032595254
35	0x3e3a9fe9	0.18225063
36	0xbd0a7b96	-0.033809267
37	0x3e397eeb	0.18114822
38	0x3e296a69	0.16544499
39	0xbe03dba4	-0.12876755
40	0x3e49645b	0.19667189
41	0xbb580caa	-0.0032966533
42	0x3e49f99e	0.19724128
43	0x3bd33fa0	0.0064467937
44	0x3e1f6e75	0.1556948
45	0x3d1c8d1a	0.038220502
46	0x3e7413ea	0.23835722
47	0x3db2a897	0.08723562
48	0xbd1418df	-0.03615653
49	0xbb7f4f10	-0.0038957037
50	0xbd8bef8b	-0.068327986
51	0xbeb8b854	-0.3607813
52	0x3c19096f	0.009340628
53	0x3db9bac5	0.090688266
54	0x3beaf260	0.0071700066
55	0xbe937d86	-0.28806704
56	0x3e50fe50	0.20409513
57	0x3d56e84e	0.052467637
58	0x3d978ac9	0.07399518
59	0xbdd5d6d6	-0.10441367
60	0x3d9b9e12	0.07598509
61	0xbd59e3a1	-0.0531956
62	0x3db7fd80	0.08983898
63	0x3e350429	0.17677368
