logs/epoch=4-step=1925.ckpt (torch, 259707 bytes, 39 tensors)

model.node_embeddings.emb f4 [207, 16]
00000000: c122 23bd fa31 f3bd 064c 37be 6a05 1e3e
00000010: d899 d5be b4ff 1d3e d7ff d23c bb8f 913b
00000020: 2cb6 663e 044e d53d 7f75 4b3d 6fa1 3f3e
00000030: 88b2 34bd 3f84 6c3e 1457 b8bd 96c5 3a3d
00000040: a4eb 843c aa46 083d 68ab 0e3e 99a5 82bd
00000050: b1e1 a8bb 87a1 08be e8f3 083e 0b05 7d3e
00000060: d342 84bd 99a9 1b3d cb5d 23be 72ce 043e
00000070: 99ae ac3d ebe6 ba3c f569 7abd 71de b3be
00000080: c382 343e e5cc 95bd a488 f9bd 15e9 103e
00000090: d1f6 98be 0f24 713e 422f 4bbb 4f7f 0e3d
000000a0: 1f0c b83d d2da 8c3e 9d27 693e 21b3 1a3e
000000b0: e1fc 92be f4d8 843d 6889 78be 4533 8dbd
000000c0: 293c a7bd 20be 6ebd 62ed 9bbe d9a5 263e
000000d0: b978 713e 667a acbe 110a 9b3d bdbe 443b
000000e0: 08d4 8bbe feee 7bbe 6461 b8be c568 d53d
000000f0: 2cf2 4f3e dccf 133e c95b efbd cdb3 8dbe
00000100: bf10 0fbe cb02 b63d ea52 0c3f e255 a0be
00000110: 527e 9b3e ad0b db3e 2f98 84be fb6e d4be
00000120: 0782 37bb 9756 ccbe 21e9 e33d b3bf 8abe
00000130: 4d07 8abd 8ea0 a63e ed81 8abd cd1b c3bd
00000140: 8178 babd 4aa7 1b3e d6c2 503d 7183 e73d
00000150: 4b13 4d3e 791c 20bf 170c 2bbd 1e64 00be
00000160: f733 92be 7c66 dabd 44c6 e23d 4b35 e13c
00000170: 6b25 8fbd 34de 71be 4fa1 b1be 3e9a 573e
00000180: f06d 0c3c 452f 483d 93f1 433e 9faf 1e3e
00000190: 3de4 3fbd 8df3 5c3d 9653 273e 2c33 acbe
000001a0: accf d0bd c086 27be 54ec 4bbd a7e8 b1bd
000001b0: 66e7 493e d7d7 2c3d c710 2b3c 0ae0 edbc
000001c0: 6855 283e 04e4 843c 90e6 473e 11b2 a03d
000001d0: 7684 4c3e fd49 24be dca0 b03d 3a1f bf3d
000001e0: 7bd2 b0bd 21a8 16be 1bcc aebd 16b4 0c3e
000001f0: 4774 7f3e 73b0 38be 5e17 373e 37e7 babe
00000200: 2421 9fbd 62e7 ddbc 5811 6dbe 1f9c 83be
00000210: 7aad b63e 1acf 16be bef3 51bd 7e48 ba3e
00000220: d8a9 0fbe 8841 b1bc be15 87bd ebcc 7f3e
00000230: bf38 623e c9a4 d53d d0b2 963e 861f debd
00000240: 1ccd 893e 2332 03be a711 8cbe c833 9d3d
00000250: 7095 77be d4b8 a83e 0548 e93e a200 15be
00000260: fff8 ae3d 003f f83d 3507 0abd f88d 603e
00000270: a96d 20be 1f75 593e f5af cbbd 9f8a 943e
00000280: 0e48 42be 3a85 773d 56d9 5dbd cbbf 5abd
00000290: 86d0 a53e ad8e cabe 251a 123e 7ecd 2c3e
000002a0: d8b7 9fbe eb82 fcbc 4485 803c 27c4 42be
000002b0: fde0 d5bc 5475 afbe d782 39be 10d7 a33d
000002c0: e866 ff3d 0532 b53d 1816 15be 1f28 b3bd
000002d0: 7aeb 31be 2aee 86bd a79b f6bd 1890 bc3d
000002e0: f596 aabd 2a78 cd3c 6afc 23be f997 883d
000002f0: e67e 96bd c1ae 74be 20b4 03be b2b9 efbe
00000300: ca39 72bd 04a6 cebd b46f e23d 2eca c6bd
00000310: 069e 473d de07 cd3e 1674 a83d edd9 fcbe
00000320: 5bbe 8e3e dfec 7dbd bb2d 1dbe 025f abbc
00000330: 2068 9fbe 3dcc 3c3e 3abd a2bd 0087 973e
00000340: d72f 613e 74c0 943e 28a0 583c bf2a d73d
00000350: 1bd7 283e f9e3 a9be df39 a0bd e3b1 c53e
00000360: a69a 78be bdb7 953e 8047 77bc 7135 e3bd
00000370: 9c63 0c3e 66b9 833d 40d8 bcbe 6844 2cbe
00000380: 80a1 1cbd 5478 c7be 0b01 e6be cb2b 5f3d
00000390: fbb8 7fbe 170d f53d 6daf 033f 512b 89bc
000003a0: cb86 4d3e 177a 913d 0257 88be 3471 44be
000003b0: e39c 6abe 9765 46bd 5a62 ae3d c1d1 c0bd
000003c0: bfb3 e43d 5766 c03e 9d66 ff3e 3b2c 0d3e
000003d0: 5226 033f fdc4 e13e adfe 4cbd 4fcd d1be
000003e0: 076d b1bd 3640 debd b401 543d 7eee 73be
000003f0: a93a a9bc 42a9 923e bb21 07be 862d 563e
-0.039828066 -0.11874767 -0.17900094 0.15431753 -0.41718936 0.15429574 0.02575676 0.004442183
0.2253043 0.10415271 0.0496726 0.18713926 -0.044115573 0.23097323 -0.09000984 0.04559859
0.016225643 0.033270516 0.13932574 -0.063792415 -0.0051538576 -0.13342868 0.13374293 0.24708955
-0.06458058 0.038003538 -0.15953748 0.12969378 0.08431739 0.022815188 -0.061136205 -0.35130647
0.17628007 -0.07314471 -0.12184265 0.14151414 -0.29875806 0.23548912 -0.003100351 0.03478938
0.08986687 0.27510697 0.22769018 0.15107395 -0.28708556 0.06486693 -0.24271166 -0.068945445
-0.081657715 -0.058286786 -0.30454546 0.16274203 0.23581208 -0.33687133 0.075702794 0.0030020915
-0.27310205 -0.24602887 -0.36011803 0.10420374 0.20307225 0.14434761 -0.116874285 -0.2767624
-0.13971232 0.088872515 0.54814017 -0.31315523 0.30369812 0.42782345 -0.25897357 -0.4149092
-0.0028001086 -0.39909813 0.1112845 -0.2709938 -0.06739674 0.32544369 -0.067630626 -0.09526787
-0.091050155 0.15200534 0.05096706 0.11304367 0.20026891 -0.62543446 -0.041759577 -0.12538192
-0.2855527 -0.106640786 0.110729724 0.027491232 -0.06989559 -0.2361992 -0.3469338 0.21054932
0.008571133 0.048873205 0.19135122 0.15496682 -0.046848524 0.053943206 0.16340479 -0.3363279
-0.1019586 -0.16359997 -0.049785927 -0.08686953 0.19717178 0.04219803 0.010441012 -0.029037494
0.1643883 0.016222008 0.19521546 0.078464635 0.19972405 -0.1604385 0.086244315 0.09332128
-0.08633896 -0.14712574 -0.08535024 0.13740572 0.249467 -0.1803606 0.17880008 -0.36504528
-0.07769993 -0.027087871 -0.23151147 -0.25705048 0.35679227 -0.1472744 -0.05125784 0.36383432
-0.14029634 -0.021637693 -0.06595944 0.24980514 0.2209196 0.10431821 0.29433298 -0.10845856
0.269143 -0.12812094 -0.27357218 0.07675892 -0.241781 0.32953513 0.4556276 -0.14551023
0.08543586 0.12121391 -0.03369828 0.21929157 -0.15666832 0.21236084 -0.099456705 0.2901201
-0.18972799 0.06042979 -0.054162346 -0.053405564 0.32385653 -0.39561978 0.14267786 0.16875264
-0.3119495 -0.030824145 0.015688546 -0.19020139 -0.02610826 -0.34269202 -0.18116318 0.08000004
0.124708 0.08847431 -0.1455921 -0.08747887 -0.17374983 -0.06588395 -0.12041407 0.09207171
-0.08329574 0.025081713 -0.16014257 0.066696115 -0.07348423 -0.23894788 -0.12861681 -0.46821362
-0.059137143 -0.10090259 0.11056462 -0.097065315 0.048734687 0.40045065 0.08225267 -0.49385014
0.27879605 -0.061993476 -0.15349476 -0.020919327 -0.3113413 0.18437286 -0.07946248 0.29595184
0.21990906 0.2905308 0.013221778 0.105062 0.16488306 -0.33181742 -0.07823538 0.3861228
-0.24277744 0.29241744 -0.0150927305 -0.110941775 0.13709873 0.06431846 -0.36883736 -0.1682297
-0.038239956 -0.3895899 -0.4492267 0.054485124 -0.24972908 0.11965387 0.51439553 -0.016744288
0.2007095 0.07103365 -0.26628882 -0.19183809 -0.2291141 -0.048436727 0.08514853 -0.094150074
0.11167096 0.3757808 0.49882975 0.13786404 0.5123035 0.44095603 -0.050047565 -0.4097695
-0.086633734 -0.10852091 0.051759437 -0.23821446 -0.020657854 0.28644758 -0.13196461 0.20915803

model.encoder.weight f4 [32, 17]
00000000: af72 723e ad84 9fbd b34c 53be be1d 63be
00000010: 1d1c 2abd 408d b8bd f500 0c3d 00e3 863e
00000020: 4d82 83be 6bd0 883e 7262 82bd 5c33 a7be
00000030: 81f9 49be d007 f6bd 0269 93bd 0df9 f43d
00000040: 0fe6 ac3d 39b3 45bc 4727 e83e ab57 c3ba
00000050: f93e 5d3d 4d96 0abe 990d 01bf ea57 103e
00000060: 2fce c93b fd97 cf3b c58f 073e 66bc 013f
00000070: 4f84 ec3d 2689 093f 1ec3 1a3e 5066 693e
00000080: a45b cbbd 7afb 383d 3225 44be 3dd1 c13d
00000090: d81c 813d 707f 8a3d 3db1 6f3d 9cb2 243e
000000a0: 4dc9 0f3d 4b3c b4bd 7cea d0bc bdc5 d33d
000000b0: 5854 373e 90f5 a7bd f5e5 74bd 11da 0d3e
000000c0: 6e10 1d3e be49 78bd e445 38be 10f6 8d3e
000000d0: bd2b 9bbd 7373 043e d89d 35be 94b8 fd3c
000000e0: 7d9b 2abe 2778 64bd 8990 6c3e 7e8a 46be
000000f0: 1814 1cbd c36c 673e da6c 05be 451e 663e
00000100: 2bf6 57be e4e8 24be 6847 193e 66ec 10be
00000110: fe28 70be 94d8 d33c 45c7 e7bd 01e8 503e
00000120: 92d7 abbd d513 d8bc 4a8d 59be 1ca1 323d
00000130: 51a7 75be f6f4 343e aaf8 0d3e e7a2 6ebe
00000140: 5efb 05bd e938 13be 04b3 4d3e 399e 28be
00000150: 1a8a 3cbe daf8 81bc f864 7bbc 0ec8 2a3d
00000160: 7723 acbc b2d7 73bd 61a6 b93d 6cdd 47be
00000170: 504c bcbe 13a5 aebd c166 743d c48b 97be
00000180: ad5f 683e 2ec9 f5bd 1ffa c23e bf68 71be
00000190: 0b18 263e 1b09 553c 6094 1dbe 9b6e bdbe
000001a0: 44b8 ad3e eded 3d3f a240 a53d 1677 a33e
000001b0: b898 c2bd 3dba 04bf 14d0 50be 166c e7be
000001c0: 876e adbe 9933 0c3e a53a 9fbe 0e43 5c3e
000001d0: 338c 0e3f 0fe7 ea3e 69f2 d6bd c321 13be
000001e0: fbf7 f63d 349d 14be c4fc 5d3e 4730 703d
000001f0: 7504 253d 7dfd 0a3e efc4 783d fc51 81be
00000200: b8ed 12be 658d ecbd e3f2 b8bc 691c 8abe
00000210: bd76 2d3e cfd7 21bd 4a1e 8b3e d067 04be
00000220: 27a3 3b3e 9e5e 87be e1a0 6abe 9d59 45bd
00000230: 3395 babd 1638 113e c218 13be ecf7 073d
00000240: ffa9 023e c961 6fbe d029 b93d 9dec d73c
00000250: b505 843b a5b0 66be e5b6 86be 7f4e adbd
00000260: c7a2 f3bd f139 953e 2fee 67be f915 79be
00000270: 7196 a0bc ce66 a03d 41b5 c83d f9a9 8f3d
00000280: 264b 673d d53d 8ebd 8a96 703e 0a66 2cbe
00000290: f169 2d3e 1045 e33d 22e7 0e3e a59f d8bd
000002a0: 27d6 4b3e dc6b f33d 7694 f3bc c9f5 94be
000002b0: b2f6 973e 1e33 f63d efe3 b4bd 11e9 323e
000002c0: 7a9a 84bd f346 44bf bf98 673e ab9a eabe
000002d0: 0f20 41be a0fa 623e f849 fbbe 97ef 1d3f
000002e0: 0ed9 94be 3a97 91bc 00b0 0abe 4d2e 63be
000002f0: 5a7b 5d3e 529b 853e 7e88 153d 2ea0 2ebe
00000300: 2e75 80be 46b0 aa3d a12d 53be 6dbf 093e
00000310: 920b cbbd c9f0 443c 4c83 d03c 33c6 54be
00000320: 7d40 b0bd b625 27be a33d 72be c073 41be
00000330: cd58 69be 6bfd 8f3c 4c28 013e 12e3 3ebe
00000340: 6048 5cbe bfba 3e3e 0a26 ea3d 428d 2d3e
00000350: 4a32 06be 1535 2e3e f095 60be 0554 9bbe
00000360: fe75 463e 03a4 ecbd 5cc1 2cbe 533f 2b3d
00000370: 1dcf e73d 1729 8a3e bcba b03d fde5 1abe
00000380: 1a16 2abe aaf2 da3d e589 71be 7858 84be
00000390: 15d8 05be d527 a93e e3d3 513e 195d 663d
000003a0: 11b7 713c f085 563d 785e 313d bafb cdbe
000003b0: 1335 8cbd f57e dc3c 3047 32bd e22f 51bc
000003c0: bfcc 55bd 7fe9 243d e144 2dbd 7e55 92be
000003d0: 9a35 3f3c 759e e53e 058b 87be c70b c2bd
000003e0: ddf1 8e3d 8c34 a1be 75e9 8b3e a877 8fbe
000003f0: d402 d13d ff8a 63be 7d3f 42be 277e 12be
0.23676561 -0.07788978 -0.20634727 -0.22179314 -0.041530717 -0.09011316 0.0341806 0.26345062
-0.2568535 0.2672151 -0.06366433 -0.32656372 -0.19724084 -0.12013209 -0.07197763 0.11961565
0.08442318 -0.012066656 0.45342466 -0.0014903446 0.054015134 -0.13533898 -0.50411373 0.14096037
0.006158612 0.006335257 0.13238437 0.506781 0.11548673 0.53724897 0.15113494 0.22792935
-0.099295884 0.0451617 -0.19154814 0.09463737 0.0630433 0.06762588 0.058518637 0.16083759
0.035104085 -0.088005625 -0.025502436 0.1034045 0.17903268 -0.08201134 -0.059789617 0.13852717
0.15338299 -0.0606172 -0.17995411 0.27726793 -0.07576702 0.12934665 -0.17735994 0.030971803
-0.16660877 -0.05577865 0.23102011 -0.19388768 -0.0381051 0.22600083 -0.13029805 0.22472484
-0.2109 -0.16104466 0.14968646 -0.14152679 -0.23453137 0.025860108 -0.113173045 0.20401002
-0.08390726 -0.026376644 -0.21245304 0.043610677 -0.23989607 0.1767157 0.13864389 -0.2330433
-0.032710426 -0.14377178 0.2008782 -0.16466607 -0.18412057 -0.015865732 -0.015343897 0.041694693
-0.021013005 -0.059531875 0.090649374 -0.1951806 -0.36776972 -0.08527579 0.059668306 -0.2959882
0.22692747 -0.120012626 0.38081452 -0.23575114 0.16220109 0.013002659 -0.15388632 -0.36998448
0.33929646 0.7419117 0.08068968 0.31926793 -0.09501785 -0.5184668 -0.20391876 -0.4519965
-0.33873388 0.13691558 -0.3109943 0.21509954 0.5568268 0.4587941 -0.10495455 -0.14368348
0.12059017 -0.14513093 0.21678454 0.05863979 0.040287454 0.1357326 0.060734686 -0.25257862
-0.14348495 -0.11550406 -0.022576755 -0.269748 0.16939826 -0.03951245 0.27171546 -0.12930226
0.18323956 -0.26439375 -0.22912933 -0.048181165 -0.09110489 0.14181551 -0.14364913 0.03319542
0.12760161 -0.23377146 0.09041178 0.026357943 0.0040290006 -0.22528322 -0.26311412 -0.084622376
-0.11896282 0.29145768 -0.22649454 -0.24324788 -0.019602986 0.078321084 0.098001964 0.070148416
0.05646815 -0.06945387 0.23494926 -0.168358 0.16934945 0.11097157 0.13955358 -0.10577325
0.19905911 0.11885807 -0.029733878 -0.2909377 0.296804 0.120214686 -0.088325374 0.1747172
-0.064747766 -0.7667076 0.22616862 -0.45821127 -0.18859886 0.22165918 -0.4907987 0.6169371
-0.2907185 -0.017772306 -0.13543701 -0.22185631 0.21629086 0.26095062 0.036507122 -0.17053291
-0.250894 0.08334403 -0.20622875 0.1345193 -0.09914316 0.012020298 0.025453232 -0.20778732
-0.0860605 -0.1632298 -0.23656325 -0.18891811 -0.22787781 0.017576894 0.12613028 -0.18641308
-0.21511984 0.18625925 0.114330366 0.16948417 -0.13105121 0.17012437 -0.21932197 -0.3033754
0.19380948 -0.1155472 -0.16870636 0.041808438 0.113188006 0.26984474 0.08629367 -0.15126796
-0.16609994 0.10690816 -0.23587759 -0.25848746 -0.1307071 0.33038202 0.20490985 0.05624113
0.014753119 0.052373827 0.043302983 -0.40231115 -0.068460606 0.026916007 -0.04352492 -0.012767764
-0.052197214 0.04026174 -0.042302016 -0.2858085 0.011670494 0.44847456 -0.2647325 -0.094749026
0.069797255 -0.31485403 0.2732655 -0.28020978 0.102056175 -0.22220992 -0.18969531 -0.14305936

model.encoder.bias f4 [32]
00000000: db84 df3a 0f25 953d e42c cabd 8475 0d3d
00000010: 7aa7 c0bd 3665 d4bd d03e 05be 0a16 ed3c
00000020: e8d0 f3bc 60ed ca3b 8dcd 2abd c986 56be
00000030: 72bc 3dbe 9d5d 86be edfd bc3d 303b 03bc
00000040: 5484 d1bc e1ac 213e 16ae f13d 6db6 fbbd
00000050: 68af c33d 60ff 153d 6768 453e 4437 b4bd
00000060: c4fb 7a3d 2a06 ac3d 9626 e8bd 4e0b 063d
00000070: 971d 203d c728 76bc 67e2 cbbd d4a6 26bd
0.0017053144 0.07282459 -0.098718435 0.0345359 -0.094069436 -0.10370867 -0.13012242 0.028941173
-0.0297627 0.006192848 -0.041699935 -0.20949854 -0.18528917 -0.26243296 0.0922812 -0.008009717
-0.025575794 0.15788604 0.118007824 -0.12290654 0.095549405 0.036620498 0.19278108 -0.087996036
0.06127526 0.08399613 -0.11335485 0.032725625 0.03909072 -0.0150243705 -0.09955292 -0.040686443

model.time_nn.rnn.weight_ih_l0 f4 [96, 32]
00000000: 51a1 dbbc 4fb7 2e3e 5fcc 1b3e 9bc6 42be
00000010: bdf6 183e ae0f e8bc 0fb7 563c 8333 393e
00000020: e6ff b93d 494e 81bd c176 c13c c915 2b3e
00000030: fe8f c8bd b774 38bd 29d7 0c3d ca1e 493d
00000040: c249 57bd 44d0 9cba 27a7 4c3c 1114 bbbd
00000050: a76c 7cbd ad36 c8bd d2b3 7dbc ef85 733d
00000060: b24c 223d 9974 d73d 7138 81bd 8437 2b3e
00000070: a635 2bbd f1d2 b83d a8ff 873d 2b77 c8bd
00000080: 2326 243e bae4 743e 9752 1fbe 2d2c 743e
00000090: b85f 77be 3aa6 9bbd 3fef 10be 8ebd 1cbe
000000a0: 5790 3a3c 304e be3e 306e 45be 197b b23c
000000b0: 65ce 8abe f872 cabd 3b9c b7bc 59e3 05bf
000000c0: 9ba6 213d 1348 433d bb34 a13e 1064 273e
000000d0: 738b 623e 6c8d a3be d287 523c fdf0 85be
000000e0: ac9e 8ebe 8ff7 503e 0ec1 513c ec07 23be
000000f0: 3d92 77be 2f21 32be 3025 b7bd 2f2d 21bd
00000100: 72dc a0bd 5ded 473e 2731 8a3d b815 2f3e
00000110: 50d5 443e 8a51 f03b 98b4 7ebd a7d6 f73d
00000120: f1ed 6ebd a83e d23d 944c e6bd 6cba 3b3e
00000130: bb6b 03bd 2616 5b3c f29f 023e 8ada b53d
00000140: cd18 bd3d 39b3 673d 9065 5cbe c6cf dc3d
00000150: 5caa 5f3e 2563 ccbd 4fc6 2b3e 8c7c 983d
00000160: c10f 1a3e 0382 c1bd 1120 f23d f301 c83d
00000170: a891 78bd 07e2 d9bd 4c4d bdbc 2940 803d
00000180: 74ad 5f3e b070 82bd b4e1 41be b14d e93c
00000190: e074 c43d ae46 953d d14e 2e3d e4a7 83bd
000001a0: a622 883e aa6f d7bc 5784 853c 8fb0 1abe
000001b0: 4d94 03bd c2ec 503e c97e 5dbd 962b 20bd
000001c0: 50ef 773d 84f2 233e ee71 1a3e 6a27 6e3e
000001d0: 5c8e ab3d 6381 a6be 411c d43d 3974 a5bd
000001e0: 30cc 9fbe 8bf4 033e 9d7e babc 1b42 a2be
000001f0: d882 093d f01a 33be 77e3 fe3d e86b 08be
00000200: 1f49 173e 856c 1d3e 1638 e33d 911d 72bd
00000210: 4c0e eebd c98c 37be cfef 65be f247 b13c
00000220: 59ab 15be 5260 113c 2e9b e4be 5d94 d4bd
00000230: 7458 60be 915e 96bd 3880 6a3e a9a8 613e
00000240: f889 33bd 7aea 0a3e c082 d6bd 2b12 a9be
00000250: 11b1 e03d 2a5b 31bd 6cb2 15bd 2899 afbc
00000260: 1113 a8bc 68de edbd 5581 903d e90f 40be
00000270: f0fa 82be 62b1 e7bd a7fb 1d3d e03b 89bd
00000280: fba3 3bbd e91f 333d 52c9 db39 1f5c 463e
00000290: e866 fe3d 265d 873c e1bd 17be c22a fcbd
000002a0: a2b3 89bd 7fd3 073e 66a9 f0bd b207 a33d
000002b0: bf1c 4f3d edb2 ba3d 2c1f be3d b9b1 203e
000002c0: 7c31 f53d da37 19bc 6013 c8bd 6c22 493e
000002d0: b3bb 91be 8a75 4bbd 812c 9bbc 6730 e03d
000002e0: 33ae 4dbe 22fc 0f3e 1fcd 83bc 94ff a6bb
000002f0: 4b3b 46bd 64ed 2cbe 6a69 fbbd 69db 0a3d
00000300: ba7c d13a 4172 36be 8904 983d 5f24 2dbd
00000310: a5b1 9f3d bc3b 693c 132b 0cbe 5ca0 9c3d
00000320: 6145 893d 0f6c 973d e7b8 afbc bcff 34be
00000330: 2a02 0cbd d030 04be fc7f 073e f5e9 f4bd
00000340: 337b 983d 135e 3e3e 270f 753e 2dd9 eb3d
00000350: 4efa 1cbe 80ef 4bbe b2b0 5abd f8c6 21be
00000360: e6af 87be 5c17 f63d e997 463c c9e4 8dbd
00000370: 37c3 a3bd 7b5f f83d d991 0b3e e4bb d83d
00000380: 9837 d1be 426b 613e 03f3 8ebb c0f2 503c
00000390: 0a59 9c3d 6a4c 76bc af6c 01be 7a23 9cbc
000003a0: 3cc6 86be e329 debd b86f a23d 069a 433e
000003b0: 8933 01be 7c8d ecbd 9ba5 79bd accb 283e
000003c0: 7224 7cbe 6864 b23d 8057 62be 14e6 b7bd
000003d0: 38b8 bdbb 4dca 653e 2ff1 963d ceb5 563e
000003e0: 69e4 713e 7764 8abd dd51 5bbe 9c24 133e
000003f0: aba4 6abc 82b0 eebc eeca e5bd 6355 183e
-0.02681032 0.17062114 0.1521468 -0.19021074 0.14937873 -0.02832779 0.013105168 0.18086056
0.09082012 -0.0631376 0.023616197 0.16707529 -0.09793089 -0.045033183 0.03438488 0.04910163
-0.052560575 -0.0011963923 0.012491024 -0.09134687 -0.061627056 -0.097760536 -0.015484767 0.0594539
0.039623924 0.10520286 -0.063095935 0.16720396 -0.04179921 0.09024609 0.066405594 -0.097883545
0.16030173 0.23915377 -0.1555885 0.23844977 -0.24157608 -0.076000646 -0.14153765 -0.15306684
0.011386952 0.37169027 -0.19280314 0.021787213 -0.27110592 -0.0988521 -0.022413364 -0.5230003
0.039465528 0.047676157 0.31485543 0.16346765 0.22123508 -0.31943834 0.012849765 -0.26160422
-0.27855432 0.20406936 0.0128023755 -0.1592099 -0.24176879 -0.17395471 -0.0894264 -0.03934973
-0.078545466 0.1952414 0.06747656 0.17098129 0.19221997 0.007333939 -0.062183946 0.121014886
-0.058332387 0.10265857 -0.11245075 0.18332833 -0.03208516 0.01337198 0.12756327 0.08879574
0.09233246 0.056567404 -0.21523118 0.10781817 0.2184233 -0.09979848 0.16774867 0.074456304
0.15045072 -0.09448626 0.118225224 0.09765997 -0.060685784 -0.106388144 -0.023108147 0.062622376
0.21843511 -0.0636915 -0.18933755 0.028479429 0.09592605 0.07288872 0.042555634 -0.06428507
0.26588935 -0.026298363 0.016298456 -0.15106414 -0.032123853 0.20402816 -0.05407599 -0.039104067
0.06053096 0.16010481 0.15082523 0.23257223 0.08376762 -0.3252059 0.103569515 -0.08078808
-0.3121047 0.12886254 -0.022765452 -0.3169106 0.033572048 -0.17490745 0.12445729 -0.13322413
0.14773987 0.15373428 0.11094682 -0.059110228 -0.11623821 -0.17924799 -0.22454761 0.021640752
-0.14616145 0.008873062 -0.44649643 -0.103798606 -0.21908742 -0.07342256 0.22900474 0.22036995
-0.04383275 0.13566008 -0.10474157 -0.33021674 0.10971273 -0.04329983 -0.03654711 -0.021435335
-0.020516904 -0.11614686 0.07055918 -0.18756069 -0.25582075 -0.1131313 0.038570073 -0.067008734
-0.04581068 0.043731604 0.0004192093 0.19371079 0.124219716 0.016523909 -0.14818527 -0.12312843
-0.06723715 0.13264273 -0.1175106 0.07960452 0.050564524 0.09116159 0.09283289 0.15692796
0.11972329 -0.009351695 -0.097693205 0.19642037 -0.28463516 -0.04967264 -0.01894212 0.10946732
-0.20085983 0.14061025 -0.01608902 -0.0050963853 -0.04839639 -0.16887432 -0.122759655 0.033900652
0.0015982606 -0.17817022 0.0742274 -0.042271014 0.07797555 0.014235433 -0.13688307 0.076477736
0.06702686 0.073936574 -0.021450473 -0.1767568 -0.03418175 -0.12909245 0.13232416 -0.11958686
0.074453734 0.18590574 0.23931561 0.11516032 -0.15329859 -0.19915581 -0.053391166 -0.15798557
-0.26501387 0.12016174 0.012121179 -0.06928403 -0.07996219 0.121275865 0.13629855 0.10582712
-0.40862727 0.22013572 -0.0043624653 0.012753189 0.0763417 -0.015032867 -0.12639116 -0.019059885
-0.26323116 -0.10847833 0.07931465 0.19101724 -0.12617315 -0.115504235 -0.06094895 0.16483945
-0.24623278 0.08710557 -0.22103691 -0.08979431 -0.005789783 0.22440453 0.07370221 0.2096779
0.23622288 -0.067574434 -0.21417947 0.14369434 -0.014321486 -0.0291369 -0.112203464 0.14876322

model.time_nn.rnn.weight_hh_l0 f4 [96, 32]
00000000: cfe2 d6bd cb70 18bd 139d 8d3d 9d5f be3d
00000010: a0a3 bcbd b33b 463e a694 5c3d 79d2 073e
00000020: c114 a03d bcd5 0dbe e4e1 2bbd 4234 113e
00000030: 46fd 96bd 44d4 6d3b 69d6 f23d 4c21 793d
00000040: de86 ee3c 820e 4abd 1580 edbd e66d 173e
00000050: b2db 67be 3560 bd3d 3526 52be c345 80bd
00000060: 603a c8bd a2b8 c23d 0033 e63d 3d1f 0a3d
00000070: 9a72 95bd 0c30 563d 40a3 0b3c 128e ba3c
00000080: dfe0 033e 4d24 1dbe 4ef4 b83b fb9a 6f3d
00000090: 89d4 62bd 4ebf 26be e232 7d3d b7fe c5be
000000a0: 0d4e 9abe 078a 593e a894 09be 1d4d 293d
000000b0: 8a9a 58bd 1aa5 293c 766e c2bd 3db9 9abe
000000c0: bf76 a43e 608b 43bd 91e4 2bbd 5f86 60be
000000d0: d11c 41bd dc68 3a3e c2f3 1bbd eed3 1cbe
000000e0: f621 33bd b537 0f3e d343 92be e9cf 81bd
000000f0: 6885 e73d 486a 943e 011d a6be 65d8 bfbb
00000100: f266 a8bc d22f 653e 55bd f3bd f9cf 453d
00000110: 4d95 c33c 92fe 6abc 41e0 4dbd ad7a 85bd
00000120: f9f3 a63d 6108 48be 9b9e 993d 399e 363e
00000130: 9218 e6bd b46f 7a3e 5c11 02be e63c 843e
00000140: 3ef6 c6bd 904e fb3d bf37 1c3e 5f54 fb3a
00000150: 4c32 86bd b73b a3bd 9352 dbbd 1f41 a4bd
00000160: 570a 80bc 7481 2c3e 1dcc a5bd 3dad a4bd
00000170: f9a0 bfbd 84c0 40be 6cf1 1fbe 6556 52be
00000180: 027f 92bd 7276 f4bd 3001 edbd d263 1dbe
00000190: 1d74 d9bd bd3b 54be 00c4 69b9 8e2f 3fbe
000001a0: fed5 28be bb12 a03e a0fa eabc c479 9cbd
000001b0: d25f 233e 1ae4 bb3b 9b13 6fbe 0b43 a23c
000001c0: fd6b 57bc c908 fdbc f34f 4bbe a23c 59be
000001d0: cce5 253e d25e 153d f85f 913e f5f8 8cbd
000001e0: 683a 903e 435a 833d 5f5c 2dbd bd9e 45be
000001f0: b849 493e 2cea 2b3e 3262 21be 8d2c 033e
00000200: 72d5 823e 65fb b63d d1f7 513c 35fb 713d
00000210: 354a 25be fd5b ca3b 813a 80bd b2a5 243e
00000220: f1a4 d1bc bec0 29bc 65bb 713d 8890 0cbe
00000230: bc47 d3bb fe53 1fbe eaa2 0c3b 33f2 3b3d
00000240: 8715 183e 43b2 003e b6bd bf3d 5b2e e9bd
00000250: d215 813d 8ea1 aebd 69be 933d b5cd 58be
00000260: 78c6 78bb b9be 773d 0219 89bc d747 45bd
00000270: 20ca 0fbe 7729 db38 db96 a9bd 5ae2 0c3d
00000280: 4f12 d8bd 1d2e 203e 6edc 84bd 011f d23d
00000290: 6009 aebd b4c1 193e a557 cf3d 2b8a 9bbc
000002a0: ae43 813c 239b ae3d 0ddf 42be 6e5f cd3d
000002b0: 474e 9f3d 67c3 803d 5275 09bd b74c 353e
000002c0: c17f 893d 2b5a 9fbd 0a20 b73d 2e5d f03d
000002d0: e21f fcbc 4657 4b3d 9ef4 1d3e 11fd 9f3d
000002e0: ffe6 883e 2545 60bd 679b 22bd 4fd8 1c3e
000002f0: f1e4 0bbd d619 b33c acfe db3c 68e8 153e
00000300: c408 8d3d cb66 3bbe 1ba7 c0bd a90f d9bd
00000310: 6a1b 8d3d 90d4 23be d4ea 85bd 3fa4 dabd
00000320: 5e38 87ba 1e14 f1bc 05d7 28be 1e15 15be
00000330: 06cc c93c fb46 e63d 7607 80bd f8bd 74be
00000340: 3bca 9d3d a17c 04be 94e2 c7bd b7ec 963d
00000350: df12 3c3c fd1d b7bb 621a 6bbd 46f0 2b3d
00000360: d35d 2a3e 634c 0b3e fd84 adbd d941 59be
00000370: 651d 9f3d 8a31 213e 350e 4ebe 07d6 503d
00000380: c00d 0b3e fe76 97bc 5398 b23c f47a 35be
00000390: a6bc 9f3c f182 653e 5361 17be b785 0a3c
000003a0: e4e1 1c3e 6623 34be bd76 a2bb 6117 27bd
000003b0: 835b 2b3e 0d97 7f3d abf3 313e c404 033e
000003c0: 907e 2bbe 51fa 0bbe 8a34 363e c5c0 d83d
000003d0: 7804 29be a661 84bd e491 6b3d 21be 8fbd
000003e0: 681f 0dbf 9560 003d c607 bc3d e417 953e
000003f0: b5c4 29bc 64dd 563d 311a 263d fdc8 57bc
-0.10492479 -0.037216943 0.06914725 0.092955805 -0.092108965 0.19358711 0.0538527 0.13263883
0.078164585 -0.13851064 -0.041963473 0.14180091 -0.07372527 0.003628985 0.11857302 0.06082277
0.029117044 -0.049330242 -0.11596695 0.14788017 -0.22642401 0.09246866 -0.20522387 -0.06263306
-0.09776759 0.09507872 0.11240196 0.033721197 -0.07297249 0.052291915 0.008522809 0.022772823
0.1287875 -0.15345879 0.0056443578 0.05849741 -0.05537847 -0.16283914 0.061816104 -0.38670895
-0.30137673 0.2124406 -0.13435614 0.041333307 -0.052881755 0.010354305 -0.09493725 -0.3021945
0.32121846 -0.04774034 -0.041966025 -0.21926259 -0.047146622 0.18204063 -0.038074262 -0.1531522
-0.04373356 0.13986094 -0.2856737 -0.06338484 0.11304742 0.28987336 -0.32444003 -0.0058546537
-0.0205569 0.22381523 -0.119013466 0.04829404 0.023874903 -0.014342921 -0.050262693 -0.06517539
0.08152003 -0.19534446 0.07500955 0.17833795 -0.11235155 0.24456674 -0.12701935 0.25827712
-0.09714936 0.12270844 0.1525564 0.0019174925 -0.06552562 -0.07970374 -0.10709109 -0.08020233
-0.01562993 0.16846257 -0.08095572 -0.08040855 -0.09356875 -0.18823439 -0.15619439 -0.2054077
-0.07153131 -0.11936654 -0.11572492 -0.1537011 -0.1061785 -0.20725913 -0.00022293627 -0.18670484
-0.16487882 0.3126429 -0.02868396 -0.076404124 0.15954521 0.005733979 -0.23347323 0.01980736
-0.013148305 -0.030887978 -0.19854717 -0.21214536 0.16200942 0.03646738 0.2839353 -0.06883422
0.2816956 0.064137004 -0.04232442 -0.19298835 0.19657028 0.16788548 -0.15760115 0.12809964
0.2555347 0.089346685 0.012815432 0.05907746 -0.16141589 0.0061755166 -0.06261159 0.16078833
-0.025591346 -0.010360895 0.059016604 -0.1372701 -0.0064477604 -0.15559384 0.002145941 0.045885276
0.14851962 0.12568001 0.09362356 -0.11385795 0.0630299 -0.08526908 0.07214052 -0.21172221
-0.0037960093 0.06048462 -0.016735557 -0.048164215 -0.14041948 0.00010450457 -0.082807265 0.034395553
-0.10550367 0.15642591 -0.06487356 0.1025982 -0.08497882 0.15015298 0.10124139 -0.018986782
0.015779343 0.08525684 -0.190304 0.100279674 0.07778602 0.0628727 -0.03355915 0.17705046
0.0671382 -0.0778087 0.08941658 0.117365226 -0.030776922 0.049643777 0.15425345 0.078119405
0.26738736 -0.05475344 -0.039698984 0.1531689 -0.034153882 0.021862905 0.026854835 0.14639437
0.068864375 -0.18300931 -0.09406873 -0.1059869 0.068899944 -0.15999055 -0.065389305 -0.10675859
-0.0010316481 -0.029428538 -0.16488273 -0.14558837 0.024633419 0.11244007 -0.06251423 -0.23900592
0.07704588 -0.12938167 -0.09760013 0.073693685 0.011479109 -0.0055882917 -0.057398207 0.04197719
0.16637354 0.13603358 -0.08472631 -0.21216525 0.077692784 0.15741554 -0.20122607 0.050985362
0.13579464 -0.018489357 0.02180115 -0.17722684 0.019499134 0.22413231 -0.1478322 0.008454732
0.15320545 -0.17591628 -0.0049580024 -0.04079378 0.16734128 0.062399913 0.17378108 0.12794787
-0.16747499 -0.13669707 0.1779348 0.10583643 -0.16505611 -0.064639375 0.05751218 -0.07018686
-0.5512605 0.031342108 0.0918117 0.2911979 -0.01036184 0.05245723 0.04055232 -0.013170478

model.time_nn.rnn.bias_ih_l0 f4 [96]
00000000: 070d 0fbd 0fbf 7a3d 5a03 2f3e 7218 23be
00000010: 8f01 163e 36b6 31be 4b87 9ebd 9344 ff3d
00000020: b229 a1bd de01 bc3d e29a e7bc 954f 3dbd
00000030: 4237 783d 1792 253e e0f6 22bd 5f87 4ebd
00000040: c27d 193e 2307 833d 4311 2dbc 39ea 393e
00000050: 4845 2d39 3acd 1d3e 6f7b bebd 0560 fcbd
00000060: 3571 da3d 2db2 15be dde3 193e 2a64 ddbc
00000070: 7542 f93d 2541 b63d cddd 933d 76c0 0e3e
00000080: c327 06be 854b 2c3d 9fa9 1f3c 7e8b fd3d
00000090: b2b2 02be 3fde 07be 51df 82be da14 aa3c
000000a0: 5114 2e3e 574d 8c3b 942a 64be a27d 623e
000000b0: 0c7d af3e c6e8 833d 9f1a 0d3e 462b a0be
000000c0: 54aa 4dbe 4bc8 9e3e 82fe 953e 7268 55bd
000000d0: d9a8 85bd 50e5 cc3e 0896 72bd fee3 0e3e
000000e0: 589e 2dbe b803 403e 0797 0a3e 8ea9 32be
000000f0: 18c3 37bc ac5e b3bd 325d cdbe 2682 12be
00000100: 8d9e 2f3e 564f 643d 41ff 283e a7d5 253e
00000110: a56d 1abe 437b d4bc c67a d53a 2785 103e
00000120: 9a3e a43d 1ff8 ffbc 361b f4bd e39e fcbd
00000130: 91ae 0b3e b541 e7bd 1be6 143d 6080 a6bd
00000140: 17e1 d33d 45a3 27be f3de 213d df62 2b3e
00000150: 4a0d cabd 3adc f73d e67f 16be d1c5 02be
00000160: 7cfd 62bd 5f5c f43d d331 243e 6a63 58bd
00000170: a160 5dbd 1273 efbd 85c5 893d 8c4e 4d3d
-0.034924533 0.061217364 0.17091122 -0.15927294 0.14649032 -0.17354664 -0.07740649 0.12464251
-0.07869281 0.09180044 -0.028272096 -0.046218473 0.060599573 0.1616901 -0.03978622 -0.05042207
0.14989379 0.063978456 -0.010563198 0.18155755 0.00016524375 0.15410319 -0.09300887 -0.12323002
0.10666124 -0.1461875 0.15028329 -0.027025301 0.12170879 0.08899144 0.072200395 0.13940606
-0.13101105 0.04206421 0.009745031 0.12380122 -0.1276348 -0.13268374 -0.25561002 0.020761896
0.16999938 0.0042816806 -0.22281867 0.22118238 0.3427509 0.064408824 0.13779686 -0.31283015
-0.20084506 0.31012186 0.29295737 -0.05210156 -0.06526346 0.40018702 -0.059225112 0.1395416
-0.16954935 0.18751419 0.13534175 -0.17447492 -0.011215948 -0.087582916 -0.40110165 -0.1430746
0.17150326 0.055739723 0.16503622 0.16194783 -0.15080889 -0.025937682 0.00162872 0.14113294
0.08019753 -0.031246243 -0.119192526 -0.12334993 0.1364081 -0.112918295 0.03635226 -0.08129954
0.10345667 -0.16370876 0.03951926 0.16736935 -0.09865816 0.12102552 -0.14697227 -0.12770773
-0.055417523 0.11931681 0.16034631 -0.052829184 -0.05404723 -0.1169187 0.06727127 0.050123736

model.time_nn.rnn.bias_hh_l0 f4 [96]
00000000: ed81 ca3d 8fcd 613e ddbe 9b3d e39e f43d
00000010: bb06 54bc 3b15 0c3d 0a40 c7bd 5bcd 1abd
00000020: 1561 f3bc 8b59 efbd ae87 9c3d b704 173e
00000030: ce65 f7bd bde7 9fbb 36bc dfbc 99eb d6bd
00000040: 5860 38bd 8613 393e 0ac3 1dbd c1a0 90bc
00000050: 8641 65be 4937 373e 4671 3f3d bffd ff3c
00000060: aa1e 1e3e 2758 a53d ff8c 6cbd fa28 073d
00000070: e5b9 c5bd 0812 a93c 319a 553e ab55 d73d
00000080: e9ba 5fbe ff8d 3fbe 1f79 d63d 84bc 163d
00000090: 3ede 7fb9 4210 23be 37af 75bd d2b0 c33d
000000a0: a441 3d3e 420d 033d ecb9 a43b f764 49bd
000000b0: 2519 403e d51a c33c c1fe 4e3d 0578 a0be
000000c0: 2e3c 96bd e4f8 593d 061a 423e 21dc aebe
000000d0: a06d b93d bed0 913e fa31 66be 3504 f33d
000000e0: bc4b 1dbe b641 203e d979 253d 8e34 88bd
000000f0: 8bb8 2b3d e122 86be efc0 0fbf 63af 703d
00000100: 10c8 4d3e 2258 05be 9ab9 9dbd 33e5 163e
00000110: 0767 323c b01d 23be 9308 df3d 5719 03be
00000120: 0e83 d33c 8c43 923d 2daf 81bd c1ad 37be
00000130: e326 22be a13a 42bc 1a4f 3bbe a99c fdbd
00000140: 6db9 613d 9960 68be 00a1 9e3d 5db3 213d
00000150: 5289 23be 99a0 19bd f409 02be 205b d83b
00000160: 169d 1d3e 5c55 553b 3d10 debc b167 013e
00000170: af8f 39be b095 073e d757 71bd b3f9 353d
0.098880626 0.2205107 0.07604764 0.11944368 -0.012941058 0.034199934 -0.09729011 -0.0377935
-0.029709378 -0.11687001 0.07643066 0.14747892 -0.120799646 -0.0048799203 -0.027311426 -0.104941554
-0.045013756 0.18073854 -0.038516082 -0.017654778 -0.22388276 0.17892183 0.046738885 0.031248925
0.15441385 0.08073454 -0.05775165 0.032998063 -0.09654597 0.02063848 0.208596 0.10514387
-0.21848644 -0.18706511 0.10472321 0.036800876 -0.00024401487 -0.1592417 -0.05998155 0.0955521
0.18482071 0.031995066 0.0050270464 -0.049168553 0.18759592 0.023816505 0.05053592 -0.31341568
-0.07335697 0.053215876 0.1895524 -0.3415232 0.090541124 0.2847957 -0.22480002 0.11866037
-0.15360922 0.15650067 0.040399406 -0.06650649 0.04192404 -0.26198485 -0.5615377 0.05876101
0.20095849 -0.13021901 -0.07701416 0.1473587 0.010888821 -0.15929294 0.10890307 -0.12802635
0.025819328 0.0714179 -0.0633224 -0.17937376 -0.15835147 -0.0118547985 -0.18291894 -0.12383396
0.055108476 -0.22693099 0.07745552 0.039477695 -0.15970352 -0.037506673 -0.1269911 0.00660266
0.15391955 0.00325521 -0.027107352 0.12637211 -0.18121217 0.13240695 -0.05892166 0.044427585

model.space_nn.filters.weight f4 [32, 160]
00000000: 9ba1 cebd afd5 fe3d bc31 bdbd 3e29 143d
00000010: 2903 c9bb ae2f b43d 7c31 c53b d148 0ebd
00000020: aa29 0e3e d32f fcbd 818d 72bc 4cc8 f23d
00000030: 8750 5c3d 6562 383d 4e63 0d3e 6f39 123e
00000040: e411 35bc 8595 7d3c 4bbb ddbc 94a2 5a3d
00000050: 4601 aabd 73b2 bdbd 81a1 0a3c 6a6f 103e
00000060: 99a6 743c 44fd 83bd 5786 913d d9fa 263c
00000070: 4ec6 f6bd c23d cdbd dd99 a3bd 51c9 0cbe
00000080: 19ae 0cbd 8ed3 933d 70f2 6dbc d17a 86bc
00000090: 5d1d e5bc c79e b93d 789e 6e3c 0935 bebd
000000a0: 5442 163d 3f1c 373d e035 b3bc 81cd c5bb
000000b0: ae13 013d 37cd d53c fe39 453d d4f6 94bc
000000c0: c04d ffb7 8ac6 373d 2967 033d 4b28 bebb
000000d0: 3bc0 02bd 1509 983c 83da 70bd 68d5 e9b9
000000e0: bd2c 51be cded 11bc 5f47 20bd 85ce 8a3d
000000f0: 5ada 2cbd 817d 5d3d 08c7 8fbd 5d56 b0bc
00000100: 6a75 803d aee9 87bd 0211 2f3d 33c8 a5bd
00000110: 0a3e 40bd 4871 29bd 5857 8cbd 6871 01be
00000120: 3834 b2bc b0fb 703d fc58 d3bc 487c 873d
00000130: 5a1f 88bd 145a 95bd b82e 613b adc7 19bd
00000140: f4f1 a7bd 14dc 973a 9aea a3bd 1616 413d
00000150: fd24 4cbd a567 b73d 5d6f 5d3d 578f 52bc
00000160: 8a07 2bbe 97cc 8a3d 1928 6a3d e9fc f53d
00000170: 66a4 31bd 01dc 6abd d3ac edbb 2cea 8cbc
00000180: eb21 bc3c 9a4e 05bd 84d9 e3bc c5be 17bd
00000190: 30c2 36bd a086 b63d 3d43 953c 3ee9 b7bd
000001a0: 01f0 1cbc de7a 3d3d c814 1c3d 7966 7abb
000001b0: 62ae f03b 3e60 5aba ec00 e4bc 09f9 c13d
000001c0: dfde 483d aea8 4ebd f521 e0bd 8d34 943d
000001d0: ebc9 113d 7ec2 56bd 1f5c d9bc 18fc f13a
000001e0: 01ec 54bc 53b9 2a3c 8634 ae3c 0e42 71bd
000001f0: ef95 b1bd d90b 12bc e060 64bc 654b c1bc
00000200: d989 7a3d 2e1a d8bd e4b4 543d 2a04 cfbc
00000210: e1a8 063c 5e53 963c 1aec 583d b0a0 25bb
00000220: 6e76 903c ebb4 1d3c 631b 4cbc c938 edbc
00000230: 2e0e a63d 1d79 10bd e46a 50bd 5eb2 e9bc
00000240: fdd1 b3bc ff1d 77bc 1102 ffbd dfa7 663c
00000250: 6460 8f37 c6ca cc3c 5082 50bd 471a 9c3d
00000260: e357 a9bd b220 6bbd f961 e13a 851b 0ebd
00000270: 1896 783d bb07 c3bc 0e7a b63b 7aa5 5b3d
00000280: 2c0b 13bd 2258 a3bd c383 49bc 0745 5f3d
00000290: 549b b73c 2204 443b 9465 8f3d 6355 2f3d
000002a0: aa86 73bd 49f9 f33d 42eb a8bd dcf4 ccbd
000002b0: 9335 f3bc 955c aabd 899c 42bd 4f18 013d
000002c0: fc80 9f3d 837c 92bd 043d 9fbb 90d9 0f3d
000002d0: 071d a93d 27ed cf3d f10f 733c ee51 abbd
000002e0: 88c6 493e edef 513d a5d1 0abb 4481 ea3b
000002f0: b8a2 e03c 5ad9 eb3c e2db 8f3d 8dd1 d6bb
00000300: 5b46 12bc 455e de3c eff0 1739 7350 563d
00000310: 4b1c b8bb 9551 96bc e333 2d3d de2c bf3d
00000320: 310e a23b 9f4d 90bc 6914 79bd 4d84 97bd
00000330: 9d8d f3bb 6703 e43c 7f1a 7dbc 71e9 273d
00000340: b678 963d 6686 703c 742e d23d 1091 abbc
00000350: 4a0e 08bd 4f05 25bd 7e40 19bd 12db a83c
00000360: 654b 26bd 5f37 cbbc c28e 723d b9f0 623d
00000370: 00cd 7abd ca1b 493d 6519 38bc c6c7 203c
00000380: 42eb 983d 9e91 5cbc 40c4 c33c 83bb 363d
00000390: 48a0 063d 74fa 1fbd c8fa fb3c f368 713c
000003a0: fb4d f53c 3698 29bd bdf4 acbd f09d 2d3d
000003b0: 98b5 a3bd 5ead 063c dfe4 4f3c 85d9 873d
000003c0: 4989 71bc 4185 54bc 741a 363d 2d26 4bbc
000003d0: 8d62 a53c e623 62bd b688 123d 0ce4 a3bd
000003e0: f9d1 4d3c 6ad3 8f3c d07a 973d a0d3 15bd
000003f0: 60e0 40bd 3488 32bd 05b3 653c 5d4e 983d
-0.100894175 0.12443101 -0.09238002 0.036172144 -0.00613441 0.08798157 0.006017862 -0.034737412
0.13883081 -0.12313809 -0.014804245 0.1185461 0.053787734 0.04501571 0.13807413 0.14279722
-0.011051629 0.015477543 -0.027066847 0.053377703 -0.08301024 -0.09262552 0.008461357 0.14105001
0.014932298 -0.06444791 0.071057014 0.010191643 -0.12049542 -0.10021545 -0.079883315 -0.13748671
-0.03434572 0.07218085 -0.014523134 -0.016415985 -0.027968103 0.090634875 0.014564149 -0.092874594
0.03668435 0.044704672 -0.021876276 -0.006036461 0.03151291 0.02609883 0.04815101 -0.018184103
-3.0434574e-05 0.044867076 0.032080803 -0.005803143 -0.031921607 0.018559018 -0.05880214 -0.00044600223
-0.20427223 -0.008906794 -0.039130565 0.06777672 -0.042200424 0.054074768 -0.07020384 -0.021525556
0.06272395 -0.06636368 0.04274083 -0.080948256 -0.046934165 -0.0413678 -0.06852597 -0.12640917
-0.021753415 0.058833778 -0.025799267 0.06615502 -0.06646605 -0.07292572 0.0034360122 -0.03754394
-0.08200446 0.0011585974 -0.08003731 0.047140203 -0.049839962 0.089553155 0.054061282 -0.012851558
-0.16702095 0.06777304 0.057167146 0.120111294 -0.043369673 -0.05733872 -0.0072532683 -0.017201506
0.022965392 -0.032545663 -0.02781368 -0.037047166 -0.044618785 0.089123964 0.018220538 -0.08980034
-0.009578706 0.046259753 0.038105756 -0.003820805 0.007345007 -0.0008330381 -0.02783247 0.09471328
0.04904067 -0.050453834 -0.10943977 0.07236586 0.035592955 -0.052431576 -0.026533185 0.0018461971
-0.012995721 0.010420161 0.02126528 -0.058900885 -0.08671176 -0.0089139575 -0.013939112 -0.023595521
0.061166618 -0.105518684 0.051930323 -0.02527054 0.008218975 0.0183503 0.05295954 -0.002527278
0.017634597 0.009625654 -0.012457701 -0.028957741 0.08108173 -0.035271753 -0.05088319 -0.028527435
-0.021950716 -0.015082835 -0.12451566 0.0140781095 1.7091814e-05 0.024999034 -0.050905526 0.076221995
-0.08268716 -0.057404228 0.0017195336 -0.034694213 0.060690016 -0.023807397 0.0055687493 0.053624608
-0.035899326 -0.079757944 -0.012299481 0.05450919 0.022412933 0.002990969 0.07001796 0.04280604
-0.059454598 0.11912782 -0.08247997 -0.10007641 -0.029688632 -0.0831844 -0.047512565 0.031517323
0.07788274 -0.07152655 -0.0048595686 0.035119593 0.0825749 0.10152655 0.014835344 -0.08365236
0.1970464 0.0512542 -0.0021182087 0.007156523 0.02742134 0.028790165 0.07024361 -0.006555742
-0.008927907 0.02714456 0.00014490237 0.052322816 -0.005618607 -0.018349448 0.04228581 0.093347296
0.0049455394 -0.017615138 -0.06081048 -0.07398281 -0.007432653 0.027833654 -0.015448212 0.04099411
0.073472425 0.014680481 0.102627665 -0.020943195 -0.033216752 -0.040288266 -0.03741502 0.020612273
-0.040599246 -0.024806676 0.059218176 0.055405352 -0.06123066 0.049098767 -0.011236523 0.009813255
0.07466747 -0.013462452 0.02389729 0.04461242 0.0328677 -0.03905721 0.03075923 0.0147344945
0.02994441 -0.041404925 -0.084451176 0.04238695 -0.07993621 0.008220045 0.012688844 0.066332854
-0.014742204 -0.012971223 0.04445882 -0.0123992385 0.020188594 -0.055210017 0.03577491 -0.08002481
0.012562268 0.017556865 0.073964715 -0.036578774 -0.04708898 -0.043586925 0.014019732 0.074368216

model.space_nn.filters.bias f4 [32]
00000000: 1b27 183d c165 1bbd f948 9d3d 06a6 bebd
00000010: 0419 b9bc bd24 203d 543a d83c 1bab 93bd
00000020: 4d5a 993d 5899 143d c801 98bc 88ff 3bbd
00000030: 7046 c3bb a1ee 8d3d 30b7 1ebd ac39 afbd
00000040: 71e2 8e3d 68c8 1d3d 14e9 f13b bd31 103d
00000050: 50fb e73c 9a77 3c3d 27ee 9dbb f396 76ba
00000060: 1c0c 963c 868c e2bc a16e 7c3d 1b46 70bd
00000070: fdca 52bd 7a0b 83bd c9d5 433d 1c2a 83bd
0.03714667 -0.037938837 0.07679934 -0.0930901 -0.022594936 0.039097536 0.026395 -0.0721037
0.07487927 0.036279052 -0.018555537 -0.04589799 -0.0059593245 0.069302805 -0.03874892 -0.08555922
0.06976784 0.0385212 0.0073825214 0.035203684 0.028318077 0.0460125 -0.0048196497 -0.00094066485
0.018316321 -0.027654897 0.06162894 -0.058660608 -0.051463116 -0.06398673 0.047811303 -0.06404516

model.decoder.readout.mlp.0.affinity.weight f4 [64, 48]
00000000: 4240 273d ce46 813d be81 3bbc 6219 b1bc
00000010: 479d bd3d 91af afbd 4669 9f3d eee1 563e
00000020: 09fc 10be 1fb8 4abd f2a0 b03d c5d2 3a3d
00000030: f07d b73c 7f94 91bd aa32 2a3e bb75 9d3d
00000040: 1924 373e f654 b23c 85e3 8e3d 9f18 bb3d
00000050: 01c1 bfbd 3f78 323d ac33 11be b300 03bc
00000060: 85c1 c73d a464 7f3e 787f 113e 6522 563e
00000070: 517a 4e3e 6de6 763e 3088 6dbd 8b0c 343e
00000080: 4a18 e63e df97 1fbe c515 27be 9efb f2bd
00000090: 613c 79be a603 533e 20a8 9a3e ce1c f3bd
000000a0: 1313 0f3e c2b0 10bd 7cec a03e e443 873d
000000b0: 7202 7dbd 6e77 183e d7c4 93bd 0034 bd3d
000000c0: 56c0 56bb 5745 e8bd 938f da3d 5505 87bc
000000d0: e2d7 823c bd71 31bd e79e a3bd 0825 1c3d
000000e0: bbc4 4c3d bda2 c53d 1e82 7b3d 2cd3 e5bc
000000f0: 0060 dbbd f408 a33d 81a5 9b3d e1bf 553d
00000100: 8501 b2bd b9fc a7bc 096d c53c 7c7a b43a
00000110: f076 163e e65c 79bc e9bb ac3d 15d4 903d
00000120: 1031 973d aaee 88bd 2fcf 1ebe 78e8 0dbe
00000130: 8f1e 07be 4c1c c83b 3868 903d b97c 1a3e
00000140: d134 953d bcc2 233e 72f1 af3e d7e8 31bd
00000150: ef1c 603b 33f4 bf3d ceb5 02be f2e0 f0bd
00000160: cd74 2bbc ff83 95bd bc81 1d3d ca0c 8fbc
00000170: 67c9 b5bd cd6c c73c ad63 463d 291d f03d
00000180: 6fba dabd 718f 693b 638b 963d 4ba2 dd3d
00000190: 36de 8bbc 6e30 093d d8a5 2b3e 15a6 e3bd
000001a0: 1c94 033e cc30 703c 20e1 88bd e6f6 943c
000001b0: af4d b93d c7d0 4f3d d6cf 57bd 2992 febd
000001c0: 3a52 efbd 62a8 3a3d 2f0c bdbc 7ef8 2e3e
000001d0: e464 a23d a4b3 ed3c 81f0 783d 25e5 5a3d
000001e0: 082b ebbd d452 673c 9d0f e93d 2480 fb3d
000001f0: 1c28 153b e87f c43c c24b e2bd 2574 04be
00000200: 4251 783d fca1 b63d 1a63 013d a631 253d
00000210: f6a8 9ebe 8a9c e03d 0fab d33d ae99 65bd
00000220: 93a9 8a3d 1755 6c3d 4d9d 903e 1b42 913d
00000230: e294 ce3c 28e1 4d3e 3b5e c73c 340a 8e3c
00000240: ee4d 62ba 8a71 f5bd ac42 e63c bad7 67bd
00000250: 1c2a ee3d 12e0 61bd 9161 a33d 896c 4cbc
00000260: e282 c6bc ed1d b53d 0a3c 123e ffa7 a9bd
00000270: 581b 58bb 2bbd 8bbd b522 f73d 0377 a53c
00000280: 96d2 c5bd 1a6b 0e3e 6f41 81bd 75ba 953d
00000290: f443 133d 55d4 18be e89d 43bb 4af5 b6bd
000002a0: 9efb 9fbd 5341 463d be04 123e f4c7 adbd
000002b0: df64 593d db96 9f3d ccc1 953d 3eb5 b3bc
000002c0: 7e15 3b3e 2e1b 303e 06a0 913e 1082 9d3c
000002d0: ca22 8ebd cc2b b53d 5a73 8bbd a32d a9bd
000002e0: 7110 88bd a40f 843c 6afa 3e3e c636 b33c
000002f0: d14c 483e ff53 473e dfab c2bd fa71 dcbd
00000300: 6ead fcbc 8727 81bd 38f0 8dbd eeb6 343d
00000310: c107 a23d 8198 b8bc 841a 07be 3e4b 0a3e
00000320: c4f4 293c 9c2e 95bd f5c4 413d 9172 8ebd
00000330: 743a 7d3c b4e0 cabd d394 6a3c 8137 913c
00000340: b4b3 a43b e1dd ce3d 5106 c03c 6e09 c43d
00000350: 130e 073e 9f34 98bd 9d8d 173d 683e 64bd
00000360: 0a16 edbd 632e 153e f829 1b3d e3fe 8abd
00000370: ba11 4d3d 3794 f7bd 7c4a 34bc 9f03 afbd
00000380: be04 bfbc 6891 d5bc 6d0f e83a e832 513d
00000390: 08b0 8c3d b0f8 e03d b6d5 a5bd deaa d6bc
000003a0: 71c3 18bd 850e 6fbd 351b 11bd 905d 05bd
000003b0: bf13 00bc 0e4f b3bd d1eb 41bd a04b a7bd
000003c0: 96af cc3d c204 003e a046 72bd 8627 08bd
000003d0: 2703 cbbd fd4b 05be c555 1a3d da08 cabb
000003e0: 8ec6 08be 76b9 eb3d 41da b03c 66c3 1bbe
000003f0: 2a98 b3bc 22fd 413d a9fa e5bc d79d 05be
0.040832765 0.06312333 -0.011444507 -0.021618549 0.09258514 -0.085784085 0.07783751 0.20984623
-0.14158644 -0.049491998 0.08624448 0.04561116 0.022398919 -0.071084015 0.1662089 0.07688471
0.17884864 0.021769028 0.0697699 0.091355555 -0.093629844 0.043571707 -0.14179868 -0.007995772
0.09753708 0.24940735 0.14208782 0.20911558 0.20163848 0.24111338 -0.057991207 0.1758291
0.44940406 -0.15585278 -0.16316898 -0.118643984 -0.24339439 0.2060686 0.30206394 -0.118707284
0.1397212 -0.03532482 0.31430423 0.06604746 -0.06176991 0.14889309 -0.072152786 0.09238434
-0.003276845 -0.113413505 0.10671916 -0.016482035 0.015972082 -0.04332136 -0.079892926 0.038121253
0.049992304 0.096501805 0.061403386 -0.028054796 -0.1071167 0.07960692 0.07599927 0.052184943
-0.08691696 -0.02050625 0.024099844 0.0013769413 0.14693809 -0.015219903 0.084342785 0.070717014
0.07382405 -0.066861466 -0.15508722 -0.13858211 -0.13195251 0.006106889 0.07051128 0.1508664
0.072854646 0.15992254 0.34363896 -0.043434944 0.0034196933 0.09372749 -0.12764665 -0.11761655
-0.010464859 -0.07300567 0.038453802 -0.017462153 -0.08876305 0.024343872 0.048434902 0.11724312
-0.10680091 0.0035638476 0.07350805 0.108219706 -0.017073732 0.03349345 0.16762483 -0.11115662
0.12849468 0.014660072 -0.06683564 0.018184137 0.0904802 0.050736215 -0.052688442 -0.124302216
-0.11685605 0.04557074 -0.023077099 0.1708698 0.079293996 0.029016323 0.060776237 0.053441186
-0.11482817 0.014118869 0.11379931 0.122803 0.0022759503 0.023986772 -0.11049606 -0.1293493
0.06062437 0.08917615 0.03158865 0.04033055 -0.30988282 0.109673575 0.10335361 -0.056054763
0.06770625 0.057698335 0.2824501 0.07092687 0.025217477 0.20105422 0.024336925 0.01733885
-0.0008632828 -0.119845465 0.028107964 -0.056602217 0.116291255 -0.05514533 0.07977594 -0.012477049
-0.024232332 0.088435985 0.14280716 -0.08283996 -0.0032975283 -0.0682319 0.12067167 0.02019835
-0.09659307 0.13908044 -0.063113086 0.073109545 0.035953477 -0.14924748 -0.0029848758 -0.08933504
-0.07811664 0.04840214 0.14259622 -0.08485404 0.053074714 0.07792445 0.073123544 -0.021937009
0.18269917 0.17197868 0.284424 0.019227058 -0.06940229 0.08846244 -0.06809111 -0.08260658
-0.06643761 0.01612074 0.18650213 0.021876704 0.19560553 0.19465636 -0.09505438 -0.10763927
-0.030844416 -0.06306367 -0.06930584 0.044119768 0.07911635 -0.022533657 -0.13193709 0.13505265
0.010373298 -0.07284281 0.047306973 -0.069554456 0.015455831 -0.0990614 0.014317709 0.017726662
0.005026305 0.10100914 0.023440512 0.09572111 0.13188963 -0.07431912 0.037000287 -0.055723578
-0.11576469 0.14568476 0.03788182 -0.06786897 0.050065733 -0.120888166 -0.011004087 -0.085456125
-0.023317691 -0.026070312 0.0017704793 0.05107394 0.06869513 0.109849334 -0.08097403 -0.026204523
-0.037295762 -0.058363456 -0.035426337 -0.03255993 -0.007817208 -0.08755313 -0.047344033 -0.08168721
0.09994428 0.12501815 -0.059149384 -0.033240817 -0.09912711 -0.13017268 0.037679452 -0.006165606
-0.13356993 0.11509983 0.021588447 -0.15211257 -0.021923143 0.047360547 -0.028073626 -0.13048492

model.decoder.readout.mlp.0.affinity.bias f4 [64]
00000000: ae0b a8bc 1446 753d 119a 203d 3aa5 bcbc
00000010: b18d b3bd 2cb3 b0bd 673e 2cbd 4d47 173d
00000020: a184 dd3d 3fdc 8dbd dd70 dc3d b8ee 1c3e
00000030: 4863 a53c 3b6f a43d de6c 59bd bab1 b8bd
00000040: 60f6 c2bd 9ba5 813d fc62 2e3d 7a91 d3bc
00000050: 336e b03c dc78 dc3b c8d0 76bd d418 a93d
00000060: 2c0a e43d acd1 1c3e c52f 073e bf17 1bbd
00000070: b3c4 673d 8d2d 38bd 3ae8 923d 5257 a5bd
00000080: 3c18 093d 8ee0 36bd 7776 04be 2537 263e
00000090: 1f8a 9f3c bb4c 0abc efec 773d 8b93 abbd
000000a0: 1a84 5abe 36ba e43c d48b 5d3d 619b 0fbd
000000b0: 9127 19be a987 84bd 0d6d 913d c45c 693d
000000c0: ed95 583c 9930 e43c f73e d5bc fcc5 e2bc
000000d0: e733 903d 0a12 113d bc7a fdbc 5dd5 803d
000000e0: 94c5 a1bd a57a 5c3d da75 d0bd 8e4a f9bd
000000f0: 3b52 dbbd 70f9 fcbc dbc3 f83d e384 2bbd
-0.020513382 0.059881285 0.03920943 -0.023028005 -0.0876726 -0.08627924 -0.0420517 0.036933232
0.108163126 -0.06926774 0.107637145 0.15325439 0.020188943 0.08029028 -0.05308234 -0.09018274
-0.095196486 0.06330415 0.042574868 -0.025826205 0.021536922 0.0067282747 -0.060257703 0.08256689
0.11134753 0.15314358 0.13201816 -0.037864443 0.05658407 -0.044965316 0.071732 -0.08073296
0.033470377 -0.044647746 -0.12935816 0.16231973 0.019475041 -0.0084411455 0.06052869 -0.08377751
-0.21339455 0.027920824 0.05408843 -0.03506029 -0.149565 -0.064711876 0.07100878 0.056973234
0.013219339 0.027855204 -0.026031 -0.027682297 0.070411496 0.035417594 -0.030942313 0.06290696
-0.07899013 0.0538279 -0.101787284 -0.12172423 -0.107090436 -0.03088066 0.121467315 -0.041874778
