logs/epoch=96-step=9312.ckpt (torch, 250167 bytes, 39 tensors)

model.node_embeddings.emb f4 [207, 16]
000000 e6 7b f6 3d a5 52 81 3e 11 c2 f0 bd 95 7d c4 3e
       0.120353505 0.25258365 -0.11755765 0.3837706
000010 b7 09 51 3e 90 57 96 3e 1a 94 57 be a9 cb c2 be
       0.20413862 0.2936368 -0.2105259 -0.38046005
000020 ce 1d b0 bd 53 91 85 be 57 fa 64 bd 24 f4 a7 3d
       -0.08599435 -0.26087436 -0.055902805 0.08200863
000030 77 d6 19 3e 96 74 b3 3d 4c ce 5f 3e 5a 6c 16 be
       0.15023218 0.087624714 0.2185604 -0.1468977
000040 63 f4 58 3e 6c 83 f7 bb 03 7c f5 bc 91 e5 ad 3d
       0.21186976 -0.0075535085 -0.02996636 0.08491052
000050 ed 1e 71 3d 0e 35 3a 3d e2 d8 ff 3d d0 d1 8d be
       0.058867384 0.045460753 0.12492539 -0.27699137
000060 c1 7d 9d 3d f8 6e 07 be 01 aa cb be 25 d6 37 bc
       0.07690001 -0.13225925 -0.3977814 -0.01122049
000070 ba d2 06 bd 4d c7 fe 3d 07 40 c0 3e af dc 4b be
       -0.03291581 0.12440357 0.3754885 -0.19908403
000080 44 16 8a 3d c7 a0 09 bd 41 ae ec 3d 9f 30 b6 3e
       0.06742528 -0.033600595 0.11556674 0.3558397
000090 d2 20 b2 bc a2 2a a7 3e a6 83 8d 3e 01 98 69 bd
       -0.021744166 0.32649714 0.27639502 -0.057029728
0000a0 c4 b8 ac be ba e4 26 be 62 c9 b5 3e 66 81 91 be
       -0.33734715 -0.1629819 0.35505205 -0.28419036
0000b0 15 73 bb be 14 be 38 3e 40 53 c3 3e 01 f9 97 3d
       -0.36611238 0.18041259 0.38149452 0.074205406
0000c0 cc 71 72 bc fd f4 1f be 97 3b 97 3e da ba ec 3d
       -0.014797639 -0.156208 0.2953765 0.115590766
0000d0 b8 b5 e8 3d 50 95 43 3e 60 27 c6 be 58 f1 4d be
       0.11362785 0.19099927 -0.38701916 -0.20111597
0000e0 6a 02 21 3e 44 42 e9 bd 19 87 a3 be 5f 22 db 3d
       0.15723577 -0.11389592 -0.3193901 0.10699915
0000f0 81 d7 c5 3e 25 79 a7 be 11 68 78 bf fe c7 8d 3d
       0.3864098 -0.32709613 -0.9703379 0.06922911
000100 66 5e a4 3e 7d 89 f0 bd 02 c8 33 3e d4 bb c3 bc
       0.3210327 -0.11744974 0.17556766 -0.023893274
000110 49 89 25 3f 04 2d a8 be 8a 74 b7 be f4 79 d3 3e
       0.64662606 -0.32846844 -0.358311 0.4130398
000120 6d 91 2c bf f3 d5 7c 3e d7 90 55 3f 64 45 c1 3e
       -0.674094 0.2469099 0.83424133 0.37748253
000130 ad d3 fc 3d 11 e7 34 be 45 9e c2 3c e7 2f 4c 3e
       0.123450615 -0.1766627 0.02375711 0.19940148
000140 2f 5e 10 3f 33 1f 12 be d1 da 2c 3c 93 34 8d be
       0.5639371 -0.14269714 0.010550217 -0.27579173
000150 f2 bf 06 bf f6 f7 1d 3e c5 27 b5 3e 4e 9f 31 3f
       -0.52636635 0.15426621 0.35381904 0.69383705
000160 0b dd 3c 3e 81 dd 96 3e ad 5f 88 bf 36 c5 b4 be
       0.18443696 0.2946587 -1.0654198 -0.3530671
000170 39 18 a4 bf e6 9a 84 3e 5a 78 21 bf 4c 38 fc be
       -1.2819892 0.25899428 -0.63074267 -0.492617
000180 ff 27 0b 3e 7a 39 76 bd 23 1b ee 3e cf 2a ce 3e
       0.13589476 -0.060113408 0.4650508 0.40267035
000190 c9 99 a8 3e af db 95 be 9f 09 9e 3c ea 4f 18 3d
       0.3292983 -0.29269168 0.019291697 0.037185587
0001a0 19 5a ef be 86 1e f2 be 56 85 42 be 7a ac 19 3f
       -0.46748427 -0.47288913 -0.18996176 0.60028803
0001b0 89 f3 da 3d 5f 2f 90 be 3f f9 c8 3d ad 8b 15 3f
       0.10690982 -0.2816114 0.09813165 0.58416253
0001c0 85 95 2d 3f 1c 8c 64 be a9 18 0e 3e db e2 2b be
       0.67806274 -0.22319072 0.13876595 -0.16785757
0001d0 77 d4 5d bd cf 9f 96 3d a3 ca b3 be 90 ae 68 3e
       -0.0541577 0.073547 -0.35115537 0.2272284
0001e0 a0 a8 02 3f 4e d8 07 bd b5 ce 22 be 17 89 95 3a
       0.5103855 -0.03316527 -0.15899165 0.0011408654
0001f0 a8 76 e2 be e5 b3 52 be 4d 41 1e 3d 7b e9 5f 3e
       -0.44231153 -0.20576437 0.038636494 0.2186641
000200 74 b6 a2 3e 6a 92 87 3f 53 ed 95 3e cc 59 bb 3e
       0.31779826 1.0591557 0.29282627 0.36591947
000210 ff 4e a2 3e 52 d0 a2 3e 27 6e 2f be 06 fc 20 be
       0.31700894 0.3179956 -0.17131864 -0.1572114
000220 b0 74 21 bd 99 d8 00 3f 60 8d df bd 54 b6 7f be
       -0.039417922 0.503305 -0.10915637 -0.24971896
000230 a2 00 93 be 95 d6 c9 be 14 ea ff bd cd 14 64 be
       -0.2871142 -0.39421526 -0.12495819 -0.2227356
000240 2a a4 81 be 8d 6e 4f bf ad de 0b 3e 9a 4e 03 3f
       -0.2532056 -0.8102806 0.13659163 0.5129181
000250 51 b0 89 be bf 87 3e 3e a7 26 90 3e ae a8 db be
       -0.2689233 0.1860647 0.2815449 -0.4290213
000260 e7 31 bc be 29 fd 28 3f c7 f7 db 3d 08 66 27 3d
       -0.36756822 0.6601129 0.10740619 0.04086879
000270 1c 5f 9d be f8 74 59 3d 4f c9 b0 bd a6 9e ac 3d
       -0.30736625 0.053090066 -0.086321466 0.08428697
000280 36 e6 9f 3e ba 1f 58 be fe 4a ac 3e 34 bc 3b bf
       0.31230325 -0.21105853 0.33650964 -0.7333405
000290 2a bf 23 bf 9a 2b 1f 3c ca 6f 49 3d e4 cd 0e 3f
       -0.6396357 0.009714985 0.049178876 0.55782914
0002a0 18 93 1a 3f 17 65 43 be 1d 6f f9 be 28 ca a8 be
       0.603807 -0.19081531 -0.48717585 -0.32966733
0002b0 d4 e0 9f be 07 28 a8 3c a2 76 82 be f8 93 a8 3e
       -0.31226218 0.020526899 -0.25481135 0.3292539
0002c0 8d eb 23 be 6d 49 1d be 24 60 12 3f 94 31 e1 3c
       -0.16007824 -0.15360041 0.5717795 0.027489461
0002d0 3d f9 5c 3e c9 0f f2 3e 96 8d 28 3f bc d4 b0 bd
       0.21579452 0.47277668 0.65841043 -0.08634326
0002e0 15 0b 5d be fb b7 3d be 3a 87 19 3e 14 63 f1 bd
       -0.21586259 -0.18527214 0.14992991 -0.11786476
0002f0 b7 61 ba 3e 0e eb 9a 3d 56 3e 27 3f cb c5 9a 3e
       0.36402676 0.075643644 0.6532949 0.3022903
000300 0a 4f 59 3e a6 76 b8 3d 62 0d dd bd cd b8 53 3e
       0.21221557 0.090070054 -0.10793568 0.20675965
000310 10 a6 b7 be 3c bb df 3d 2c 4f 0d 3e 6c 98 25 be
       -0.35868883 0.10924384 0.13799733 -0.16171426
000320 be 42 b3 bd 5c a8 f6 bd 77 a4 17 3f 01 66 a7 3e
       -0.087529644 -0.12043831 0.5923533 0.3269501
000330 4e 65 e2 bd c1 e3 ae 3e c4 65 9e 3e 10 29 e2 3d
       -0.110544786 0.34158137 0.30937016 0.11042988
000340 43 20 93 3e a0 23 32 be d9 8a af 3e a7 31 26 3d
       0.2873555 -0.17396402 0.3428562 0.040574696
000350 68 f5 b7 3c 2a 3c 24 3f b0 dd 0f be c6 80 fc 3d
       0.022455886 0.64154303 -0.14049411 0.12329249
000360 aa 83 05 3e 25 cd ae be fa 06 47 be a2 e4 16 be
       0.13038507 -0.34140888 -0.19436255 -0.14735654
000370 24 55 08 bf 37 73 82 bd 81 64 d9 bd 7b 3a ab be
       -0.53254914 -0.06369632 -0.10614873 -0.33443055
000380 20 06 c6 bc ce 4f 0b bd 1a 30 80 3d 78 79 df bb
       -0.024172843 -0.034011655 0.06259175 -0.0068199
000390 b0 bb aa be e6 da 2d be 27 34 c6 be 8a f4 b3 be
       -0.3334632 -0.16978034 -0.38711664 -0.35147506
0003a0 db 2a 3e 3e 94 60 73 3e 0b 96 cd 3e a9 ee f1 bd
       0.18571036 0.2376731 0.40153536 -0.11813099
0003b0 9e 07 6b 3d 4a 0a c4 3e 9d e0 87 be 3e c6 3d 3e
       0.05738031 0.382891 -0.26538554 0.18532655
0003c0 43 1a 3d 3e 87 af dd bc f7 cc ca bc 02 83 0e 3e
       0.1846705 -0.027061237 -0.024755938 0.13917163
0003d0 a6 98 4d 3f c6 20 e5 bc 3b 8e 58 be 0d f8 00 3f
       0.8031105 -0.02796973 -0.21148007 0.50378495
0003e0 d3 0d 2f bf b4 89 0a 3e f7 32 20 3f 1b 88 13 3e
       -0.6838047 0.13529092 0.62577766 0.14407389
0003f0 17 f0 07 3e 2b 62 da bd 2c 1e 0a be 96 86 73 3e
       0.13275181 -0.10663255 -0.13488072 0.23781809

model.encoder.weight f4 [32, 17]
000000 12 e7 f9 3d 11 cd fb be 24 cd bb bb ea 41 ec 3e
       0.12202276 -0.4917989 -0.005731242 0.46144038
000010 ef 40 f4 be f4 0c 1b be 55 7d 08 be 21 86 bb 3e
       -0.4770579 -0.1514166 -0.1332906 0.3662577
000020 c3 00 34 3e 8e d4 1e 3f db 79 97 3e 32 1d 7e be
       0.17578416 0.6204308 0.29585156 -0.24815825
000030 c1 7e 79 be 5e ac 66 3d 62 fa 08 3f f6 42 f0 be
       -0.24364759 0.056316726 0.53507054 -0.46926087
000040 39 5c 95 3e 6e e4 a5 3e 98 0a 71 bd 78 ea 90 3e
       0.29171923 0.3240084 -0.058847994 0.28303885
000050 03 6c 8d 3b 77 d8 f7 bd e9 bb cc bd ad 7a 08 3d
       0.0043158545 -0.12101834 -0.099967785 0.033320118
000060 95 61 0f bd 96 ba 75 be 5b 14 9c 3c 7b dc 1f 3d
       -0.03500517 -0.23996958 0.019052675 0.039028626
000070 05 da 80 3b b5 83 1f be 2c 26 6c 3e 60 0c d0 bd
       0.00393224 -0.15577586 0.23061436 -0.1015861
000080 24 39 67 bd 53 9a 03 be 4a 21 91 be 9e f8 b0 3e
       -0.056450978 -0.12851839 -0.2834571 0.3456468
000090 90 79 06 3e 76 46 88 be 48 0e 0d be 3e 32 bd be
       0.1313231 -0.26616257 -0.13774979 -0.36952394
0000a0 43 5e a0 bd c0 54 bd 3d a5 0e 22 3e 5d 7d 84 be
       -0.07830479 0.092446804 0.15825899 -0.25876895
0000b0 7b 24 34 3e 64 67 e9 3e 15 83 9d 3d 0f d9 0a 3e
       0.17592041 0.45586693 0.076910175 0.13559364
0000c0 1a 57 a0 3d 3a 57 10 3e d8 01 a6 bd 6d ba a8 3e
       0.07829113 0.14095774 -0.081058204 0.32954732
0000d0 09 f3 a0 bd 22 99 a0 3e ca 64 da bd e3 89 88 be
       -0.07858855 0.3136683 -0.10663755 -0.266677
0000e0 f7 90 88 bd 5f a2 76 be 92 77 13 3e ba 62 0d bb
       -0.06668275 -0.24085377 0.14401081 -0.0021573738
0000f0 4c d8 ba 3e 50 f9 5d 3e 5d 2f 9e be b1 73 a7 be
       0.36493146 0.21677136 -0.3089551 -0.32705453
000100 63 2c 67 be da 3a b3 be 3f 61 9c be 15 3c ab be
       -0.22575526 -0.35005838 -0.30542943 -0.33444276
000110 53 96 ff bd 03 fb b0 be 4f 6e f2 bd b0 aa b3 3e
       -0.12479844 -0.34566507 -0.11837446 0.35091162
000120 40 71 9e 3e 7b 03 ff 3e 83 47 54 be c7 8d 0a be
       0.30945778 0.49807343 -0.20730405 -0.13530646
000130 b6 4a ca be 73 a5 00 bf 6b 95 73 3e 3d e7 68 be
       -0.39510125 -0.50252455 0.23787467 -0.2274446
000140 0f ae d1 be 84 ea b7 be af 56 04 bf 66 94 05 3d
       -0.4095311 -0.3592111 -0.5169477 0.032612227
000150 d7 ed 48 be 20 89 bd be 54 5e 5d be a4 24 ba 3d
       -0.19621979 -0.3701868 -0.21618015 0.0908902
000160 0c a1 48 3e 62 1e ed 3d 6c 16 60 ba 9b 06 33 3e
       0.19592685 0.11578061 -0.0008548263 0.17482989
000170 97 03 90 be cf 2d 45 be 98 93 91 bc 1a 9d 9b bd
       -0.2812774 -0.19255756 -0.017770573 -0.07598324
000180 dc 96 e5 3d 1c 46 b9 bd fc 85 45 3e cb 8f 5a 3e
       0.11210415 -0.090465754 0.19289392 0.21343915
000190 9a fb 53 be 23 41 8e 3d f8 98 76 be 08 05 c5 3a
       -0.20701447 0.069460176 -0.2408179 0.0015031407
0001a0 7b 6e e0 bd ee 62 59 be 25 58 93 be c3 86 dd 3e
       -0.109585725 -0.21229145 -0.28778186 0.43266878
0001b0 25 ce 24 be 86 25 47 bf 8d 3d 7e 3e 55 90 65 3d
       -0.16094263 -0.7779163 0.24828167 0.05604585
0001c0 3e b4 ad be f9 21 73 bf eb 36 a4 3e c3 2e 10 bf
       -0.33926576 -0.94973713 0.3207315 -0.5632135
0001d0 71 43 95 be 39 d9 a8 3d a3 81 0c 3f c2 43 82 3e
       -0.29153016 0.08244557 0.5488531 0.2544232
0001e0 9a e5 4e be ce cc 3e be 6a 12 79 3e 8e c7 a8 3e
       -0.20204774 -0.18632814 0.2432343 0.32964748
0001f0 40 34 22 3e 06 5c aa 3e de 22 f2 3e d4 bc 25 3e
       0.15840244 0.33273333 0.47292227 0.16185313
000200 aa 5d 6e 3e 23 e9 ed bd 44 70 53 bd 0a 23 47 be
       0.23277918 -0.11616733 -0.051620737 -0.1944696
000210 2c d2 01 be 4f 27 58 3e 41 93 31 be 07 29 cf 3e
       -0.1267783 0.21108745 -0.17341329 0.4046099
000220 cd e4 a2 3e 58 48 d1 3e c9 80 07 3d 5e 90 bc be
       0.31815186 0.40875506 0.033081803 -0.36828893
000230 e4 eb 79 b9 d3 44 a1 3e 17 6a 98 be 5e 45 52 3e
       -0.00023834367 0.3149782 -0.2976844 0.20534274
000240 83 6b c0 be e0 09 83 be 29 6d 6b bd 77 5d dd bd
       -0.37582025 -0.25593472 -0.05747715 -0.10808843
000250 71 ea dd 3d 19 3a 29 be 4d c6 c9 3e a0 48 0f 3f
       0.10835732 -0.16526069 0.39409104 0.5597019
000260 4b a4 85 be e0 87 9c 3e 77 39 a0 bd 79 b6 d2 3e
       -0.26101908 0.30572414 -0.078234605 0.4115484
000270 ac ab 47 3d 9c ad cd 3c 64 be 17 ba 6b 40 16 3e
       0.048747703 0.025107197 -0.0005788563 0.14673011
000280 7a cc 2f be 53 db 15 3e f5 fa 5c 3a 3e 33 41 3e
       -0.17167845 0.14634447 0.00084297295 0.18867204
000290 10 df 50 be 2d 03 ad 3d a7 07 a4 bb ce 04 10 3e
       -0.20397592 0.08447871 -0.005005795 0.14064333
0002a0 18 4b 45 3e 94 dc a4 be b0 a8 71 3e 9c 5f 48 bd
       0.19266927 -0.32199538 0.23599505 -0.048919305
0002b0 08 16 fa bd ee d2 d1 3d eb ae 86 3d 9b 06 61 3e
       -0.122112334 0.1024531 0.06576332 0.21975176
0002c0 76 60 03 3e 6e 98 8d bc a7 3b 93 3e 78 60 d6 3d
       0.12829766 -0.017284598 0.2875645 0.10467619
0002d0 14 a9 f6 bd 33 e0 37 3e 4a 57 aa be f6 9f 92 bd
       -0.12043968 0.17956619 -0.3326972 -0.071594164
0002e0 4e 9d 22 3e 0e 8a d4 3d b5 e8 07 bf 1e 6d 25 be
       0.1588032 0.10377894 -0.5308946 -0.16154906
0002f0 27 b8 c8 be 4d 50 8a bd 6e 80 03 3e 6f dd 11 3e
       -0.39202997 -0.067535974 0.12841961 0.14244626
000300 6b c4 99 be 05 9d c1 3d 36 c4 1c 3e a4 fd 27 3d
       -0.30032668 0.09453777 0.15309224 0.041013375
000310 17 d1 ad be 16 2c 7b be 05 a6 cb 3d 33 fc fe bc
       -0.33948585 -0.24528536 0.09943775 -0.031126117
000320 f3 44 08 be 1d 92 d8 3e 60 d5 8b 3d d0 d0 8c bd
       -0.13307552 0.42298976 0.068278074 -0.06875765
000330 40 4f 93 3e e1 87 89 3e e9 28 4e 3e 34 12 39 be
       0.287714 0.2686148 0.20132793 -0.1807335
000340 1b a6 d6 3d 4e 41 8d 3d 9c d5 28 be 8c 83 2a 3f
       0.10480901 0.068972215 -0.16487736 0.66606975
000350 10 1e 12 bf de 69 d2 3e 7c e0 23 bf 80 71 2c be
       -0.5707712 0.41096395 -0.6401441 -0.16840172
000360 02 6f d5 bd d7 81 9b bc a9 b8 48 3e c5 da b9 3e
       -0.10421564 -0.01898281 0.19601692 0.3629972
000370 81 24 8d be 1e 83 b6 3e 5b 3f 75 3d 8f 4d 6f be
       -0.27566913 0.3564691 0.059874874 -0.2336943
000380 39 6e 1e be c3 cc 28 be 20 6e 11 3e ce 2a 10 be
       -0.15471734 -0.1648436 0.14202166 -0.14078829
000390 51 e8 29 be d2 d0 e9 bd 29 6f 46 3e d2 1e 9f 3e
       -0.16592528 -0.114167824 0.19378342 0.31078202
0003a0 19 9f 42 bd 12 2b b7 bc 22 28 be 3b 54 e1 28 3e
       -0.04751501 -0.022359405 0.005803124 0.16492206
0003b0 19 ab b0 be 5e 00 0a 3c a2 59 73 bb c9 da 61 3e
       -0.34505537 0.008422939 -0.0037132283 0.22056116
0003c0 75 67 2c bf d4 ec 3d 3e c0 43 1d be 2b 2d 08 bd
       -0.6734536 0.18547374 -0.15357876 -0.0332462
0003d0 e0 e8 79 be f2 62 73 be c8 e3 33 be 24 3a cd 3e
       -0.24405241 -0.23768213 -0.1756736 0.4008342
0003e0 48 78 b9 be 76 0c ab 3e ca 7c 85 be 2d d4 09 bf
       -0.3622458 0.33407944 -0.2607177 -0.5383938
0003f0 1a d5 e2 be e6 bb 63 be 34 cb 2b be dd bd 86 bd
       -0.4430321 -0.22239646 -0.16776735 -0.06579182

model.encoder.bias f4 [32]
000000 ef bc 6f be ea 4a 2a 3e bd 34 e3 3d 11 fb 18 3d
       -0.23411916 0.1663014 0.110940434 0.03734881
000010 cc 33 39 3e ed b3 2b 3e 77 03 37 3e 64 e2 2b be
       0.18086165 0.16767855 0.17872415 -0.1678558
000020 f7 e1 da bd c0 57 b0 bc ac 99 d3 3d ae ec 5b be
       -0.106876306 -0.021526217 0.10332045 -0.21477005
000030 22 32 2f be c7 1d fd bc 31 4f 39 3e 49 cb 10 3c
       -0.17108968 -0.030897988 0.18096615 0.008837529
000040 7a 30 d6 bd 9f 48 75 3d 2b d7 66 3e 79 f8 d8 3c
       -0.10458465 0.05988371 0.22543018 0.026485668
000050 0b d7 99 3d 1e 0b 16 3e 85 13 fc bd 6a de b6 3d
       0.07511719 0.14652678 -0.123084106 0.08929141
000060 47 62 a1 3a 22 d0 4c be c1 b5 bf 3c a8 60 39 3d
       0.0012312614 -0.20001271 0.023402097 0.045258194
000070 b5 86 f6 bb 20 f5 ed 3c 4b fd ee bd 9c 9b 39 3e
       -0.0075233825 0.029047549 -0.116694055 0.18125767

model.time_nn.rnn.weight_ih_l0 f4 [96, 32]
000000 1b e6 f4 bc 80 16 ac 3d 7d 42 ad be 71 37 0d 3e
       -0.02989488 0.08402729 -0.3383979 0.1379068
000010 c5 8e 86 3e 5c 83 e4 3c 3e 50 02 3e 9d ba 82 3c
       0.262808 0.027894668 0.12725922 0.015958125
000020 72 40 da 3d 08 6c 09 bd ec b1 33 bd e2 0d 39 bc
       0.10656823 -0.033550292 -0.04387085 -0.011294814
000030 8e 24 ee 3d e7 99 a3 3d 7e ad 8a 3d d4 d7 89 3c
       0.11628066 0.07988339 0.06771372 0.016826548
000040 1d 45 1e bf 0a f5 b3 bd cb 67 82 bd 6a 62 a2 bc
       -0.6182421 -0.08786972 -0.06367453 -0.019822318
000050 4e 41 d9 3e b4 0d 49 bd 58 f2 f1 3d 0c 8c d2 bd
       0.42432636 -0.049085334 0.118138015 -0.10280618
000060 a4 0a 4f bf ac b3 43 3d 56 e5 3c be a0 41 09 3f
       -0.8087561 0.04777877 -0.1844686 0.5361576
000070 b9 fe 1b 3e 41 a0 51 bd 66 b8 8a 3c 3a 88 2b 3e
       0.15233888 -0.05117822 0.016933631 0.16751185
000080 b3 e1 0b bd 07 99 8c 3d 95 53 2b be 80 28 5e 3e
       -0.03415079 0.06865125 -0.16731103 0.21695137
000090 eb 29 af bd b1 96 f6 3d 35 4c ca bd e0 bf 4b 3c
       -0.08552917 0.12040461 -0.098778166 0.012435883
0000a0 5f a7 4b 3e 4d 97 25 be dd 34 20 3e bb 89 02 bf
       0.19888066 -0.16170998 0.15645166 -0.5099141
0000b0 ec e7 15 3e d0 1c 3d 3d a6 b2 23 3f df 5c 86 3c
       0.14639252 0.046170056 0.6394447 0.016401706
0000c0 7c 0d a4 bd aa 93 b8 3e 7f 1c 04 3f d8 94 aa 3e
       -0.080103844 0.3605016 0.5160598 0.33316684
0000d0 2c 81 2e 3e ed 84 d2 bd 55 d1 e0 3e 9b eb 29 bd
       0.17041463 -0.1027926 0.43909708 -0.041484457
0000e0 f5 1a c7 bd 01 0f 1e bf 62 d5 88 3e b5 0c 94 3e
       -0.097219385 -0.61741644 0.26725298 0.28915945
0000f0 29 4f 11 3e 48 6c c5 be ba 0a 6e be 2c f9 a8 3e
       0.14190353 -0.38559175 -0.2324628 0.33002603
000100 2c 66 2e 3e ef c2 02 3e b8 0d 7a bd 22 0a dd 3e
       0.17031163 0.12769674 -0.06104824 0.43171793
000110 bc ec bf be 49 74 ae 3d 1f b0 f2 be 68 f4 90 bc
       -0.37485301 0.085182734 -0.47399995 -0.017694667
000120 20 01 02 be a7 a2 4e 3e 9b 9d 0f 3e 1f 95 55 be
       -0.12695742 0.20179234 0.14024965 -0.20857666
000130 03 d9 0b be f0 22 d9 3e 1e cf 4c be d7 7d 09 be
       -0.13657002 0.42409468 -0.20000884 -0.1342691
000140 96 fc 29 3f 76 0a 0e bf f2 f4 89 3d 52 20 de bc
       0.6640104 -0.5548471 0.06736173 -0.02711502
000150 50 88 45 3e 9a 06 6b 3e b7 1a 8a be 4d d3 62 3e
       0.1929028 0.22951737 -0.26973507 0.22150917
000160 f4 db 8a bf 84 03 92 be 67 0c 03 3e 59 d0 16 3e
       -1.0848374 -0.28518307 0.127977 0.14727916
000170 42 09 a6 3e 98 4d 8b be 75 c2 db bd a9 b7 9e be
       0.32428938 -0.27207637 -0.10730449 -0.30999497
000180 88 e9 d3 bd a0 db ed bd b9 0c fb 3e 84 cd 26 be
       -0.10347277 -0.11614156 0.49033144 -0.16289335
000190 f0 78 07 3e e1 21 93 3e b4 0a 4b 3d 00 53 5a be
       0.13229728 0.28736785 0.049570754 -0.21320724
0001a0 d9 bf 23 bd aa 10 83 3c 8b 54 83 3c 1c ac 86 bd
       -0.039977882 0.015999157 0.016031524 -0.06575796
0001b0 9e 30 b2 be 1d e0 2d be 42 5e 1e 3e f3 30 09 be
       -0.34802717 -0.16980024 0.15465644 -0.13397579
0001c0 6f bd ab be ec 79 03 3f b9 c1 f8 3d 68 c9 c7 bd
       -0.33542964 0.51357913 0.12146325 -0.09755212
0001d0 24 03 30 bd a3 32 26 3e 51 18 9a 3e e8 60 eb 3e
       -0.042971745 0.16230254 0.30096677 0.4597237
0001e0 d0 c5 61 3e 61 24 54 bd c9 b8 30 bd 56 7a a2 3e
       0.22048116 -0.051792506 -0.043144975 0.3173396
0001f0 b9 f3 05 be 48 0c 48 3e f0 da 07 3e 9e e4 df 3d
       -0.13081254 0.19535935 0.13267112 0.10932277
000200 d4 1e 0e bf a6 13 54 be 91 1e 4e bf 79 b1 e9 be
       -0.5551579 -0.2071062 -0.8051539 -0.45643213
000210 32 b2 67 be 52 ae 22 bf fe b0 f7 3e 01 91 c2 3e
       -0.2262657 -0.6354724 0.48377222 0.38001254
000220 f1 02 0f 3f f3 6a ed 3b f3 21 5a 3d e7 11 eb bd
       0.55863863 0.0072454154 0.053255033 -0.11478024
000230 89 de 1b 3f 48 10 ea be 6c eb a5 3d 88 00 88 3d
       0.60886437 -0.45715547 0.08101544 0.06640726
000240 65 7c d8 be 4c 64 f2 bd a9 da b9 be da 71 a8 3e
       -0.42282405 -0.11835536 -0.36299637 0.32899362
000250 7b 72 68 3d 39 b0 84 be 20 3e 89 bf 93 8c 9e bd
       0.056749802 -0.25915697 -1.0722084 -0.07741656
000260 d7 58 f7 3e 2f 00 58 bd 31 ac 62 3f bb 5e d9 bd
       0.48309967 -0.05273455 0.88543993 -0.106137715
000270 9b 4f 90 3e bf 78 7a be 42 93 80 be 5a 7d 7f 3e
       0.28185734 -0.24460123 -0.2511235 0.24950162
000280 b9 d3 a4 3a f7 13 13 bd b4 4f 9a 3e 66 ca 99 be
       0.0012575305 -0.03590771 0.30138934 -0.3003723
000290 ed 18 c4 3d 3b ad 9a 3e 08 a9 cd be 5c d5 c8 bd
       0.09575067 0.3021029 -0.40168023 -0.0980632
0002a0 1c 2a 06 be b5 55 70 3d 1a c5 82 3e ac 09 b2 3e
       -0.13102001 0.058675487 0.25541002 0.34773004
0002b0 52 18 24 bf 52 fe 92 3e b2 d3 2a 3e 91 56 2e bf
       -0.6409961 0.28709656 0.16682318 -0.6810084
0002c0 cf a9 18 3d f1 4f 04 3f 73 45 d3 bb bf 6f 20 be
       0.037271317 0.5168448 -0.006447488 -0.15667628
0002d0 7f c9 93 be 05 f2 1c be 7b 9c f0 3e 88 0e b6 be
       -0.28864667 -0.15326698 0.46994385 -0.3555796
0002e0 0d cf f4 be 82 53 ad be 20 74 da be 8f 2e b3 3e
       -0.47814217 -0.33852774 -0.4266672 0.3499646
0002f0 18 2f 63 be 03 98 77 3e 27 b1 91 3e 90 ae 43 3d
       -0.22185934 0.24179082 0.2845547 0.047773898
000300 de d7 88 be 65 40 54 3e c5 9a 5d 3e a5 d7 9b 3d
       -0.26727194 0.2072769 0.21641071 0.0760949
000310 45 59 ef 3d 30 16 14 3b de b4 16 3e b5 29 35 bd
       0.11686949 0.0022596233 0.14717433 -0.044229228
000320 80 35 08 bd 02 83 dc 3d b2 a0 84 3e a0 0f 21 be
       -0.033254147 0.10767175 0.2590385 -0.15728617
000330 6d 7a 61 be f8 e7 1f 3d f2 90 d0 3d fe a0 8d 3e
       -0.22019358 0.039039582 0.10183896 0.2766189
000340 4a 29 e3 3d f7 8f 8f 3d 59 81 d9 3e d8 8d 1c be
       0.1109186 0.07009881 0.42481497 -0.15288484
000350 e0 03 3c bd ed f6 70 3e 85 cc 57 be 4d c4 80 3d
       -0.045902133 0.23531695 -0.21074112 0.062874414
000360 3b 76 b8 3e 5d 95 8d be dc 55 2c be c8 87 1b be
       0.36027703 -0.27653018 -0.16829628 -0.15188515
000370 3d 6d 60 be fb d7 9a 3e 5b 09 b4 3d a0 60 df 3d
       -0.21916671 0.30242905 0.08790847 0.10907102
000380 51 36 ea bd 85 56 53 3c 3e 9a e7 bc e1 b3 8b 3e
       -0.11436141 0.012899046 -0.02827179 0.27285674
000390 66 c3 9c 3a 81 b8 05 3d ba 16 8d be 87 58 c1 bd
       0.0011960089 0.03264666 -0.27556401 -0.094407134
0003a0 6b 91 4d 3e 6e 90 ee 3c 36 4f 80 3e b5 dd 0b be
       0.20075004 0.029121604 0.25060433 -0.13658793
0003b0 a7 b6 60 3e 8a de 7d 3e 69 79 aa 3d c0 72 50 3e
       0.21944676 0.24791923 0.083239384 0.20356274
0003c0 a0 4b 56 be 39 f2 59 bc 48 a0 a3 3e a5 42 91 bd
       -0.20927286 -0.013302379 0.31958222 -0.070927896
0003d0 8d c2 90 3e c5 31 b1 3d 98 18 6a bd ff 03 58 3e
       0.2827343 0.08652071 -0.05715236 0.21095274
0003e0 cd ff 26 bb 6b af 15 bf 4a a4 0f be 90 0e 8a be
       -0.002548206 -0.5847079 -0.14027515 -0.26964235
0003f0 92 4c d6 3c 29 95 07 3d 58 31 49 3e 28 3b 64 bd
       0.026159558 0.033101235 0.1964773 -0.05572048

model.time_nn.rnn.weight_hh_l0 f4 [96, 32]
000000 18 3a ae be f4 5e 7a bd 66 57 b2 3d 42 03 06 bd
       -0.34028697 -0.06112571 0.08708076 -0.03271795
000010 7e 7b a4 3e 49 81 30 3e 0a 9c 1e 3e b8 1f 6c be
       0.32125467 0.17236818 0.15489212 -0.23058975
000020 25 ad 84 3e c9 5e df bd 82 6b 91 3e c7 e1 b5 be
       0.2591335 -0.10906751 0.28402334 -0.35523817
000030 43 80 05 be 15 99 6f 3d 5a 90 f3 bd 5e af 29 be
       -0.13037209 0.0584956 -0.11892767 -0.16570804
000040 72 2e 2b 3d 0d 77 89 3d 53 f0 d6 3c 3f 1c 7e 3d
       0.04179234 0.0671216 0.026237642 0.062038656
000050 84 d2 9c be dd b8 1f 3e f2 09 01 bd 5c f7 9f bd
       -0.3062936 0.15597863 -0.031503625 -0.07810852
000060 d6 bd 82 3e a2 a4 84 be 70 cc 8c be c5 9a 36 be
       0.25535458 -0.25906855 -0.27499723 -0.17832477
000070 e2 87 a3 3d 80 8b 95 3d 29 f1 59 3e 22 85 27 be
       0.07984902 0.07301998 0.21283402 -0.1635938
000080 a9 e9 fe 3c 25 ea 53 be d5 83 52 3e 6a 61 b6 bd
       0.031117277 -0.20694788 0.20558102 -0.08905299
000090 ea e8 2c 3d cd 05 9c 3e a3 e9 e9 bd 9e 15 ca 3d
       0.04221431 0.30473176 -0.11421516 0.098674044
0000a0 51 62 68 3e 0d 4d 9f 3b 30 a1 b1 3d 55 e9 f2 bd
       0.22693755 0.00486148 0.08673322 -0.11860911
0000b0 eb 63 b2 be 21 9b 33 be 50 8e b1 3d 22 1b 9a 3e
       -0.34841856 -0.17539646 0.08669722 0.30098826
0000c0 94 df cd bd 14 73 ab be 56 98 66 bd d8 2a 4c be
       -0.1005241 -0.33486235 -0.056297623 -0.19938219
0000d0 96 7f a4 3e e4 97 34 3e de 0c 5f be ce 7b 0b bf
       0.3212859 0.17636067 -0.21782252 -0.54485786
0000e0 35 ce b2 3e c3 02 6e be 85 b0 62 3e cf ae 7c bc
       0.34922948 -0.23243241 0.2213765 -0.015422537
0000f0 e3 15 0a 3e da 97 93 3c fa 9a ca 3e 73 4d 45 3e
       0.13484912 0.018016744 0.39571363 0.19267826
000100 ee 93 8d 3e 7d ce 4a 3d 9d f3 ff bc 92 eb 58 be
       0.27651924 0.04951333 -0.031244094 -0.21183613
000110 39 66 e6 3e 8e 81 c5 bc 51 80 9a bd 62 7c 74 3e
       0.44999865 -0.024109628 -0.07544006 0.23875573
000120 0a 75 c3 3e f2 3b 21 be 6c 48 af 3d 35 05 09 bd
       0.3817523 -0.15745524 0.08558735 -0.03345223
000130 89 fc 3a be 93 fd c0 3d 33 a0 12 bf c7 fd 51 be
       -0.18260397 0.094233654 -0.57275695 -0.20506965
000140 f1 a5 25 3d 9c 4c 81 be 27 6c 65 be 96 e5 47 bd
       0.040441457 -0.2525376 -0.22404538 -0.048802935
000150 c6 27 2a be 9b 12 3f bd 67 34 b6 bd 0d 20 90 be
       -0.16616735 -0.046648603 -0.08896714 -0.28149453
000160 8f d3 02 3e da c0 a2 be 16 e5 50 3e 4a 6f ef 3d
       0.12776016 -0.3178776 0.2039989 0.116911486
000170 61 66 b2 3e 03 d6 bc 3d 75 9b 64 3e 97 9f c3 bc
       0.34843734 0.09220507 0.22324927 -0.02387981
000180 d6 80 5a 3e e0 01 80 bd aa 64 fb 3d a5 79 80 3f
       0.2133821 -0.06250358 0.122750595 1.0037123
000190 3d 87 fd bb 9d 10 d5 3b d9 87 1e 3e fb e8 1c 3e
       -0.007737069 0.0065022246 0.1548151 0.1532325
0001a0 4c d0 06 be 97 ef 12 be e1 1a 27 3e 99 68 2e 3e
       -0.13165396 -0.14349209 0.16318847 0.17032088
0001b0 4e 20 1d be d1 b2 7c 3c a7 58 f9 3d 93 11 cf 3c
       -0.15344355 0.0154234925 0.12175112 0.025276935
0001c0 b5 b4 3b bd 35 b8 bc 3e 6c a8 75 3d d4 70 8a 3d
       -0.045826633 0.3685929 0.059975073 0.067598015
0001d0 1f db 9a 3d 23 f5 07 3e ad b5 66 3e 62 c7 35 3e
       0.07561325 0.13277106 0.22530241 0.1775184
0001e0 42 d6 8f 3d 06 47 6c bd b9 01 62 3f 4c fa d7 bd
       0.07023288 -0.05768492 0.8828388 -0.10545787
0001f0 5f f4 56 be 97 62 72 3e 6c be 18 3e 2b dc 68 3d
       -0.20991658 0.23670422 0.1491639 0.056850594
000200 16 ce 0b 3e 85 f9 72 be 17 29 bf 3d 5d 0d 2d be
       0.13652834 -0.23727997 0.09334009 -0.16899629
000210 96 52 e4 bd 54 d5 f7 3d e2 d8 65 be 21 f0 8f 3e
       -0.111485645 0.12101236 -0.22446015 0.2811289
000220 f8 c8 99 be af 37 5b 3d a0 4b 1d 3d 45 be 07 bc
       -0.3003614 0.0535199 0.0384022 -0.00828511
000230 77 7b 9e 3e da d9 ac 3d 56 78 8f bd 58 79 23 bc
       0.3095357 0.084399894 -0.07005374 -0.009977661
000240 5d 2e f6 3c 06 3e 00 3d ec be 73 be 2d b6 5d 3e
       0.030051405 0.03130915 -0.238033 0.21651526
000250 73 48 6f 3e cc 97 92 3d cb 55 ec 3d 73 f1 b7 3d
       0.23367481 0.07157859 0.11539801 0.089816
000260 40 06 89 3d 9f d9 9f be 37 49 b8 be e6 c4 33 3e
       0.06690645 -0.3122072 -0.35993358 0.1755558
000270 31 07 53 3e c9 d9 bd 3d d7 be 64 3e f7 9a 52 3e
       0.20608212 0.09270055 0.22338425 0.20566927
000280 b5 0d 42 be de 7b 2c 3c 60 c2 83 3d 9c 35 ea bd
       -0.18950541 0.010527579 0.064335585 -0.114360064
000290 74 b6 ad bd d1 8a e7 3d bb c4 11 bc 2b 3a 98 3e
       -0.08482066 0.11305774 -0.008897002 0.2973188
0002a0 3c da 8f 3d 6c a5 83 be 6e 0e 36 3e e4 52 33 3e
       0.07024047 -0.25712144 0.17778942 0.17512089
0002b0 62 c6 bd 3d 98 52 63 be 34 1b 12 3d d9 2f d8 bd
       0.09266354 -0.22199476 0.035670474 -0.10556001
0002c0 5c ba 88 bd be 2b 08 3e c5 62 de 3d bc 00 43 be
       -0.0667617 0.13297936 0.108586825 -0.19043249
0002d0 a6 ec 81 3d f1 5f 05 be d0 85 53 3c af e5 9d 3d
       0.06343965 -0.1302488 0.012910321 0.07709824
0002e0 39 b8 83 bd af c8 ca 3e 6f c8 64 3e 32 67 65 3d
       -0.06431622 0.39606234 0.22342084 0.056006618
0002f0 37 54 87 bd 87 2e c5 3d a6 61 d3 be 4c dd ac 3e
       -0.066078596 0.09628015 -0.41285437 0.33762586
000300 ae 35 1b be 26 dd 42 be 95 ba a3 3d c9 d3 9f be
       -0.15157196 -0.19029674 0.07994572 -0.31216267
000310 bf ba 23 3e 1f 31 14 3e 0b 81 10 bf e7 04 00 be
       0.15989207 0.14471863 -0.56446904 -0.1250187
000320 89 27 3b 3e 84 63 c4 3d 98 5f 98 bd 32 d3 c4 3d
       0.182768 0.095892936 -0.07440108 0.09610595
000330 62 93 e5 bd 13 e9 9e 3d c1 28 35 3d c0 87 ee bb
       -0.11209752 0.07759299 0.04422832 -0.0072793663
000340 e2 40 a4 3e 1f 14 21 3e ff 52 77 3e a2 da e3 3d
       0.32080752 0.15730332 0.24152754 0.11125685
000350 5d d7 e5 3d 49 2c 06 3f 87 cd 5e bd 4e b5 c5 be
       0.11222718 0.52411324 -0.054395225 -0.38614887
000360 60 63 11 be 0f fc b7 3e d2 18 aa be 65 44 69 3e
       -0.14198065 0.35934493 -0.3322206 0.22779997
000370 62 b4 90 3e 44 90 4a 3e 45 1f fd 3d 2d 11 c8 bd
       0.2826262 0.19781595 0.1235948 -0.09768901
000380 c4 30 18 be fe 1c 86 3d 12 b8 09 be 85 8b 0b 3e
       -0.14862353 0.065484986 -0.13449124 0.13627441
000390 38 26 4c bd c9 66 f1 3d 34 81 b8 bd 43 83 fa bc
       -0.049841136 0.11787183 -0.090090185 -0.030580169
0003a0 63 78 a7 3e a2 9c 94 3d b9 db 2e bd 5a 28 1b 3d
       0.32709035 0.07256438 -0.042690013 0.03788028
0003b0 b2 4c 85 be e4 3b 66 be 20 a3 0c be 87 84 45 bd
       -0.26035076 -0.22483784 -0.13734102 -0.04822209
0003c0 c2 f4 47 be 9a 71 7e bd 91 f8 02 3c e3 5b 62 be
       -0.19526961 -0.062120058 0.007993833 -0.22105365
0003d0 04 78 3d 3e 41 d0 fc 3d 7a 59 97 bd 8f 85 50 bd
       0.18502814 0.12344409 -0.07390113 -0.05090862
0003e0 29 b7 27 bd 65 b3 fc 3d 19 b7 05 3d 6e 60 2a be
       -0.04094616 0.12338904 0.03264532 -0.16638348
0003f0 6e bb 2b be 73 0e 3b 3e 9d 0c 85 be 6d f8 ac 3c
       -0.16770718 0.1826723 -0.25986186 0.021114552

model.time_nn.rnn.bias_ih_l0 f4 [96]
000000 75 c6 f0 bd d6 46 a7 3e 43 f8 95 3d 90 2a 63 3d
       -0.11756603 0.3267123 0.07322743 0.055460513
000010 27 c7 de bd 2b 49 7b 3e 5d 5f d6 3e f7 ab 5a bd
       -0.10877829 0.2453963 0.4186963 -0.053386655
000020 fa 2e 1d bc 9f 03 ac 3d 9c 3a 26 be ec fb 1c bc
       -0.00959372 0.08399128 -0.16233295 -0.009581547
000030 e8 8e 1c 3e 23 30 ee 3d fb 61 ef 3d 98 a2 f8 bc
       0.1528889 0.11630275 0.1168861 -0.030350968
000040 c0 5a 9c 3e 4b 94 70 3e 11 31 c7 bd b7 65 e2 bd
       0.30537987 0.2349407 -0.097261555 -0.11054557
000050 90 b3 bc bc ad 38 27 3d e5 91 5c bd 1a f2 50 bd
       -0.02303484 0.040825535 -0.053850073 -0.051012136
000060 d2 15 b9 bd fd a6 68 bb c2 78 55 3e 74 9d 68 3d
       -0.09037365 -0.0035499923 0.20846847 0.056790784
000070 56 6f 0d 3d 49 c5 86 bd de c0 0d 3d 06 91 3e bc
       0.034530006 -0.06580598 0.03460776 -0.011631256
000080 cf a4 04 be a1 06 22 be aa 28 eb 3d a9 48 0b 3e
       -0.12953494 -0.15822841 0.114823654 0.13601936
000090 2c 55 c1 bd e6 78 a3 3d 2c 33 98 3d 9f 85 bc 3c
       -0.09440073 0.07982044 0.07431635 0.023012934
0000a0 62 42 75 3d f3 94 c4 3d 5d 1a b2 3e c0 86 99 3e
       0.05987776 0.09598722 0.3478574 0.2998562
0000b0 43 f6 49 bd f8 32 06 3e 69 36 0f be 32 a6 80 3d
       -0.04930712 0.1310538 -0.139856 0.06281699
0000c0 33 30 c8 3d 72 7e ac be 71 51 04 3e ec d8 c5 be
       0.09774818 -0.3369022 0.12921692 -0.3864206
0000d0 44 3d 53 be 50 77 e4 bd 0b 07 bc be 0e ca 9f be
       -0.2062884 -0.111555696 -0.36724123 -0.31208843
0000e0 ef 53 47 3d 8a e2 1a bf a4 10 e2 be ea 1d b1 bd
       0.04866403 -0.6050192 -0.4415332 -0.08648284
0000f0 8f fd 88 be 97 a2 0b bf f4 ef c0 bd 4d 98 9e 3d
       -0.2675595 -0.5454497 -0.094207674 0.07743893
000100 54 08 12 3e f4 58 2a be 41 e6 4c 3d 2e 33 0a be
       0.1426099 -0.16635495 0.050024275 -0.13496086
000110 7e 27 b6 bd 64 a9 d6 3d b9 ec ca bd b6 77 3f 3e
       -0.08894251 0.104815274 -0.099084325 0.1869801
000120 ab 47 8f 3d 81 32 90 3d 6e b4 02 3e d4 55 9d bd
       0.069960915 0.07040883 0.12764141 -0.07682386
000130 dd 88 d0 bd 43 e8 4e be 7f 6b 69 bd 99 11 fa 3d
       -0.101823546 -0.20205788 -0.056987282 0.12210388
000140 19 c2 16 3e 76 6b 1d be e9 bb b5 bd 9e 9a dd 3d
       0.1472248 -0.15373024 -0.08873732 0.108205065
000150 02 2f eb 3d 88 ac bd 3d b2 67 a8 3d dd 30 d0 bd
       0.114835754 0.09261423 0.08222903 -0.1016557
000160 0a 66 9f 3d a1 77 15 be 2b 36 83 3d a7 e7 27 be
       0.07783134 -0.14596416 0.06406816 -0.16396962
000170 53 a7 47 bd 98 bb 12 3d 19 28 c4 bd b5 88 e3 bd
       -0.048743557 0.035823435 -0.095779605 -0.11110059

model.time_nn.rnn.bias_hh_l0 f4 [96]
000000 22 5c 0b be 44 1e e8 3e 1f 9f 02 be 5f 0c 82 3e
       -0.13609365 0.4533559 -0.12756012 0.25400063
000010 8e 71 a5 bc 51 b4 84 3e 73 89 aa 3e dc 74 b5 3d
       -0.020195749 0.2591882 0.3330799 0.0886018
000020 35 bc b8 bb ea b8 20 3e fc ea 91 3d a4 2a dc 3d
       -0.0056376704 0.15695539 0.07124898 0.107503206
000030 90 c5 70 3e 27 a4 c1 3d 75 82 45 3e 86 28 95 3b
       0.23512864 0.09455138 0.19288047 0.00455195
000040 c8 f3 8a 3e c1 74 99 3d 99 89 bf 3d af 4e 7b be
       0.27139115 0.07492972 0.093524165 -0.24541734
000050 c2 ed 98 bd 63 35 30 3e c1 48 96 3d d0 c5 2c 3d
       -0.07467224 0.17207865 0.073380955 0.042180836
000060 dc c0 ec 3d 62 e8 2c 3e db 19 5f 3d 96 cc 48 be
       0.115602225 0.16885522 0.054468017 -0.19609293
000070 9f 27 97 3d bf c0 76 3d a2 14 16 3d 5f e0 a1 3c
       0.07380604 0.06024241 0.03664077 0.019760309
000080 c2 05 a6 3d 18 86 5a 3d 64 e2 83 bb c5 77 fe 3d
       0.08106567 0.053350538 -0.0040247906 0.12425188
000090 ee 21 99 be 83 cc 2a 3e ca 63 28 be 5f 83 25 3d
       -0.299087 0.16679578 -0.16444317 0.04040849
0000a0 7f 49 dd bd b6 42 15 3d aa c6 79 3e 5a a1 9b 3e
       -0.10805034 0.036440574 0.2439219 0.3039654
0000b0 fd 8a 2e be bd 9c b8 3d c1 4d 3a be 1a 99 3a 3a
       -0.17045207 0.090142705 -0.18193723 0.0007118151
0000c0 78 d8 00 be 08 ea 9e be 41 cf b2 3e d4 c9 08 bf
       -0.12582576 -0.31037927 0.34923747 -0.53432965
0000d0 36 3d d9 be 67 c5 44 be fe b4 0c bf b0 05 75 bd
       -0.42429513 -0.19215928 -0.5496367 -0.059819877
0000e0 5c d7 e0 3d b2 f4 ef be 84 b8 40 be d5 70 95 3c
       0.109785765 -0.46866375 -0.18820387 0.018242279
0000f0 2f b5 db bb bd cb 20 bf 0a 22 42 be f9 fe ee 3b
       -0.0067049484 -0.6281088 -0.18958297 0.0072935787
000100 8e a5 ae bd dd 05 45 3d 53 9f 6e bd 8d aa b7 3d
       -0.08527671 0.048101295 -0.058257412 0.08968077
000110 4a 74 27 3e cb 9a 8c 3d da 27 42 3d 61 1f 06 be
       0.16352955 0.06865462 0.047401287 -0.13097908
000120 8c ed 9a 3d 36 1e 52 be 14 19 a0 3d 7c 5b 23 3e
       0.0756484 -0.20519337 0.07817283 0.15952867
000130 78 15 03 bb 61 d5 8f 3d 46 45 5f bd 77 0b 0b be
       -0.002000181 0.07023121 -0.054509424 -0.13578592
000140 cb a9 d8 3c 77 0c e1 bd 2b 36 9e bd f3 4a 42 bd
       0.026448151 -0.109887056 -0.077251755 -0.04743476
000150 2b 0a 19 3e 5a 65 98 3c db d3 2c be 85 04 fe 3d
       0.14945285 0.018603016 -0.16877691 0.12403206
000160 ae 0a 7c 3d cc 19 26 be 77 b1 7d 3e 12 5a c4 bd
       0.061533622 -0.16220778 0.24774729 -0.09587492
000170 de c0 b1 3d 65 04 58 3e 36 97 da 3d 39 ff 06 3e
       0.086793646 0.21095426 0.106733724 0.13183297

model.space_nn.filters.weight f4 [32, 160]
000000 3b 28 4f 3e 10 0f 08 be 52 51 a1 3d 78 2c 7f be
       0.2023019 -0.13286996 0.07876839 -0.24919307
000010 4e 63 9a 3c 16 48 a9 bd 37 37 1c 3d 1d 4f 38 bd
       0.01884618 -0.082657024 0.038138594 -0.044997323
000020 ae 86 80 bd c4 1e ad bc 78 dd 76 bd d3 68 7d 3d
       -0.06275688 -0.021132834 -0.060269803 0.061867546
000030 a5 83 bd 3d b1 1d 0e 3e b5 d3 c7 bd 4b 75 a5 3d
       0.09253625 0.13878514 -0.09757177 0.080790125
000040 f0 d3 ae bd 76 19 91 bc 74 4c 96 3d 8f d2 3a bd
       -0.085365176 -0.017712336 0.07338801 -0.04561096
000050 bd cf 4d 3b d6 e1 08 3d ce 95 10 3e af 10 c7 3b
       0.003140434 0.0334185 0.14119646 0.006074987
000060 cd fd f9 3c ba 87 9e bd c2 3b 53 3e d6 3c 6a 3c
       0.03051653 -0.077407315 0.20628265 0.014296731
000070 c0 b4 bd bd 96 e4 51 3d 75 d7 52 3c a5 8f 99 3c
       -0.09262991 0.051243387 0.012868752 0.018745253
000080 d1 a4 5a 3c e4 d2 2d bd 34 0b 22 3d c4 ed 21 bd
       0.013344959 -0.04243745 0.039561465 -0.03953339
000090 0a ec 76 3c 13 f2 b5 bb 7c c6 f6 3c c4 30 a4 bd
       0.015070925 -0.005552539 0.030123942 -0.08017114
0000a0 60 10 9d bc 9a be 33 3a 2a 9b fc 3c d0 69 93 3d
       -0.019172847 0.000685671 0.030835707 0.071979165
0000b0 85 c9 25 bc 6b 50 03 3e 99 03 21 3e b0 a8 eb bd
       -0.010118847 0.12823646 0.15724029 -0.11506784
0000c0 90 02 6e bd a2 a1 6f 3d 17 b1 1d 3d ee 2e 9b bd
       -0.058107913 0.058503754 0.038498964 -0.075773105
0000d0 07 6a 17 3d a6 9a 4d bd e1 c9 50 3c 13 17 e9 3c
       0.03696635 -0.050196312 0.012743444 0.028453385
0000e0 24 b6 20 3e 7e 58 3d 3d 11 b0 56 3d ae c1 92 ba
       0.15694481 0.04622697 0.052414004 -0.0011196637
0000f0 65 a6 a1 bd d2 cf 2b 3e 92 44 83 3d 43 0b ef bd
       -0.07893065 0.16778496 0.06409563 -0.1167207
000100 17 fc ea 3c f4 7d 64 3d 1f e8 e4 3d f1 2a d9 bc
       0.028684659 0.05578418 0.11177086 -0.026509734
000110 26 49 9f 3d 73 fb 4c 3d 6b 17 a2 3d 3e aa df bd
       0.07777624 0.05004449 0.07914623 -0.10921143
000120 4e ef 67 3d 3b 04 a5 bd 93 e0 06 3c 66 3d 5b 3c
       0.056624703 -0.080574475 0.008232254 0.013381338
000130 f8 88 63 bc 2d be 1d 3e 03 51 32 3e 48 75 bf bb
       -0.013887636 0.15404578 0.17413716 -0.0058428384
000140 bd 29 de bc b9 a3 cd bb 17 f9 aa bc 39 9f ce bd
       -0.027119512 -0.006275621 -0.020870728 -0.10088963
000150 87 a4 7a 3c b0 30 ba bd aa 94 9c 3d 1b ac 64 3d
       0.015298015 -0.09091318 0.07645543 0.055828195
000160 a0 ba 65 3d 3a 20 19 be 0a 06 f8 3c eb e7 87 bd
       0.056086183 -0.149537 0.030276317 -0.06636032
000170 21 93 36 bd ae a7 73 3d 32 b1 a7 bc 3b c1 4a 3a
       -0.044573907 0.059486084 -0.020470235 0.0007734482
000180 56 6f b5 bd bf 1a a6 3d d5 b7 48 bd 1e be 3a bd
       -0.08859126 0.0811057 -0.04900344 -0.045591466
000190 71 59 fb 3b 4d e8 28 bd 60 01 3d bd cf 9d 80 3d
       0.0076705744 -0.041237164 -0.04614389 0.062800996
0001a0 f5 6d b0 3c 6e 03 5e bd 49 0e 20 3d 6c b6 8f bd
       0.021536807 -0.05420249 0.039076123 -0.07017216
0001b0 c9 e3 0a bc cd 8f 92 3b eb d7 78 3d ba 93 fd 3b
       -0.00847716 0.004472709 0.06075279 0.0077385576
0001c0 6a 9e 9f bc 74 86 ad bd 3c b0 16 3d 66 17 e4 bc
       -0.019484717 -0.084729105 0.036789164 -0.027843188
0001d0 94 8e c3 3c 3d d9 89 3c e0 63 b3 ba 93 ad 6b 3d
       0.023871697 0.01682722 -0.0013686381 0.05753858
0001e0 b8 22 66 bd 80 9f b1 3c 93 a4 80 bc 6b 75 24 bd
       -0.056185454 0.0216825 -0.015703475 -0.04015104
0001f0 8f e5 71 3d 49 9d 1f 3d 74 dd 62 bc e0 79 b4 3c
       0.059056815 0.03896836 -0.013846744 0.02203077
000200 47 3b a0 3d 19 b9 ae 3d a3 13 f6 bc ca 93 5f be
       0.07823806 0.08531398 -0.03003866 -0.21833721
000210 4a ba d0 38 a5 28 c7 bd fe 97 82 3b b6 15 60 3c
       9.952912e-05 -0.09724549 0.003985404 0.013677051
000220 5a f3 4e 3c 84 44 f5 3c 7d 56 2c 3c f2 64 f2 bd
       0.012631262 0.029939897 0.010518667 -0.1183566
000230 fa 17 a4 bd 1a 94 8a bd f2 4d 02 3e 77 d9 81 bc
       -0.08012386 -0.067665294 0.12725046 -0.015850766
000240 d1 c9 4a 3c 6a 94 d6 3c 5b 83 13 3c 4a c7 cf 3d
       0.012377218 0.026193816 0.009003486 0.10145433
000250 00 f7 cf 3d 54 f2 58 bd 55 50 1f 3e 01 1c 4b bb
       0.101545334 -0.052965477 0.15557988 -0.0030992033
000260 98 67 56 3d 08 fd bf bb 95 a9 05 3d 21 dc 11 3d
       0.05234489 -0.005859021 0.03263243 0.035610322
000270 24 f0 32 3d 21 be c4 3c d6 40 1f 3d 26 83 b8 bd
       0.043686047 0.024016442 0.03888019 -0.090093896
000280 81 64 24 bc 21 df 8a bc 77 d9 85 3d 57 f2 4d 3d
       -0.010033728 -0.0169521 0.06535619 0.05027994
000290 14 df ad bd b2 36 9d bc 75 54 22 bd c6 65 89 be
       -0.084898144 -0.01919112 -0.039631326 -0.2683546
0002a0 13 49 be bd eb de 75 bd 13 c4 39 3d fe ea a6 3d
       -0.092912816 -0.060027044 0.045353007 0.0815029
0002b0 89 12 12 3e 29 45 0d 3e fb 0b 74 bd 9a 38 81 3b
       0.14264883 0.13795914 -0.059581738 0.003943515
0002c0 ca 8f 45 bd 47 e4 8d 3b e1 e9 a0 3d 16 56 4f be
       -0.04823283 0.0043301913 0.07857109 -0.20247683
0002d0 9d 1f ab 3d bb ae eb bc 13 97 fc bc a1 18 f5 3c
       0.08355639 -0.028769841 -0.030833757 0.02991897
0002e0 75 03 ce 3b a6 cb 25 3e bd d8 cd 3d 89 e6 0b 3e
       0.006287033 0.16190967 0.10051105 0.13662161
0002f0 34 c0 0a be 8c ca 8e 3c ca 9a 97 be d4 39 46 3d
       -0.13549882 0.017430566 -0.29610282 0.048394993
000300 12 74 bc bc e1 c9 52 bd 25 eb 58 3d 77 80 1d bd
       -0.023004565 -0.051462058 0.052958626 -0.03845259
000310 68 45 be bd 66 20 82 bc b2 83 55 3d f7 a4 54 be
       -0.09290582 -0.01588459 0.052127548 -0.20766054
000320 1f 49 67 bd 84 76 06 be 55 06 c2 3d f6 02 01 3e
       -0.056466218 -0.13131148 0.09473864 0.12598786
000330 f4 31 82 bc cb 00 c0 3d 17 98 e6 bb ad 78 ed bd
       -0.01589296 0.09375151 -0.0070371735 -0.11595283
000340 39 a3 01 be 39 97 36 3d 0e 6e e9 3d ec cf bc 3d
       -0.12659921 0.04457781 0.113979444 0.092193455
000350 59 26 57 bd 2f e4 00 3e 5a 42 ca bc cd 4d 4d bd
       -0.052526806 0.12587045 -0.024689842 -0.050123025
000360 3f 66 1c 3d 69 23 2b bc 22 ce 72 bd 28 dc a0 3b
       0.038183447 -0.010445454 -0.059278615 0.004909057
000370 6d 7d 6a bc 15 cc 8b bc f4 d8 22 be 98 6f 5e bc
       -0.01431213 -0.017065087 -0.15903074 -0.013576411
000380 e7 33 83 bd 5a 4c a8 3d c4 da 4d 3e b5 66 b1 3d
       -0.06406384 0.08217688 0.20102984 0.08662168
000390 78 15 75 3d 5e 62 2c 3d cc ea bb bb 95 83 1d be
       0.059834927 0.042085998 -0.005734777 -0.15382226
0003a0 50 f8 5d be 7b 66 3e bd f7 60 b2 3c 16 78 0e 3e
       -0.21676755 -0.04648445 0.021774752 0.13912997
0003b0 d5 94 1a 3e 29 f4 8d 3e 80 96 98 bd 00 52 89 3b
       0.15095837 0.27725342 -0.074505806 0.0041906834
0003c0 b0 ee 1d be ca 6c f2 3c 6e c0 1d 3e 38 bf 07 3d
       -0.15423083 0.02959289 0.15405437 0.033141345
0003d0 80 5e 9f 3d 00 6b f6 bd 34 d3 8e bd ed 28 41 bd
       0.07781696 -0.120321274 -0.069738775 -0.04715817
0003e0 96 51 08 3d fd cb bb bc 3e b8 a9 bc 6a 4a a0 bd
       0.03328093 -0.022924418 -0.020717736 -0.07826693
0003f0 11 db 8f 3d b0 66 5c 3d b8 c8 d3 be 81 f8 bf 3b
       0.070242055 0.053808868 -0.41364074 0.0058584814

model.space_nn.filters.bias f4 [32]
000000 38 7a 32 3c ef ab 00 3b c1 7b 1d 3d 40 43 56 bd
       0.010893397 0.001963373 0.0384481 -0.05231023
000010 9e 38 8c bc 6c ae e5 3c 7d aa 59 bd 0e ad f7 bb
       -0.01711684 0.028037272 -0.053141106 -0.0075584715
000020 5a 07 fb bd 98 e3 ed bc 47 49 1f 3d 47 5d be 3d
       -0.122572616 -0.02903919 0.038888242 0.09295135
000030 6b 17 82 3d 61 23 ad bd 36 ea a3 3d 18 52 d8 bd
       0.06352123 -0.084540136 0.080036566 -0.10562533
000040 69 8b b4 ba 56 6e fc bd db 78 8f bd 23 2c 2a 3e
       -0.0013774458 -0.123257324 -0.07005473 0.166184
000050 26 bd 30 3c 3e 4b 5e 3d 7f fd bb 3d b2 cb 01 be
       0.010787284 0.054270975 0.0917921 -0.1267536
000060 1f e0 ed bd 49 2d e2 3c 42 a9 b6 3c b4 6d 10 bd
       -0.11615013 0.027609484 0.022297505 -0.03526087
000070 9a 0e 03 bd e3 cb 95 3d 0c 57 7f 3d fb 83 8b bd
       -0.031996347 0.07314279 0.062338874 -0.06812283

model.decoder.readout.mlp.0.affinity.weight f4 [64, 48]
000000 64 45 d9 3d 57 e3 39 bd 54 e3 94 bd 96 1b 83 bd
       0.10608938 -0.045382824 -0.07269922 -0.06401746
000010 a5 e5 8a bd f9 de c0 3e 78 ab 41 3d b3 8f b8 bc
       -0.067820825 0.37670115 0.047282666 -0.022529459
000020 8b bd b8 bd 9f 10 c8 3d 4d bb 6d 3d 33 b2 d5 bb
       -0.090205275 0.09768795 0.058039952 -0.006521487
000030 f5 c3 4f 3d 89 c0 87 3d c3 90 93 bd af 15 6e 3d
       0.05072399 0.0662852 -0.072053455 0.058126148
000040 d9 69 8a 3d 49 5c 87 bd 0c 94 82 bd f6 d7 f6 3d
       0.0675847 -0.06609399 -0.06375894 0.1205291
000050 b3 43 06 be 15 7b 4f 3d 49 fc 06 3d a8 bf 9d 3d
       -0.13111763 0.05065449 0.03295544 0.07702571
000060 a1 81 c5 3c d3 14 4c bd bf 51 c4 3d a4 6e a9 bd
       0.024109663 -0.049824547 0.09585904 -0.08273056
000070 53 4e d5 3d 1c 74 00 3e 48 fc 1b bd 81 cb c5 bc
       0.1041533 0.12544292 -0.03808239 -0.02414489
000080 76 ff b2 3d 9a 73 96 be 03 96 8d be d6 d2 82 3e
       0.087401316 -0.29385072 -0.27653512 0.2555148
000090 80 ee 89 bd 0e ed 29 3d 72 1c 37 bc 1a 6c 8a 3d
       -0.067349434 0.04148584 -0.0111762155 0.067589
0000a0 3a 9a a6 be 53 56 35 be be cf 2c 3e 05 6d 1f be
       -0.3253954 -0.17708711 0.16876122 -0.15568931
0000b0 a4 83 fb bc ad 92 c9 be 76 06 84 3c da 51 6f bd
       -0.03070242 -0.39369717 0.016116362 -0.05842767
0000c0 3d 51 8d bd 89 ee 07 be 05 cb df bc 7b d2 f1 3d
       -0.069002606 -0.13274588 -0.027318487 0.11807724
0000d0 f8 8f 5b bd a6 90 19 3e 94 e4 05 3e ee 6a 91 bd
       -0.053604096 0.14996585 0.13075477 -0.07100473
0000e0 6d 89 ae bd f4 51 06 be 93 7b 23 3e 7f d3 06 3d
       -0.08522306 -0.131172 0.15965109 0.032916542
0000f0 c4 eb 9a 3d 26 42 37 bd bb 10 88 bd 42 d9 e0 3d
       0.075645 -0.04474082 -0.06643816 0.10978939
000100 61 1e 54 bd 29 3e 26 bd 58 6f f1 3c 82 be 57 3a
       -0.051786784 -0.040586624 0.029472038 0.0008229987
000110 c3 ec de 3d bb e1 89 bc ef 89 1b 3e 03 51 13 be
       0.108850025 -0.01683127 0.15189336 -0.14386372
000120 7d 67 40 3a 8c 7d 94 3d 73 60 23 bd d6 7a 65 bb
       0.00073396397 0.07250509 -0.039886903 -0.0035015843
000130 f2 fb d1 bc c1 37 cc 3c 90 98 8d bc 62 7d 0d 3d
       -0.025632832 0.02492893 -0.017284662 0.034543402
000140 2f 92 a4 bd 6a a5 77 bd 78 01 22 be 12 2c be bc
       -0.08035695 -0.060460486 -0.15820873 -0.023214374
000150 83 72 61 be c4 23 f4 3d 00 14 a7 3d ee 59 6a 3e
       -0.22016339 0.11920884 0.081581116 0.22885868
000160 7e 8c 45 be 4a 1c 32 be 28 0a 38 bd 7a ce 2a bd
       -0.19291875 -0.17393604 -0.04493156 -0.041700818
000170 47 fa fd bd d9 1e 12 be 36 fe 3c 3a de 24 79 3d
       -0.12401252 -0.1426958 0.0007209511 0.060826175
000180 ba 99 69 3d 1f 58 31 3e a0 98 ad be 3e 77 49 be
       0.05703137 0.17318772 -0.33905506 -0.19674394
000190 ce 59 f1 3d d0 29 8c 3e 93 e1 3e 3e 2b f8 82 3d
       0.11784707 0.2737565 0.18640737 0.063949905
0001a0 20 1f fe 3d 96 f7 ae bc a5 7a 7d bb 65 c0 c8 3c
       0.124082804 -0.021358293 -0.0038677838 0.024505803
0001b0 96 0a b8 bd ae 94 aa 3d a7 11 7e bd 15 9e 12 3e
       -0.08986394 0.0832914 -0.062028553 0.14318116
0001c0 32 38 7d bd b6 99 62 3e da f9 91 be 4b 44 b5 be
       -0.06182117 0.22128949 -0.28510934 -0.35403666
0001d0 21 9c e3 bc 15 f6 09 bf b9 c3 d7 3b 59 28 55 3e
       -0.027784409 -0.53891116 0.0065846113 0.20816173
0001e0 d0 bb 71 3d 87 ed 8e 3e ba ea 07 bf 8a 9f 12 be
       0.059017003 0.27915594 -0.5309254 -0.14318672
0001f0 57 1b 94 be ed fe 81 be 44 20 a5 bd b7 a7 89 be
       -0.2892711 -0.25389805 -0.08062795 -0.2688577
000200 c6 2a 32 3e 97 b0 1b 3c d9 f6 cc 3e e7 89 7f 3e
       0.1739913 0.0095025515 0.4003208 0.2495495
000210 b4 b0 96 be 97 f5 df bc c1 26 64 be fe 5e d2 be
       -0.2943169 -0.027338786 -0.22280408 -0.41088098
000220 c7 3c b8 be 0d 91 36 3e a8 0d eb 3e b7 da 7c be
       -0.3598387 0.1782877 0.45908856 -0.24692808
000230 b2 c8 c5 3d 97 eb 51 3c ce 7b 3c bc e5 4c 09 bf
       0.0965742 0.012812517 -0.011504127 -0.53632957
000240 a4 3f b1 3d cf 15 12 3e e7 df 09 3e 8d b2 81 3d
       0.086547166 0.14266132 0.13464318 0.06332884
000250 e6 31 7e bd d1 09 7c bd 6b d9 8d bd 61 ce 10 be
       -0.062059306 -0.0615328 -0.06926235 -0.14141227
000260 09 18 1b be bb c9 08 3e 1e 28 3a bd b1 89 a0 bd
       -0.15145887 0.13358204 -0.045448415 -0.078387626
000270 aa d8 b7 bb 75 ce 58 bd 11 ef 50 bd 6d 5e fa 3d
       -0.005610545 -0.052931268 -0.05100924 0.122250415
000280 87 38 e0 bd 88 fb e6 bd ce cf 83 39 13 03 e9 bd
       -0.10948282 -0.112784445 0.00025141094 -0.113775395
000290 98 3f fc 3d c4 dd 12 bc 8c f1 6a bc e0 40 a2 bd
       0.12316817 -0.008964006 -0.014339816 -0.0792253
0002a0 98 a9 0f 3d 41 a8 b5 3c 8a ed 1d be 95 14 b2 3e
       0.035073847 0.022174956 -0.15422645 0.34781328
0002b0 03 c2 ef bb ed 35 1a 3d e2 21 01 3e a3 65 3f bd
       -0.007316829 0.037649084 0.12610582 -0.046727788
0002c0 e8 7f 07 3e 14 2a 81 bd 11 4f 41 3d 34 32 a3 be
       0.13232386 -0.06306854 0.047194544 -0.3187424
0002d0 f8 ab 1f be 39 16 52 3d a5 83 f4 bd 5c 00 f6 3e
       -0.15592945 0.051290724 -0.11939172 0.4804715
0002e0 2e 87 3d 3d 0c 11 cf 3d 3c a2 9f bd 52 e6 96 bd
       0.046271496 0.10110673 -0.077946156 -0.07368149
0002f0 22 54 32 be bb 59 d8 ba 63 36 9f bc 4a 4e ca be
       -0.17414907 -0.0016506234 -0.019435113 -0.39512855
000300 93 b3 ab bd fb e1 e4 3c 57 58 f2 bb 2b 3d 5e 3c
       -0.083838604 0.027939787 -0.007395785 0.013564388
000310 e3 07 b0 bd c9 e0 97 bd 6b 85 be bd 1f 45 af bd
       -0.08595254 -0.07415921 -0.09302791 -0.08558106
000320 e1 9d 4b 3d e5 f6 a7 bd ea d0 4c 3d 9a a7 61 bd
       0.049711112 -0.08201388 0.050003923 -0.055091478
000330 16 00 ca bd cb e6 b0 3d b2 db 09 bd bf d1 e3 3c
       -0.09863298 0.0863777 -0.033656783 0.027809976
000340 8a ea 64 3c 48 10 ae bc 46 b9 42 bd 68 9e 64 bd
       0.013971934 -0.021247998 -0.04753997 -0.05581513
000350 3a 9a 96 3d 0d fd 05 bb fc 95 5e 3d 33 a5 25 bd
       0.07353635 -0.002044502 0.054342255 -0.04044075
000360 a8 1f 74 3d 39 f0 0f be 51 2c be 3d 70 54 f2 3d
       0.059600502 -0.14056481 0.092857964 0.118325114
000370 eb 8d 9a bc f3 34 c6 3c b5 36 ad bd b3 40 b9 bd
       -0.0188665 0.02419517 -0.084577 -0.090455435
000380 65 7b 26 3d 05 36 8c bd 3d b3 a0 3d 6a aa 7f 3d
       0.040645022 -0.06846241 0.07846687 0.06241838
000390 5a 51 0d be 1c e3 cc 3d af 64 f4 bd 3e de 00 3e
       -0.13800564 0.10004255 -0.11933266 0.12584779
0003a0 6e 28 b4 3c 9f 81 d8 3c fd 38 c9 3d 76 59 de bd
       0.021991935 0.026428996 0.09825323 -0.10856907
0003b0 37 45 20 bd ba 97 92 bc 95 57 d6 bb a3 6d 04 bd
       -0.03912851 -0.017894614 -0.0065412023 -0.03233112
0003c0 e7 5e 1e be 93 b6 9f 3d e8 f8 e2 3d 87 79 05 be
       -0.1546589 0.07798495 0.11082631 -0.1303464
0003d0 d9 bb 49 3e 25 29 81 bd f4 24 29 3e 3d fb 43 3e
       0.19700564 -0.06306676 0.16518003 0.19138809
0003e0 f8 77 a2 bd 1e a7 45 be be 35 87 3d 73 a7 3d bd
       -0.079330385 -0.19302031 0.066020474 -0.04630227
0003f0 1f 71 ec bd 3c 8d 1f 3e d9 45 8b 3c 13 94 2f 3d
       -0.11545014 0.1558122 0.01700108 0.042865824
